published_data/SSA anaerobic (TL) /final_models/bag_model_22.pkl (torch, 324839 bytes, 21 tensors)

weight f4 [64, 20]
000000 e3 da 93 3d 7a 55 19 3e ba 85 a9 3d 54 a1 23 3e
       0.07219484 0.14974013 0.082774594 0.1597951
000010 6b 17 46 3e 6f 3a 2c be 30 35 7c be 87 ae 19 3e
       0.19344871 -0.16819166 -0.24629664 0.15007983
000020 38 b0 35 be 31 83 21 bd e7 b9 21 3e ea 51 85 bd
       -0.17743003 -0.039431754 0.15793572 -0.065097645
000030 b7 ee 3d 3e 09 2c 04 3e 76 1b 0a 3e 33 68 00 3e
       0.18548094 0.12907423 0.13487038 0.12539749
000040 6e df 84 3d 59 fa 8d 3c d2 52 ed 3d 4f 80 1a 3e
       0.06487928 0.01733129 0.11588062 0.15088008
000050 ba bc 8a 3d 48 f4 ca bd 4a 5a fd 3d 2a 09 4d be
       0.06774278 -0.09909874 0.12370737 -0.20023027
000060 9a 1f 17 3e a8 0a 47 3e 52 59 31 bb 68 01 6f 3e
       0.14758149 0.19437659 -0.0027061296 0.2334038
000070 87 94 0c bd 51 ac 2a be 1a dd 22 3e c5 ae 28 be
       -0.034321334 -0.16667296 0.15904656 -0.1647292
000080 6a 62 8a 3d e8 d0 85 3d 39 2e 49 bd 73 33 63 3d
       0.06757052 0.06533986 -0.049116347 0.055468988
000090 21 89 02 3e 0e f7 6a 3e ea dd 3f 3e 07 5c 09 be
       0.12747623 0.22945806 0.18736997 -0.13414012
0000a0 53 e7 81 be fe a5 94 3d ce 14 48 be 46 15 0a be
       -0.253718 0.07258223 -0.19539186 -0.13484678
0000b0 ec 19 30 3e a6 16 f0 3d f8 8b 72 3e e1 8a 28 be
       0.17197388 0.1172307 0.23686206 -0.16459228
0000c0 9d 3d 6b 3c 89 16 48 3e e0 9c 72 3e 19 18 95 bd
       0.0143579515 0.19539846 0.23692656 -0.07279987
0000d0 bf 92 3b be ab 71 8f be 0d 67 44 be 2e 7f 60 be
       -0.18317698 -0.2801641 -0.19179936 -0.21923515
0000e0 62 4d 9b bc f7 fa 8b bd 75 9f 07 be 8f d9 4f 3c
       -0.018957797 -0.06834977 -0.13244422 0.012686147
0000f0 44 84 ba bd b1 56 e3 bd 40 7f e3 3c 09 cc ec bc
       -0.09107259 -0.111005194 0.027770638 -0.028905885
000100 17 a7 b7 be 43 68 13 bc c2 b9 0d 3d 89 61 77 3e
       -0.35869667 -0.008997026 0.03460098 0.241583
000110 35 99 f4 bd 3b d0 26 3d ec 66 07 be a2 33 3f 3d
       -0.119432844 0.040725928 -0.13222855 0.0466801
000120 90 5a 12 3e 05 ea 71 3d 47 bf e1 3d c2 bf f9 bc
       0.1429236 0.05906107 0.110228114 -0.030486945
000130 50 10 b7 3d 86 18 aa 3d 6b 6e 63 3d 38 08 ed bd
       0.08938658 0.08305459 0.055525225 -0.11573833
000140 11 14 d4 3d b0 4f 30 3e 39 e2 e0 3d 0f 73 12 3c
       0.1035539 0.17217898 0.109806485 0.008938565
000150 e2 75 4c be 14 63 52 bd 10 42 55 bd 59 76 33 3e
       -0.19966844 -0.05136402 -0.052064955 0.17525615
000160 fc cd 2b bd 2b 03 90 3d 7a 56 4f be 17 c8 74 bd
       -0.04194449 0.07031854 -0.20247832 -0.059761133
000170 5a b9 c4 3d 7f 88 1f be 57 6b 92 bd 78 97 bf 3d
       0.096056655 -0.15579413 -0.0714938 0.09355062
000180 b4 e5 c9 3d ec 4c 47 3e 1e e9 69 3e 63 76 d2 bd
       0.098582655 0.19462937 0.22842833 -0.10276487
000190 4e 33 89 ba 8b 70 fb 3d 1a 33 1e 3e 8d 9c 7c bd
       -0.001046756 0.12277325 0.15449181 -0.061672736
0001a0 9b f5 96 bd 5d d6 88 3e 57 24 74 3e 6f d3 a9 3d
       -0.07371064 0.26726046 0.23841988 0.08292281
0001b0 aa 0d a9 3c 2c 7a 37 be 71 58 49 be d1 e2 c3 3d
       0.020636398 -0.17917699 -0.19662644 0.09564746
0001c0 5b 46 3a 3e 8d 92 91 3d fb b4 41 3e f8 30 69 3e
       0.18190901 0.071080305 0.18916695 0.22772586
0001d0 5b 1d 15 be d0 de c1 bd f4 88 a3 3d 7b 24 37 3e
       -0.1456198 -0.09466326 0.07985106 0.1788501
0001e0 37 8e 98 bd 06 ac 69 be 6e 6c fa 3d 0f c9 eb 3d
       -0.07449 -0.22819528 0.122277126 0.11512958
0001f0 ef af 73 be f9 71 45 3d 5a a2 c7 bd 3e 87 36 3e
       -0.23797582 0.048204396 -0.09747763 0.17825028
000200 d2 8a 64 bd ef 32 f1 3d a0 ff 2d be 7e 19 4d bd
       -0.055796452 0.11777293 -0.16992044 -0.05007314
000210 b3 cb 91 bc 99 81 01 3e 9b 02 de 3c 60 4e 2e bd
       -0.017797327 0.12647094 0.027100852 -0.042555213
000220 51 6e 1f bd 19 5a 78 bd 38 c3 96 3d ce 68 40 3d
       -0.038923565 -0.0606328 0.07361454 0.04697495
000230 f0 30 b5 3d cf d5 15 bc 90 b0 d8 3d 36 2b 0f 3e
       0.08847225 -0.009145214 0.105805516 0.13981327
000240 85 29 8a bb 96 9e c3 bd 63 f3 57 bd e0 d0 2b 3e
       -0.0042163753 -0.09551732 -0.052722346 0.16778898
000250 0e 19 4c be 9b 9c 10 3d 2f 3e a1 be 35 38 2b 3e
       -0.19931433 0.0353056 -0.31492755 0.1672066
000260 b4 8c 1a 3d ae f1 2d be a7 47 e1 bd f5 bc 26 3c
       0.03773184 -0.16986725 -0.10999995 0.010176887
000270 99 69 40 be c7 17 21 3e 61 ed 21 be e4 da 58 be
       -0.18790282 0.15731727 -0.15813209 -0.2117725
000280 e4 8d 4f 3b c1 7e 37 3e 2d 62 85 bd 7e b7 8e bc
       0.0031670267 0.17919447 -0.06512866 -0.01742148
000290 66 65 ad 3d cd 8b 4f 3e 4c 4d 36 3e e5 91 91 bd
       0.08466606 0.20268174 0.17802924 -0.07107905
0002a0 20 c6 f3 3d b5 7e 06 3e 28 37 23 be 49 6b b2 bb
       0.11903024 0.13134272 -0.15939009 -0.0054449183
0002b0 25 e3 3c be 1a cd 0e be 0d 0e d5 bd 25 d6 94 3d
       -0.18446024 -0.13945428 -0.104030706 0.07267407
0002c0 d0 44 13 3e 67 a9 83 3e cc fc 1c 3e 16 3e 12 3e
       0.14381719 0.2571518 0.1533081 0.14281496
0002d0 2e ee 18 be 63 ab 1a be b6 fb c6 bd e5 ec 9f 3d
       -0.14934608 -0.15104441 -0.09715979 0.07808856
0002e0 b9 8c 0a 3e f7 26 00 3e f7 fd 4b 3e 62 a7 83 3e
       0.13530244 0.12514864 0.19921099 0.2571364
0002f0 f8 8f f1 3d 9e 35 6c 3d a4 9f 53 be 7f 90 83 3e
       0.11795038 0.05766832 -0.20666367 0.2569618
000300 5b 8b 16 be 91 96 49 be 68 e1 c2 3d f6 03 8e bd
       -0.14701597 -0.19686343 0.09515649 -0.06934349
000310 8d 68 33 3e 90 5d f8 bd 67 bd 86 bc dd d4 f5 3c
       0.17520352 -0.12127221 -0.016447736 0.030008728
000320 bf b9 8d bd 37 d3 3c bd 41 b5 96 3e 6a 50 0d 3e
       -0.06920194 -0.046099868 0.2943516 0.13800207
000330 8c f4 6a be f6 76 0a 3e 74 77 61 be 66 72 a9 3d
       -0.2294485 0.13521942 -0.22018224 0.08273773
000340 ed 76 42 be cc ba 5c be 5d f9 84 bd e2 94 72 be
       -0.18990679 -0.21555632 -0.06492875 -0.23689607
000350 cc cd e4 bc 8b 62 9f bd 30 b7 08 3e 12 95 15 3e
       -0.027930163 -0.077824675 0.1335113 0.14607647
000360 fe e8 07 be 9c 68 0c be 29 10 23 be 4a b5 8b bd
       -0.13272473 -0.1371178 -0.15924133 -0.068216875
000370 93 16 be bd 17 3a bd bd 76 a9 c3 bd 14 d7 26 be
       -0.092816494 -0.092395954 -0.095538065 -0.16292983
000380 05 37 74 3d 17 b2 db 3d 5e ad 25 3d 93 f6 35 3c
       0.059622783 0.10727327 0.04044854 0.011106151
000390 2e 05 57 3e d7 3a a2 be bd 07 82 bd 88 1a a3 3c
       0.2099807 -0.31685516 -0.06349132 0.019910112
0003a0 f5 16 b6 3d 83 52 ae bd 31 56 7d bd cf 53 49 be
       0.088910975 -0.085118316 -0.061849777 -0.19660877
0003b0 cb eb 3e 3e 96 39 94 3e be 99 e1 bd b0 5d 7f be
       0.18644635 0.28950185 -0.11015652 -0.24938083
0003c0 b4 b0 19 3e a4 88 30 3d 03 36 e0 3d 5e c3 0a 3c
       0.15008813 0.04309906 0.10947802 0.008469431
0003d0 46 ca f0 3c 40 66 04 3e 95 30 6b 3e aa 97 7e 3d
       0.029393326 0.1292963 0.22967751 0.062156357
0003e0 fc 09 9f 3d b9 18 5e 3e 08 b7 da bc 27 1b 33 3e
       0.07765576 0.21689118 -0.026698604 0.17490827
0003f0 fb f8 22 3e 2d 67 3e 3e 9b 11 4d 3e b8 2f 09 3e
       0.15915291 0.18594046 0.20026247 0.1339711

bias f4 [64]
000000 ff 86 c1 bc 0e 0c ed bc f7 7e a7 3c fa 53 e4 3d
       -0.023623941 -0.028936412 0.020446284 0.1114883
000010 a9 04 0a be b1 c4 fe bb 94 7f 27 3e f6 32 88 3d
       -0.1347834 -0.0077749123 0.16357261 0.06650345
000020 d2 86 05 3e 10 27 b0 3a 5e eb 23 bd 38 9e 29 be
       0.13039711 0.0013439376 -0.040019386 -0.16564262
000030 cf 7f 60 be 39 a1 38 be 21 6a 96 3b cb a2 30 bd
       -0.21923755 -0.18030252 0.0045902883 -0.043124
000040 93 6d 0f 3d e9 a0 19 be c7 e5 61 be c0 97 16 bd
       0.035016607 -0.15002789 -0.2206031 -0.036765814
000050 5b b3 11 be 0d a0 b3 bd 0a 4d 4d 3e 85 00 c0 bd
       -0.14228575 -0.08770762 0.2004892 -0.09375099
000060 e6 a3 85 bc 1d 3c f9 bd 86 6f 01 3d 23 2f 2d be
       -0.016313504 -0.12169669 0.031600498 -0.16912512
000070 cd 43 77 3d fe a8 4d bc fc 90 36 be e2 61 c8 3d
       0.060367394 -0.012552498 -0.17828745 0.09784295
000080 44 21 82 be b3 30 46 3e 57 72 40 bd 0a 9b af 3d
       -0.25416005 0.19354515 -0.046984043 0.08574493
000090 c7 a8 9a bd 74 33 21 3e 2f 0d 33 3e c4 dc aa 3d
       -0.07551723 0.15742284 0.17485498 0.08342889
0000a0 79 04 1d 3e 3a a7 74 3d e2 77 ff 3c 8a cd d3 3d
       0.15333737 0.059729792 0.031185094 0.10341938
0000b0 2b 0a 4b bc ae 9e 36 be 58 1c 40 be 0d d5 d4 3d
       -0.012392561 -0.17833969 -0.18760812 0.10392199
0000c0 7b 7b 52 be b4 97 42 3e 71 f0 51 bd b1 dd 24 3d
       -0.20554917 0.19003183 -0.051254693 0.040250484
0000d0 32 23 38 be 3c 75 95 3c 64 0d b3 3b 56 94 98 3c
       -0.17982176 0.018244378 0.005464243 0.01862542
0000e0 fc 8b 5c 3c 53 8c c3 bd df 24 30 3e ed 35 42 3e
       0.013461109 -0.09548249 0.17201565 0.18965884
0000f0 af cd 21 be b6 9e 59 3d 92 a3 5e 3e ba db b1 3d
       -0.15801118 0.053129874 0.21742085 0.08684488

weight f4 [256, 64]
000000 8e 24 9f 3d 4f f3 dc 3c 1a 2f 4e 3d ea 71 25 3d
       0.07770644 0.026971487 0.05033789 0.04039184
000010 20 8a 93 bd b0 53 00 bd e1 d3 cb bc c1 f9 db 3b
       -0.0720408 -0.03132981 -0.024881305 0.0067131226
000020 13 b9 b8 3d 3d 80 6d 3c d1 97 9d bd d3 88 4f be
       0.09019675 0.014495906 -0.07694972 -0.20267038
000030 a9 57 94 3d ac 7f 8f 3d 7e b3 ce 3c 65 48 01 3e
       0.07243282 0.07006773 0.025232073 0.12625273
000040 e2 4e a8 bb 0e b6 d7 bd 65 12 8a 3c e9 a8 a9 3c
       -0.0051363567 -0.10532771 0.016854474 0.020710425
000050 16 fa 73 3d af 5a 05 3c 93 64 52 bb 10 f7 8e 3d
       0.059564672 0.008139296 -0.0032103404 0.06980717
000060 e6 4f a7 bd f8 5e 7d bd 34 ff 7f 3c 86 11 a6 bd
       -0.08169536 -0.061858147 0.01562481 -0.08108811
000070 f7 28 26 be 1e e8 bf bc c5 8b 97 3d 1f 4e 27 bd
       -0.16226564 -0.023426112 0.07399706 -0.040845986
000080 d5 63 a9 bd 22 4d b5 bc 48 17 27 3b b0 c0 0e 3d
       -0.082709946 -0.022131506 0.0025496054 0.03485173
000090 b8 f7 dd bb ee e2 ed 3c ba 3e 9e 3b 87 09 d7 bd
       -0.006773915 0.029038873 0.004829255 -0.10499864
0000a0 01 55 a6 3d be ff 9b 3a aa fa 5c bc cf f4 4b 3d
       0.08121682 0.0011901779 -0.013487497 0.049794015
0000b0 0a af a3 bd a6 b7 ec bd 84 6f 44 3d 3a af c0 3d
       -0.079923704 -0.11558466 0.047957912 0.09408422
0000c0 59 78 b0 3d 46 86 04 be 51 bb 98 bd b6 ac 2a be
       0.086167045 -0.12941846 -0.07457603 -0.16667446
0000d0 3e 6d fb 3c 6a 13 16 3d 9d 88 f3 3c 09 d5 f0 3c
       0.03069174 0.03663961 0.029728228 0.029398458
0000e0 00 69 87 bd 73 91 98 3d 24 f0 78 3d 69 b0 e7 bc
       -0.06611824 0.07449617 0.06077589 -0.028282361
0000f0 72 e2 d6 bd 35 0f ae 3d 82 a0 f2 3b 25 9d 8c 3c
       -0.1049241 0.08498994 0.007404388 0.017164776
000100 4b 74 f9 bd ec c7 e7 3b 21 b7 01 be e4 70 2e 3e
       -0.12180384 0.007073393 -0.12667514 0.17035252
000110 8f 68 22 bc 66 a5 31 bd db 26 8c 3d f4 6f 45 3e
       -0.009912624 -0.043370627 0.068433486 0.19280988
000120 eb 60 07 3e 2f 52 fc 3d 7e 20 c2 bd d7 c5 90 3d
       0.13220565 0.12320363 -0.09478854 0.07068985
000130 f9 13 87 3c 1a fd 97 bd 5a 81 a1 3d 17 ad c2 bc
       0.016489016 -0.07421322 0.07886 -0.023764176
000140 c3 fe 9a 3d e5 c0 f2 3d a2 17 3f bd 82 23 0c bc
       0.07568123 0.11853198 -0.046653397 -0.008553388
000150 e5 85 48 3e 59 03 f1 bd 02 06 9a bd 4d 24 56 3e
       0.19582327 -0.11768217 -0.07520677 0.20912285
000160 0d b9 4e 3c 5f 3a cb 3c fb fe a4 3c 00 9c 0d 3e
       0.012617362 0.024808107 0.020141115 0.1382904
000170 86 4d 82 bc 2e 3d c2 bd bb b9 bb 3c 1d 94 d8 3c
       -0.015906107 -0.09484325 0.022915712 0.026437813
000180 f4 aa cb bd 70 b3 19 be 01 e2 20 be 2e c7 a0 3d
       -0.09944716 -0.15009856 -0.15711214 0.078504905
000190 dc 56 bd 3c 36 1b da bd 07 f9 f1 bd e5 7a 0b be
       0.023112707 -0.10649721 -0.11815076 -0.136211
0001a0 da ad 0a 3e 9c 34 cd bd 93 16 07 3d a7 cc 53 3d
       0.13542882 -0.100198 0.032980513 0.051708844
0001b0 1d 87 bc bd 27 eb 57 bd df 8f 87 3d ae f0 01 3e
       -0.09205458 -0.052714493 0.06619238 0.12689468
0001c0 ea 4b d8 3b 3f a3 a7 bd e6 90 1a be 97 f2 9e 3b
       0.0066008465 -0.081854336 -0.15094337 0.0048506963
0001d0 79 0c 49 be 77 b1 13 3d 5e dd 0e bd 5d bf 40 bc
       -0.19633664 0.036057916 -0.03487908 -0.011764375
0001e0 63 19 e2 39 44 77 eb 3d cd 4e ee bc 5b 98 5b bd
       0.00043124994 0.114973575 -0.02909031 -0.053612094
0001f0 3d 3a 6a 3d 2f 90 13 be 55 90 0c 3e bf 47 9a bc
       0.057184447 -0.1441047 0.13726933 -0.01883304
000200 68 82 4a bd 3b ca 82 bd f0 e4 d6 39 63 7a 4e 3d
       -0.04944077 -0.06386229 0.00040987832 0.050409686
000210 10 0b 77 be 82 41 fa 3c b3 55 47 bd 57 02 89 3b
       -0.24125314 0.030548815 -0.048665714 0.004181187
000220 2d f6 64 bc da c9 0e 3e f2 d8 1b 3c e5 89 ec 3d
       -0.0139747085 0.13944188 0.009512173 0.11549739
000230 b2 31 56 3d 18 5f b1 3c 2e 26 bb bb f2 80 90 3c
       0.052293487 0.02165179 -0.0057113385 0.01763961
000240 2e 21 84 3d 0b 43 11 3d 7e 53 b5 3d a4 c1 e3 3d
       0.06451641 0.035464328 0.088538155 0.111209184
000250 b6 ba bc bc 47 15 d7 bd 57 7e 02 be bd b2 42 3d
       -0.02303825 -0.10502105 -0.12743507 0.04753374
000260 2d c4 51 be 1a 96 8d bd 53 21 c6 bd 18 46 14 3c
       -0.20484991 -0.06913395 -0.09674325 0.009049915
000270 77 75 af bd de f3 ef bc dd 45 62 be 3e e1 91 bd
       -0.085673265 -0.02929109 -0.22096963 -0.0712304
000280 c2 1b 91 bd c0 cb e1 3d 88 6d d0 3d de 76 08 3d
       -0.070853725 0.1102519 0.101771414 0.033316486
000290 f0 75 89 3d fe bd 4c 3d 15 3e 14 3d 46 88 0f 3c
       0.06711948 0.04998588 0.03619202 0.008760517
0002a0 1d 70 dc 3d b6 8f 12 3e 2c 04 99 3d 4b e6 3a be
       0.107635714 0.14312634 0.07471499 -0.18251912
0002b0 35 7b a4 3d 8e 9e 77 bb 02 de f2 bd 34 42 7f bb
       0.080313124 -0.0037783715 -0.11858751 -0.0038949372
0002c0 06 ce 07 bd b7 cb 13 be 62 ee 1b be 58 94 17 be
       -0.033155464 -0.1443318 -0.15227655 -0.14802682
0002d0 84 4a 8f bd 1f 68 6f 3c 07 6a ef 3d 99 0d a7 3d
       -0.069966346 0.014612227 0.11690145 0.081568904
0002e0 dc 16 d3 3d 88 9f c2 3d de dc e9 bd fd 9e 9f bd
       0.103070945 0.095030844 -0.1141908 -0.077939965
0002f0 dd 81 fb bd f2 25 5d 3c 4d d2 00 bd 3c 66 8a bd
       -0.12280629 0.013497816 -0.03145056 -0.06757781
000300 4b 08 8b 3d eb 4d d8 bd 46 86 61 3d f5 76 f1 3d
       0.06788691 -0.10561737 0.055059694 0.117902674
000310 9d 92 77 3d 77 c1 55 3d 84 b5 d5 3c 1a bd 2c 3d
       0.060442556 0.052186456 0.02608753 0.04217253
000320 b2 4d 2a 39 5a e6 93 bd a4 a2 07 bc 3e 1e 3e 3e
       0.00016241407 -0.072216704 -0.008278523 0.18566224
000330 5b 07 08 3c 3c 1c 92 bd ce 5d 6f 3c 98 97 05 3d
       0.008302535 -0.071342915 0.014609767 0.032615274
000340 d0 57 a3 3d 80 43 8d bd 45 a8 0a 3e 2e ea 14 be
       0.07975733 -0.0689764 0.13540752 -0.14542457
000350 8e 4c 08 be 24 f6 96 3d 43 de 4a bd d9 a6 b0 bc
       -0.13310453 0.07371166 -0.04952837 -0.021563934
000360 71 89 93 bd 20 bf f1 bb 9a 67 70 bc 7c 3a 84 bd
       -0.07203949 -0.00737752 -0.014673138 -0.064564675
000370 76 79 b6 3c c3 5f f9 3c 8c fb e9 bc be 5d e2 3d
       0.022274714 0.03044117 -0.02856233 0.11053036
000380 8f 87 b1 bd f5 34 ff bc c0 38 36 bd 6c 63 34 bc
       -0.08668434 -0.031153182 -0.044487715 -0.011010032
000390 2b b3 ec 3b 23 b1 55 3d e2 8f 5d 3d 9d 59 42 bc
       0.007223507 0.052170884 0.054092295 -0.011862186
0003a0 b5 69 77 bb ab 95 06 3d e7 19 f1 bd 3d 23 b2 3d
       -0.0037752215 0.03285758 -0.117725186 0.086981274
0003b0 3f 2d d2 3d 56 77 47 3d ea 5b e3 bd f0 b5 94 bd
       0.10262536 0.048697792 -0.111015156 -0.07261264
0003c0 08 ad 9b bc c2 33 f3 3c 9b ef b8 bd b3 0f 44 3e
       -0.019003406 0.029687766 -0.09030076 0.19146614
0003d0 67 7c e7 bc 5f 98 e5 3d 78 50 70 bc e4 27 c3 bc
       -0.028257562 0.11210703 -0.014667623 -0.023822732
0003e0 d0 36 1a bd 94 28 70 3c ae 44 04 3d db 52 47 bd
       -0.03764993 0.014658112 0.03229206 -0.048663
0003f0 59 50 ec bd b2 b7 11 3d 17 93 3c 3d 67 c8 0f 3d
       -0.115387626 0.035575576 0.046038713 0.035103228

bias f4 [256]
000000 65 18 d8 bd bf 0d 3a bc 72 1e ba bd 5a 4c 84 3b
       -0.10551528 -0.011355816 -0.09087838 0.004037422
000010 78 fb f6 bd 44 84 2b 3d f4 11 1f bc bd d3 c7 3d
       -0.120596826 0.041874185 -0.00970887 0.09757183
000020 65 a2 29 3d 0e 11 e4 bc 76 21 f6 bd fa 6d 1b 3e
       0.041414637 -0.027840164 -0.12018101 0.15178671
000030 d1 5d 81 3c f7 5f a9 bd 80 5d 2a bd 24 89 09 be
       0.015791805 -0.08270257 -0.041593075 -0.13431221
000040 b0 fc 96 3d 8d f9 ab 3b 6f 92 86 3d 5d a8 60 3d
       0.07372415 0.0052482546 0.06570899 0.054848064
000050 8e 2d ad 3d c3 09 53 3d ba ba 9a bd 08 8a 93 bb
       0.084559545 0.05152298 -0.075551465 -0.0045025386
000060 8d 98 12 bd d9 a4 b4 bd 17 bd 40 3d fc 8c e6 3d
       -0.035790015 -0.08820505 0.04705533 0.112573594
000070 81 09 0d bc ca 12 ca bd 45 30 ff 3d 4f 39 b2 3c
       -0.008608223 -0.09866865 0.124603786 0.021755842
000080 1b 1e 2b 3d 03 e7 cc bd cd ad 4e bd 91 8d 28 bd
       0.041776758 -0.100049995 -0.050458718 -0.041150633
000090 0d f1 bd 3d 09 c0 e2 bd a7 06 98 bd a3 9f 24 bd
       0.092744924 -0.11071784 -0.07423144 -0.040191304
0000a0 64 9b 05 3d 76 fe 8b bc 69 75 37 3d e8 f5 c1 3d
       0.032618895 -0.01708911 0.044789705 0.09470731
0000b0 c3 81 8c bd 96 28 6d 3d 9c ba 2f bd 66 1a 92 3d
       -0.068606876 0.057900034 -0.042902574 0.07133941
0000c0 74 3b 90 3d c2 6a af bd 66 7a fc bb 2f 2f 43 bc
       0.0704259 -0.08565284 -0.0077050207 -0.011913105
0000d0 83 b4 14 3e ad 2c f3 bc 00 19 89 bd 63 c2 55 3d
       0.14521985 -0.029684389 -0.066942215 0.052187335
0000e0 40 2c b0 3d 47 09 f4 bd 8e 36 00 be 8a dd 96 bd
       0.0860219 -0.11915832 -0.12520811 -0.07366474
0000f0 e1 78 86 bd 54 42 21 3d a3 a9 b0 bc dc c9 d1 3c
       -0.065660246 0.039369896 -0.021565264 0.02560895
000100 1b 91 e7 bd bb b1 88 bd 6e a1 4a bd 6b 16 c7 3b
       -0.113069735 -0.066745244 -0.049470358 0.0060756705
000110 fc 37 cf bc db 82 8e 3b 49 22 fa 3b ea 09 05 3b
       -0.02529525 0.0043490953 0.0076334816 0.0020300099
000120 90 a2 16 be 5c bd 04 3e 52 f3 65 bd 20 53 b9 3c
       -0.1471045 0.1296286 -0.05614025 0.022622645
000130 e8 b1 5a bd 0a 96 10 bc 48 70 6d 3d 57 cb 31 bd
       -0.05339232 -0.008824835 0.057968408 -0.04340681
000140 5e 7e ea bd c0 0a 91 bc 67 7b 3c bd a8 28 9a 3d
       -0.11449884 -0.017705321 -0.046016123 0.07527286
000150 07 22 f9 bc e1 96 a0 3c 45 82 99 3d 72 62 88 bd
       -0.030411733 0.019603195 0.0749555 -0.06659402
000160 05 59 57 bd b4 94 68 3d ab 1a 3a 3c 5a c7 8a 3d
       -0.05257513 0.05678244 0.011358897 0.067763045
000170 1b e4 c0 3d 11 52 11 3c 3c 67 04 bd 33 dd dd bd
       0.09418508 0.008869664 -0.032325014 -0.10833206
000180 e6 b8 a0 bd 0b b7 67 3c f2 fe 9f bd eb 95 0b bd
       -0.078477666 0.014142762 -0.07812299 -0.03407852
000190 51 df 90 bd ce 29 cf bd 31 4c dc bd cd 42 78 bd
       -0.07073844 -0.101153955 -0.1075672 -0.06061058
0001a0 2c f3 74 bd f8 64 ca 3d 6a a6 c6 3d cc bf ed bb
       -0.05980222 0.098825395 0.0969971 -0.00725553
0001b0 04 da a3 bd 0e 1c 02 3d c0 99 40 bd a8 ed 6c bb
       -0.080005676 0.031765036 -0.047021627 -0.0036152396
0001c0 1a 59 00 bd a9 d8 fc bc 75 92 fb bc b9 37 d4 3d
       -0.031334974 -0.03086503 -0.030709485 0.10362191
0001d0 5c 0e 45 3d 53 93 17 bd bb c0 c4 3d 12 e3 f6 3d
       0.048109397 -0.037005734 0.09607073 0.12055029
0001e0 90 48 3d 3d 06 2c bd bd 5f 7c 96 bc 3f 61 a7 3d
       0.04621178 -0.092369124 -0.018369852 0.08172845
0001f0 97 9e fc 3d 47 9b d8 3d 8b 59 11 be 45 f8 af bd
       0.12334936 0.10576492 -0.14194314 -0.085922755
000200 75 87 e1 bd a3 b3 50 bd 88 d5 87 3d 5a a3 6f 3d
       -0.110121645 -0.050952565 0.06632525 0.058505394
000210 35 df 14 bd 1e 39 e3 bb 81 1b f0 bc 72 df 9f bd
       -0.03634568 -0.006934299 -0.02930999 -0.07806291
000220 13 65 9d 3d d1 0d a3 bd 65 4e 3c 3d ac 67 21 bd
       0.07685294 -0.0796162 0.0459732 -0.03940551
000230 7e c5 e3 3d d2 83 a1 3d b6 ce 65 3d 56 46 0b be
       0.11121653 0.07886471 0.056105338 -0.1360105
000240 f2 78 f5 bd 35 83 c0 bd 92 45 0c 3e d1 28 8b bd
       -0.11985959 -0.09400026 0.13698414 -0.067948945
000250 02 c4 c1 3b 25 85 94 39 df b2 05 be 68 94 1a 3b
       0.0059132585 0.0002832796 -0.13056515 0.0023586992
000260 36 43 94 3c 60 b9 cf bd 68 da 8e 3d c9 df 03 3d
       0.018098455 -0.10142779 0.069752514 0.03219584
000270 46 51 c7 bc 79 b8 bc bd 06 b8 09 be 87 ad bf 3d
       -0.024330746 -0.09214873 -0.13449106 0.093592696
000280 e4 7e af bd 94 f5 f3 bc a2 a0 2e 3c cd 2b aa bd
       -0.08569124 -0.029780187 0.010658415 -0.083091356
000290 b6 0c 01 be e7 42 96 3d 7d ba 28 bd c5 1a e7 3b
       -0.12602505 0.07336979 -0.041193474 0.0070527517
0002a0 92 25 ad 3d d8 03 e5 bd 6e 55 c1 3d d0 49 7c bd
       0.084544316 -0.11182374 0.094401225 -0.06159383
0002b0 67 7f 19 3d a4 41 92 3d 93 aa 4b 3d 97 e0 93 3d
       0.037475016 0.07141426 0.04972322 0.072205715
0002c0 5d e2 86 3d 72 9d 98 3b 7b 25 d9 3d c5 a7 ce 3c
       0.06586144 0.004657441 0.10602852 0.025226483
0002d0 4f 51 d9 3b 2e e6 c3 3d 75 e9 39 bd 2d 59 c6 3d
       0.006632007 0.09565388 -0.045388658 0.09684978
0002e0 d3 50 9e 3d 3d 46 7b 3d eb 17 a4 3d f4 e9 0c 3e
       0.0773026 0.06134628 0.080123745 0.13761121
0002f0 04 1e cc bd 73 3b 5d bd 80 ba c0 3c a5 1d fd bd
       -0.099666625 -0.054011773 0.02352643 -0.1235917
000300 36 76 0b bd d6 d1 b8 bb d7 95 b7 3d 67 7c 86 3c
       -0.03404828 -0.005640249 0.089641266 0.016416742
000310 4b 83 3d 3d 03 da 19 bd 93 f3 23 bd c3 a9 3e 3d
       0.04626779 -0.037561428 -0.040027212 0.046548616
000320 5a bc fc 3d 96 1e f8 3d cf e2 32 bd 96 35 1e 3c
       0.12340613 0.12115209 -0.043673333 0.009656331
000330 bb 14 ce 3d 2b 70 17 3e b2 96 18 3e 17 04 f1 bd
       0.10062548 0.14788882 0.14901236 -0.11768358
000340 1a bd ad 3d 1c b6 ec bd 2f 66 ea bd e2 ff ba 3c
       0.08483334 -0.11558172 -0.11445271 0.022827093
000350 86 10 88 3d 05 77 69 bd d1 5f d4 bd ee 95 8b 3b
       0.066437766 -0.05699827 -0.10369838 0.0042598164
000360 f1 2c 47 bd 98 8c 4a bb d9 ad f3 3d d7 c2 b7 3c
       -0.048626844 -0.0030906554 0.11898393 0.022431774
000370 50 04 36 3d 72 1d 9d bd a0 e8 74 bd 27 92 dc bc
       0.044437706 -0.07671632 -0.05979216 -0.02692516
000380 08 55 54 3d 64 f0 f7 bc cf 34 02 bb cf 97 89 3d
       0.051838905 -0.030265994 -0.0019867902 0.06718408
000390 7e 85 cf bd 60 7c a0 bd 8f a7 2c bd 50 f7 b8 bd
       -0.101328835 -0.07836223 -0.042151984 -0.09031546
0003a0 4f 93 61 bb 47 b2 9b bd b2 94 9d 3d 5c fa c7 bc
       -0.0034420078 -0.07602363 0.07694377 -0.024411373
0003b0 3b b9 ee 3d ff d7 66 3d 25 34 93 bd e2 ab 81 3c
       0.11656424 0.056358334 -0.0718768 0.01582903
0003c0 64 a4 ca bc 42 e9 a4 bd 2a 40 bf 3d 44 22 16 3d
       -0.02473659 -0.08052303 0.0933841 0.036653772
0003d0 aa b6 5c bd db 70 0b 3d 28 f0 7c bd 01 d3 b1 3d
       -0.05388514 0.034043174 -0.06175247 0.08682824
0003e0 e6 83 66 bd 2f 9a 42 bd fa 6c c3 3d 9a d5 41 bd
       -0.056278132 -0.047510322 0.0954227 -0.047322847
0003f0 51 7a 84 3d d8 4f 4b bb 59 dc 58 3d dc db b0 3d
       0.064686425 -0.0031022932 0.052944515 0.08635685

weight f4 [32, 256]
000000 9f 08 e8 bc 83 4c c7 3c e7 a9 da bd 41 a9 7d 3b
       -0.028324423 0.024328476 -0.106769376 0.003870562
000010 d0 0b dd bb f9 99 af 3c 2c 03 38 3c 88 33 96 bd
       -0.006745793 0.021435725 0.011231225 -0.073340476
000020 d8 d8 ad 3c d8 49 00 3e b7 2f 5f bd 31 6b bb bd
       0.021221563 0.12528169 -0.054488864 -0.091513045
000030 65 65 c8 3b c4 4d fe bc 92 c9 5e 3d 01 78 56 3d
       0.006115603 -0.03104294 0.05439145 0.05236054
000040 47 07 3a 3c 6c a9 82 3d d7 9e bf 3d 75 12 d8 39
       0.011354274 0.06379971 0.09356468 0.00041212482
000050 13 58 8a bd 1a dd d9 3b f3 13 d2 3d 41 47 8b bc
       -0.0675508 0.006648672 0.10257711 -0.01700175
000060 ca 6c c3 3d e7 69 6b bd e7 a0 33 bd 39 e3 23 bd
       0.09542234 -0.057474043 -0.04385462 -0.04001162
000070 7c 58 9b 3d b4 49 10 bd 39 e0 36 3d d7 40 5a 3d
       0.075852364 -0.03522654 0.04464743 0.053284492
000080 f9 ca 5d bd b8 45 cc 3d d7 cf 94 bd 8e e4 27 bd
       -0.054148648 0.09974235 -0.07266205 -0.04098945
000090 f4 ca 48 3d 2f 68 70 bd 1b fd 76 bd 09 1f e8 bd
       0.049021676 -0.058693107 -0.060299974 -0.113340445
0000a0 39 9e 40 bd 3a 83 1f 3e a9 7b 5a 3e 66 de a1 3d
       -0.047025893 0.15577403 0.21336235 0.07903747
0000b0 7f e0 7a 3d 78 36 34 3c b3 b8 42 bd 3c 29 97 bc
       0.061249252 0.0109993145 -0.047539424 -0.01845228
0000c0 f8 0d 12 3d ef 29 28 3d 4b 9c 53 bd cb 5b 11 3e
       0.035657853 0.041055616 -0.051662724 0.14195172
0000d0 43 c9 13 3e 4c 83 6d 3b 74 aa 87 3d 40 e5 ab 3d
       0.14432244 0.003624159 0.06624308 0.08393335
0000e0 f3 13 09 3d fd 8c 47 3d b9 22 1d 3d 08 3a 01 be
       0.03346629 0.04871844 0.038363192 -0.12619793
0000f0 3e 0d 30 3d 32 e8 53 bd 96 4a eb b9 4c a0 64 bd
       0.04298138 -0.05173511 -0.00044878264 -0.055816934
000100 52 36 05 bd 85 a7 47 bc dd f2 a5 bd 9c a9 6f bd
       -0.032522507 -0.012185936 -0.08102963 -0.05851136
000110 52 93 ef 3d 87 db 98 bd 90 97 68 be be 39 9c bc
       0.11698021 -0.074637465 -0.22714067 -0.019070502
000120 50 5f 49 bd 27 49 19 3d 51 a1 89 bd 8e 53 11 3e
       -0.049163163 0.03742328 -0.06720222 0.1419203
000130 ea a3 99 3d ec b4 96 3c 12 83 b0 bd 84 80 22 bd
       0.07501967 0.018396817 -0.0861875 -0.039673343
000140 d0 a1 41 bd 71 7e fe 3a 07 b8 70 3d 4f 15 2a 3d
       -0.047273457 0.0019416345 0.058769252 0.041524228
000150 2c 28 1f bd 19 5f 2d bd 68 49 0f 3e 34 21 96 bd
       -0.03885667 -0.04232702 0.13992846 -0.07330552
000160 e7 05 cd 3c e2 7d 41 bd 06 9e 4e bb 1d 22 34 3d
       0.025027229 -0.04723919 -0.0031527295 0.043977845
000170 7c bf 6b 3d 6e f2 88 bb a2 7a d1 bd 93 8b 70 bd
       0.05755566 -0.0041792905 -0.102284685 -0.05872686
000180 bb c1 c4 bc 10 44 2b 3c a2 c2 73 3d eb 4b 66 bc
       -0.02401816 0.010453239 0.05951179 -0.014056186
000190 b0 e9 01 3d 77 bd 13 bc 02 d5 27 bd d0 03 cf 3d
       0.031717002 -0.00901734 -0.040974624 0.10108149
0001a0 54 2c 6b 3d 2d ed 87 3d 06 ad 35 3d c4 50 29 bd
       0.05741532 0.066370346 0.04435446 -0.04133679
0001b0 b4 30 9d bd fc ac 19 3c a4 82 cf bb b7 e9 19 3c
       -0.07675305 0.009379622 -0.0063327122 0.009394101
0001c0 5a 6f 82 bd db cd 70 3d a2 1f 55 bd c6 ed 90 3c
       -0.06368895 0.05879007 -0.05203212 0.017691504
0001d0 a8 93 29 bd c7 c5 a0 3d a5 ef b3 bd 55 3d a9 bc
       -0.04140058 0.07850223 -0.08785943 -0.020659128
0001e0 fe cf 81 bd 85 03 1c 3d 6f bc 69 be 7b 08 d2 ba
       -0.063384995 0.038089294 -0.22825788 -0.0016024256
0001f0 cb 0d e6 3c 9e 01 e9 bc 01 74 3d bd 5b 84 84 bd
       0.028082749 -0.028443154 -0.046253208 -0.06470557
000200 8e 95 17 3d f1 ff 99 3c ab 54 0b 3a a0 1a 4c 3d
       0.03700786 0.0187988 0.0005315046 0.04983008
000210 8e e0 1a bd 64 9f 52 3d 6c 30 6a be 54 42 1c be
       -0.03781181 0.051421538 -0.22870034 -0.15259677
000220 63 2d 45 bd 1b 92 91 3d 65 3c 99 3d d5 47 5c bd
       -0.048138987 0.071079455 0.074822225 -0.053779442
000230 10 52 cc 3d ec a2 26 bd 5c 39 8c bc 89 fe 90 3c
       0.0997659 -0.04068272 -0.017117195 0.017699497
000240 fe b8 cb bc 90 f8 e0 3c 37 a3 d7 3b 8c b2 9a 3c
       -0.024868485 0.027462274 0.006580736 0.018883966
000250 09 15 37 be 4d 81 24 be a9 9a 0d bd 64 9b 47 3c
       -0.17879118 -0.1606495 -0.034571324 0.012183044
000260 5a b8 f0 3d 56 73 78 3d 35 61 cb bd 83 12 b8 3c
       0.11753912 0.060656868 -0.0993065 0.022469765
000270 1e 94 66 bd d0 f1 ee 3c 8b 0e 6f bd e8 0d 1d bc
       -0.0562936 0.02916804 -0.05836348 -0.009585835
000280 e3 9d f9 bc 99 36 76 bd 94 ff 36 3d 84 30 ac 3c
       -0.030470794 -0.060110662 0.044677332 0.021019228
000290 26 48 0d bd 77 ca 6f 39 93 50 44 bc 31 e6 1b 3d
       -0.034492634 0.0002286824 -0.011982101 0.038061325
0002a0 1b 4c e6 3d 4c 51 e5 bc 42 51 c3 3b e0 b2 7d bc
       0.11244985 -0.027992867 0.0059606144 -0.015484542
0002b0 e2 e5 fa 3c 3b 41 90 3d 37 88 e9 3c 23 25 6c 3b
       0.030627195 0.07043692 0.028507335 0.0036032877
0002c0 b6 87 6c bd 6a bf 58 3c 90 5d 2f 3c c9 9c e0 bd
       -0.05774661 0.01322923 0.010703459 -0.109674044
0002d0 79 ea af bb 7b 2a 10 3d 03 d6 32 3e 8f 3f f9 3c
       -0.0053685275 0.035196763 0.17464451 0.030425815
0002e0 b7 97 9a bd 78 c1 36 3b 43 1b 5b bd 0e 38 06 3d
       -0.075484686 0.0027886312 -0.053492796 0.0327683
0002f0 a6 a1 21 bc e2 9e 12 3d 37 49 5c bc 9a bb 83 3d
       -0.0098652 0.035796054 -0.01344519 0.064322665
000300 94 c9 52 bd 4e 98 ef bc d1 84 f8 3c e7 30 e4 bb
       -0.05146177 -0.02924743 0.03033677 -0.0069638374
000310 16 9b 08 3d 47 db a8 3c 94 89 24 bd b4 d9 f9 3c
       0.033351026 0.020612372 -0.040170267 0.030499317
000320 67 ed 6a 3d 09 01 51 3c 70 17 e1 bb 76 5c e8 bc
       0.05735531 0.012756594 -0.006869249 -0.028364401
000330 9d b1 fd ba 82 d4 4f 3d a9 d1 17 3d 40 ca c2 bd
       -0.0019355301 0.050739773 0.037065182 -0.095112324
000340 c6 6c 92 3c 6d a6 02 3e 07 aa 1c bd 55 9d 37 3c
       0.017874133 0.12758799 -0.03824809 0.0112069445
000350 c8 df 1b bd 0b bf c8 3b 80 a3 cd 3a d4 3d 93 bd
       -0.03805521 0.0061262897 0.0015688986 -0.07189527
000360 8c 10 3b 3c b7 12 8f 3d c2 10 2d bb 84 a2 82 bd
       0.011417519 0.069859914 -0.0026407694 -0.06378654
000370 a9 02 db bb ef 88 b4 bd 05 2f 44 bd 3a 62 d8 3d
       -0.0066836667 -0.088151805 -0.047896404 0.1056561
000380 b1 0f 40 3b 39 8a b0 3d c7 4b b0 3d 63 df 3a bd
       0.0029306228 0.08620114 0.086082034 -0.045623194
000390 6a 0b 34 bd b2 84 72 bc 51 24 b1 3c 6a c5 74 bd
       -0.043956198 -0.014802145 0.021623762 -0.05975858
0003a0 50 15 72 bc 59 06 5c 3e f7 34 02 bd 4d d1 02 be
       -0.014775589 0.21486796 -0.031788792 -0.12775154
0003b0 e3 bf 3e 3d 4f ab 9d bd 76 68 26 be ef d0 34 bd
       0.046569716 -0.0769869 -0.16250786 -0.044144567
0003c0 33 4e 9c bc 93 76 73 bd 6d 61 91 3c 9f 1e aa 3c
       -0.019080257 -0.059439253 0.017746652 0.020766554
0003d0 21 13 e6 3c d7 05 1f bd 26 5e ff 3c 30 ad 67 bc
       0.028085293 -0.03882393 0.031172823 -0.014140412
0003e0 3d c4 ab bd 1d 48 05 3d 84 7d 54 bd 12 a3 36 bd
       -0.08387039 0.032539476 -0.051877514 -0.04458911
0003f0 f8 1a 2d bd c2 e0 b7 bd 56 7f 39 bd 42 ca 9e 3d
       -0.042262048 -0.08978416 -0.045287453 0.07753421

bias f4 [32]
000000 d1 29 22 bd c8 1f a7 bc 52 95 b6 bc c1 1b 36 3d
       -0.03959066 -0.020400897 -0.022287998 0.044460062
000010 4b eb f5 bc 79 ae 5e 3d 69 df 23 3d 09 97 79 bc
       -0.030019423 0.05436561 0.040007982 -0.0152337635
000020 14 5f ec bc da d7 4b 3d 2c f6 fe bc 7d 28 40 3d
       -0.02885393 0.0497664 -0.031123243 0.046913613
000030 87 7c de 3c 03 8c 40 3d 57 fc ae 3b 28 3c e0 3c
       0.027158989 0.047008526 0.00534014 0.027372435
000040 29 39 37 3d e7 87 05 bd 92 33 21 bd 31 28 c4 3b
       0.044732247 -0.03260031 -0.039355822 0.0059862365
000050 e6 5d 2a 3d 25 c3 c5 bc ad 19 9a bc a3 66 7e bd
       0.041593455 -0.024140904 -0.018811071 -0.0621096
000060 4e c6 b6 3b 28 33 a5 3c 58 20 19 3d 79 99 cf bc
       0.005577839 0.020165995 0.03738436 -0.025341736
000070 05 a1 7d bc 18 b9 0f 3c 7a f8 d1 3c 7e 5d ad 3c
       -0.015480285 0.008772157 0.025631178 0.021162745

weight f4 [1, 32]
000000 7b 71 63 be e1 5a e3 3d 32 8b a3 38 03 c2 72 3e
       -0.22211258 0.11101318 7.798373e-05 0.23706822
000010 00 01 f8 bd c4 54 2a be 96 9a 09 be 2a 2f 26 3e
       -0.12109566 -0.16633898 -0.13437876 0.16228929
000020 8a 6f fb 3d 5e f0 3f 3e 2f 71 1b bd 29 44 42 be
       0.12277134 0.18744037 -0.037949737 -0.18971314
000030 16 28 b8 bd 20 9e 76 bd 7e ab 51 3e 16 b4 25 3e
       -0.08992021 -0.060209394 0.20475575 0.16181979
000040 6c f7 2c 3e 39 bb 3a 3e 4b 52 0f be 6b c7 e3 bc
       0.16891259 0.18235482 -0.13996236 -0.02780505
000050 7c bb 15 bd 3e 01 bd 3e 11 93 24 be 8a cc 04 3e
       -0.036555752 0.3691501 -0.16071726 0.1296865
000060 9b 1f 40 be d1 98 c1 3d 00 e2 26 3e e7 38 25 be
       -0.18762057 0.094529755 0.1629715 -0.16134988
000070 e6 41 57 3e aa a5 88 bd 0d 2c 47 3e e8 60 51 3e
       0.21021232 -0.06672223 0.19450398 0.20447123

exp_avg f4 [64, 20]
000000 46 fe 8a 39 c2 f2 d0 39 e3 20 ce 39 06 1d e6 37
       0.0002651086 0.0003985372 0.00039315884 2.7431652e-05
000010 89 bb 2c 3a f3 b0 2b 3a 59 6d 39 3a 5e e3 33 3a
       0.0006589224 0.00065495 0.0007073484 0.00068621885
000020 1b 66 ad 38 26 88 30 3a 9f 13 3c 3a 0d 26 b2 39
       8.2683015e-05 0.0006734155 0.00071745546 0.00033979156
000030 9f ef 3c 39 83 71 38 39 a3 98 91 39 d1 02 e6 39
       0.00018018343 0.00017589894 0.00027770278 0.00043871117
000040 6f ff f2 38 90 12 02 3a 8a 39 b0 39 f9 4c 66 39
       0.000115870374 0.00049618725 0.00033612206 0.00021963184
000050 91 d5 59 39 92 47 8d 38 13 4f 66 39 5a 0a 8e 39
       0.00020774292 6.736735e-05 0.00021963967 0.00027092063
000060 e0 62 25 3a ec 66 cd 39 0b b6 16 3a ab b1 15 3a
       0.0006308984 0.0003917733 0.00057491724 0.00057103735
000070 89 61 a0 39 0a 30 15 3a b7 6a 3f 3a 3e 0e 23 39
       0.00030590247 0.00056910573 0.00073019735 0.00015550197
000080 aa 96 b3 39 84 5e ad 39 01 77 e2 39 2b 0d 57 39
       0.00034253794 0.0003306755 0.00043194744 0.00020508903
000090 ee d7 d0 39 22 10 c3 39 e0 ad 0f 3a da 70 9d 39
       0.00039833732 0.00037205318 0.00054809265 0.00030029455
0000a0 b8 ce 03 38 b0 c0 c6 38 9f 4f 35 39 9b c5 b0 b8
       3.1425356e-05 9.4772666e-05 0.00017291166 -8.429141e-05
0000b0 05 63 b5 b8 5a ea 08 39 17 a3 43 b9 0d 2d e0 b8
       -8.6491964e-05 0.00013057273 -0.00018657405 -0.00010689544
0000c0 0a 39 95 38 5f 01 e6 b8 c4 4d 60 b8 b1 cc 43 37
       7.115498e-05 -0.0001096751 -5.3478187e-05 1.1670564e-05
0000d0 27 47 a9 38 14 44 79 38 7c 2f 11 39 7f 86 e1 38
       8.071801e-05 5.942963e-05 0.00013845967 0.00010753888
0000e0 73 9d 2b 38 07 a7 a6 37 0d 9e 40 38 c3 a5 17 37
       4.0916213e-05 1.986652e-05 4.5923563e-05 9.038896e-06
0000f0 e1 f6 0e ba 6d 5c b8 b9 c7 6f c9 b9 30 e0 63 ba
       -0.0005453658 -0.00035164077 -0.00038420988 -0.00086927693
000100 e5 8d 58 ba 73 13 40 ba cc 86 62 ba d4 b3 05 ba
       -0.000826089 -0.0007327117 -0.0008641302 -0.0005100344
000110 d8 2c 4a b8 6d 03 b3 ba 30 bd 4b ba 89 fa 1e ba
       -4.8202317e-05 -0.0013657637 -0.00077720266 -0.00060645543
000120 20 77 8c ba 15 d1 44 ba 13 05 e1 b9 ca e0 82 39
       -0.0010716654 -0.00075079623 -0.00042919125 0.00024963013
000130 a3 b0 ab b9 f4 b4 b3 ba a8 26 04 b9 0f 5c 04 ba
       -0.00032747266 -0.0013710544 -0.00012602902 -0.0005049118
000140 cd 71 0e ba 17 6c b9 ba 4b 77 a0 b9 4b c7 83 ba
       -0.0005433828 -0.0014146593 -0.00030606458 -0.0010053901
000150 58 5f 73 ba 55 a8 8f ba 13 5b 60 ba bc e1 8c ba
       -0.00092839217 -0.0010960201 -0.0008558493 -0.0010748426
000160 26 4b 0c ba 17 73 26 ba 95 54 96 ba 19 78 3c ba
       -0.0005351774 -0.0006349547 -0.0011469299 -0.0007189527
000170 ff 60 2a ba d5 45 18 ba 26 4c 5b ba 81 52 08 ba
       -0.0006499439 -0.00058087456 -0.0008365534 -0.00052002823
000180 c3 f5 8d b9 d2 c4 d4 b9 df 2c a2 ba c4 9a 53 ba
       -0.00027076722 -0.00040582434 -0.0012372992 -0.0008072073
000190 d2 bf 5c b9 31 35 7a b7 fd cd 6c b9 5a 2a c3 38
       -0.00021052294 -1.4913546e-05 -0.0002258345 9.306213e-05
0001a0 4a 1a a8 b8 c8 c5 a2 b8 a9 90 8f b9 62 0e 78 b8
       -8.015761e-05 -7.7616016e-05 -0.00027382866 -5.9141203e-05
0001b0 cf a1 46 37 c7 30 95 38 57 3c 9c b8 43 4b 0c b9
       1.1839394e-05 7.113959e-05 -7.449899e-05 -0.00013379478
0001c0 57 b9 fd b8 50 4b d5 38 4a 48 a3 b8 bd 0f 69 b9
       -0.00012098502 0.000101706595 -7.7859106e-05 -0.00022226475
0001d0 cc fb 09 b8 d6 3b a3 38 ea 3b fc b6 7e 89 87 b9
       -3.289785e-05 7.783591e-05 -7.51716e-06 -0.00025851646
0001e0 81 7a 3b ba d9 ec a1 38 b5 70 ec b9 4c 47 39 b9
       -0.00071517384 7.7211946e-05 -0.000450974 -0.00017669535
0001f0 e7 e0 4f ba 69 de 15 b9 81 14 cd b9 43 97 47 ba
       -0.00079299364 -0.00014292602 -0.00039115924 -0.00076137873
000200 87 4d f4 b9 98 c6 6f ba 93 0f 6a ba e4 7d da b9
       -0.0004659707 -0.0009146719 -0.00089287123 -0.00041673996
000210 80 62 33 ba a4 7e ca b9 4a 89 5f ba 2e 58 19 39
       -0.0006842986 -0.00038622797 -0.00085272326 0.00014624067
000220 6a 64 8d b8 c2 f6 8e b9 a0 6d 81 ba f2 66 3d ba
       -6.7421075e-05 -0.000272682 -0.000987459 -0.0007225118
000230 d6 5a 16 b7 f0 9c aa 39 17 b5 bb b8 ac 0e b9 39
       -8.961846e-06 0.00032541854 -8.9505855e-05 0.0003529688
000240 96 db f4 b8 a8 73 ce 38 fc 10 29 b9 12 3b 16 b9
       -0.00011675728 9.844388e-05 -0.00016123423 -0.0001432712
000250 bb 53 77 37 67 75 d5 b8 42 2f 23 b9 bd ea 45 38
       1.4741842e-05 -0.00010178499 -0.00015562496 4.7187077e-05
000260 30 1a cf b8 c4 a8 33 37 ec 13 b1 b8 21 f9 9b b8
       -9.875407e-05 1.0708525e-05 -8.4437284e-05 -7.43738e-05
000270 4f d8 88 b6 3b ab 37 b9 38 44 9b 39 bd ab a5 b8
       -4.0782975e-06 -0.00017516028 0.0002961473 -7.899802e-05
000280 87 a1 a4 b9 2a eb 91 b9 48 8c 8d b9 3d 81 06 38
       -0.00031400865 -0.00027831766 -0.00026998133 3.2068452e-05
000290 45 48 7b b9 03 a5 63 b9 0e bb 9a b9 57 73 17 b9
       -0.00023964148 -0.00021709879 -0.00029512536 -0.0001444345
0002a0 8c 69 fb b7 5a fe e5 b8 dd 16 14 b9 91 a5 84 b9
       -2.997068e-05 -0.000109669476 -0.00014122897 -0.00025300359
0002b0 71 4e 2c b9 ef 84 ff b8 d6 63 2c b9 62 bc b4 b9
       -0.0001643242 -0.00012184108 -0.0001644039 -0.00034472632
0002c0 9f 24 37 b9 8f e9 92 b9 bf d7 a3 b9 48 44 24 b9
       -0.00017465882 -0.00028021305 -0.00031250526 -0.00015665696
0002d0 69 d4 12 b8 af 97 17 b8 e0 46 57 b8 40 9e 9e b8
       -3.5006935e-05 -3.614247e-05 -5.1326002e-05 -7.5635035e-05
0002e0 85 b7 82 b8 68 22 3c b8 da 0b de b8 fb 5f 8f b8
       -6.233066e-05 -4.4854736e-05 -0.000105879924 -6.836649e-05
0002f0 f3 58 ac 37 d5 e5 d6 b8 b6 1c 9d b8 50 bb 6f b7
       2.0545418e-05 -0.00010247125 -7.491691e-05 -1.4289122e-05
000300 32 cb 88 36 d2 73 d9 35 cd 26 8d b7 08 6b e9 b7
       4.076771e-06 1.6201468e-06 -1.6826578e-05 -2.7825605e-05
000310 dc 2a ad 38 c3 34 81 37 18 d5 b2 b7 79 fe 5f 38
       8.257266e-05 1.5402567e-05 -2.1318483e-05 5.340434e-05
000320 1a 85 6c 2f a5 cd 1f 38 00 7b d3 37 83 44 1e 38
       2.1511362e-10 3.8100075e-05 2.5210436e-05 3.7733942e-05
000330 54 5d c5 37 12 8c 06 b7 4d 60 03 38 e0 11 ce 37
       2.352769e-05 -8.019635e-06 3.132252e-05 2.4565437e-05
000340 e9 06 7c 2d 68 67 87 36 87 11 dd 37 4d 25 51 2f
       1.4326076e-11 4.0353516e-06 2.6353415e-05 1.9021691e-10
000350 df 7a 84 35 cf cb a8 2e 9a 18 21 38 b1 18 21 38
       9.870527e-07 7.675959e-11 3.8408303e-05 3.8408387e-05
000360 bf 4d 87 36 ca 4e 87 36 59 ce 0a 38 18 57 37 b7
       4.0323644e-06 4.032486e-06 3.309394e-05 -1.0927928e-05
000370 ef a0 0b b4 a8 22 09 b9 78 d1 ff 37 50 f1 9b 38
       -1.3003931e-07 -0.00013078249 3.049591e-05 7.435924e-05
000380 e9 95 04 b9 8d ae b4 36 13 e9 2a b8 fe 6a 07 b9
       -0.00012644347 5.3847384e-06 -4.0748226e-05 -0.00012914461
000390 d1 1c ec 37 8a aa c0 37 37 0b f8 b8 93 d1 ff 37
       2.8146811e-05 2.2967597e-05 -0.000118276505 3.049596e-05
0003a0 92 85 1a b8 de b2 0d 38 59 6e 8b b8 e3 e9 0d b6
       -3.684086e-05 3.3783603e-05 -6.64859e-05 -2.1146777e-06
0003b0 78 6a 19 b8 f1 05 b6 b8 cc f9 47 b7 c1 74 c5 b4
       -3.65772e-05 -8.679543e-05 -1.1919485e-05 -3.677906e-07
0003c0 9c 05 8b 35 e9 41 9f 39 92 29 e0 39 c7 06 8f 39
       1.035794e-06 0.0003037595 0.00042755582 0.00027280135
0003d0 46 a5 91 3a 00 78 42 3a 9e 15 85 3a 06 87 9d 3a
       0.0011111877 0.0007418394 0.0010153537 0.001201839
0003e0 82 e8 ad 39 93 07 a7 3a b9 87 97 3a 70 bf c8 39
       0.00033170363 0.0012743346 0.0011560834 0.00038289605
0003f0 e7 48 07 3a 85 e8 c9 39 08 45 3e 39 68 86 01 3a
       0.00051607046 0.00038510948 0.00018145528 0.00049409876

exp_avg_sq f4 [64, 20]
000000 fd 92 bf 36 74 23 a9 36 a7 e1 c5 36 26 29 97 36
       5.7093553e-06 5.0407198e-06 5.897327e-06 4.504941e-06
000010 52 0f 61 37 ec 2f 25 37 c2 80 8a 37 60 18 88 37
       1.3414612e-05 9.845924e-06 1.651084e-05 1.6223814e-05
000020 34 a5 a0 36 19 7f 32 37 d6 41 6c 37 08 83 8a 36
       4.7876038e-06 1.0639219e-05 1.4082025e-05 4.1279745e-06
000030 18 16 b1 36 76 4d cb 36 31 f4 ee 36 f5 40 bb 36
       5.277583e-06 6.058889e-06 7.1213803e-06 5.5805963e-06
000040 3a 15 c7 36 de 00 d3 36 11 dc 09 37 6d ef 0f 37
       5.9331333e-06 6.288391e-06 8.2170745e-06 8.57921e-06
000050 9f 44 0b 37 6c 9c 2f 37 3a 0c 1b 37 d4 7a 0a 37
       8.301023e-06 1.0467233e-05 9.241567e-06 8.254039e-06
000060 3d 97 ab 37 f8 f9 3d 37 39 4b 80 37 ae ff ca 37
       2.0455214e-05 1.1323478e-05 1.5293817e-05 2.4199337e-05
000070 6c db ee 36 9e e9 99 37 b4 54 a2 37 a8 d1 09 37
       7.118497e-06 1.8347808e-05 1.9351348e-05 8.214651e-06
000080 b7 c6 31 37 4b a3 31 37 fb 9b 3f 37 04 4b 07 37
       1.0596289e-05 1.0588042e-05 1.1420804e-05 8.064093e-06
000090 e6 7f 39 37 5d f9 18 37 e0 0a 1c 37 4b 32 90 37
       1.1056638e-05 9.117965e-06 9.300857e-06 1.7189557e-05
0000a0 3f 69 f4 34 1e 7e 16 36 df ef dd 34 5b 08 9c 34
       4.5525118e-07 2.2425152e-06 4.1338987e-07 2.9063344e-07
0000b0 cc 8b ff 35 03 6b d3 35 c0 59 38 36 ee cb 93 36
       1.9039667e-06 1.575187e-06 2.7470378e-06 4.404682e-06
0000c0 11 e4 e8 34 cd 20 fc 35 6c 17 66 36 37 c2 b2 34
       4.3379308e-07 1.8785009e-06 3.4286304e-06 3.3296394e-07
0000d0 da 7d 2e 35 0b ef 95 34 9a 06 e7 34 55 dc 99 34
       6.500319e-07 2.792734e-07 4.3031906e-07 2.8658783e-07
0000e0 72 19 32 35 9b e8 18 35 2a b5 0c 35 89 80 2b 36
       6.6347195e-07 5.69629e-07 5.241769e-07 2.5555803e-06
0000f0 92 49 04 38 28 6e 3a 38 24 4c 27 38 50 bd df 37
       3.153977e-05 4.4448447e-05 3.9886814e-05 2.6671827e-05
000100 cf 8f 85 38 52 9a 36 38 0f 01 bc 38 7b 86 ee 38
       6.368721e-05 4.3535903e-05 8.964736e-05 0.00011373773
000110 a6 17 c6 37 3a d1 89 38 51 97 bd 38 e9 97 08 38
       2.3614451e-05 6.5716406e-05 9.040407e-05 3.2566404e-05
000120 10 71 73 38 50 69 47 38 7f c7 7a 38 e4 17 13 38
       5.8041012e-05 4.7543377e-05 5.979044e-05 3.506978e-05
000130 16 e7 53 38 3a 35 4e 38 7e 4b 60 38 c4 95 3b 38
       5.0521536e-05 4.91638e-05 5.347607e-05 4.4723754e-05
000140 d8 cf 98 38 df 59 bd 38 9d a7 a0 38 ff e8 60 38
       7.286639e-05 9.028962e-05 7.660615e-05 5.3622756e-05
000150 37 86 8e 38 54 97 59 38 a1 48 ac 38 d6 ac dd 38
       6.796087e-05 5.1877767e-05 8.215127e-05 0.000105702944
000160 11 06 58 38 d8 25 a2 38 06 70 ac 38 55 6a 45 38
       5.1504063e-05 7.731811e-05 8.222465e-05 4.706749e-05
000170 61 33 94 38 88 a6 62 38 a5 ec 8f 38 af ef 8d 38
       7.06676e-05 5.4037693e-05 6.86285e-05 6.7680485e-05
000180 55 cc 89 38 4e f0 92 38 e7 d9 b6 38 f6 a0 86 38
       6.570729e-05 7.006583e-05 8.719024e-05 6.419599e-05
000190 9d c5 8d 35 40 87 96 35 45 22 8e 35 e6 a1 78 35
       1.0562832e-06 1.1215234e-06 1.0589798e-06 9.262279e-07
0001a0 a2 c2 18 36 f6 b7 96 35 e3 34 ce 35 f3 7a 68 36
       2.2763056e-06 1.1229411e-06 1.5363588e-06 3.464226e-06
0001b0 7b 03 7e 35 02 8b 09 36 ff 76 36 36 60 11 89 35
       9.462744e-07 2.0495504e-06 2.7189378e-06 1.0212352e-06
0001c0 0e 9b 8c 35 bb cc 9d 35 0d 38 9a 35 5f a5 90 35
       1.047594e-06 1.1756996e-06 1.1490207e-06 1.0776965e-06
0001d0 30 d2 85 35 85 48 a7 35 6a 36 b9 35 42 35 09 36
       9.970445e-07 1.2463576e-06 1.3799411e-06 2.044559e-06
0001e0 e6 ff c0 37 61 7d a7 37 73 54 04 38 62 6a 01 38
       2.3007346e-05 1.9966335e-05 3.1549902e-05 3.0855073e-05
0001f0 17 bd 58 38 d7 82 4b 38 bd 15 59 38 d0 2f c1 38
       5.1674517e-05 4.8520826e-05 5.1757077e-05 9.211863e-05
000200 e2 e4 ab 37 64 62 87 38 b2 3e 82 38 61 47 a7 37
       2.049137e-05 6.455628e-05 6.210561e-05 1.994119e-05
000210 9c 0e da 37 28 e8 1e 38 0f 90 fd 37 4c f9 c9 37
       2.5994428e-05 3.7886348e-05 3.0227033e-05 2.4077155e-05
000220 bf ef c6 37 1d 6e da 37 6c db 24 38 da 94 83 38
       2.371508e-05 2.60389e-05 3.9305e-05 6.2742925e-05
000230 78 b0 31 36 84 78 51 36 dd 11 15 36 3a af 39 36
       2.6477774e-06 3.1213576e-06 2.2213128e-06 2.7669143e-06
000240 33 3e 8c 36 6f eb 1c 36 4f 98 8f 36 c8 c6 e6 36
       4.179566e-06 2.3382852e-06 4.279463e-06 6.8776753e-06
000250 f4 ac c5 34 5b 90 4d 36 7e 56 19 36 a4 b2 0a 36
       3.681995e-07 3.0631406e-06 2.2849122e-06 2.0667585e-06
000260 9b 22 b6 35 1f 3e db 34 dc 70 41 35 58 0a cf 35
       1.3570128e-06 4.0837128e-07 7.2062335e-07 1.5425712e-06
000270 2f 5a 21 35 2a 43 2a 36 36 21 b2 35 4d fc 18 36
       6.010841e-07 2.5371069e-06 1.3271699e-06 2.2796623e-06
000280 48 49 47 36 c4 01 8d 36 42 a2 2f 36 0e f6 14 36
       2.9695966e-06 4.202333e-06 2.6171479e-06 2.2196941e-06
000290 ee e4 4b 36 ec c1 62 36 fa 0d 83 36 af 1f f4 36
       3.0382612e-06 3.3789502e-06 3.9057313e-06 7.275455e-06
0002a0 6e 95 ec 35 cd 5e 95 36 21 17 f8 36 95 ba 1a 36
       1.762686e-06 4.4515823e-06 7.3936685e-06 2.3056393e-06
0002b0 d4 40 27 36 e7 c4 3c 36 7b d8 25 36 8f 92 2a 36
       2.4922674e-06 2.8128795e-06 2.4712924e-06 2.5417282e-06
0002c0 a7 be 0e 36 c5 46 10 36 ca b7 12 36 c5 9e 9e 36
       2.1270623e-06 2.1498865e-06 2.1862675e-06 4.72725e-06
0002d0 a2 0f b5 35 e1 d0 b4 35 61 b4 b9 35 e9 19 9d 35
       1.3490101e-06 1.3471837e-06 1.3836071e-06 1.1704952e-06
0002e0 10 09 22 36 34 4a a1 35 9b c3 f7 35 d7 a8 2c 36
       2.4145156e-06 1.2017031e-06 1.8459863e-06 2.5728275e-06
0002f0 67 76 e9 35 26 91 e2 35 59 ed 1f 36 80 88 c8 35
       1.7394312e-06 1.6880556e-06 2.3831e-06 1.4940888e-06
000300 f3 88 e6 35 1c bb eb 35 d6 86 dd 35 d3 37 e6 35
       1.7176193e-06 1.756332e-06 1.6505026e-06 1.7152582e-06
000310 e5 66 b8 35 6e b7 93 35 6c 8c 06 36 3e 31 0b 36
       1.3739015e-06 1.1005739e-06 2.0049292e-06 2.0741277e-06
000320 1c 56 82 34 fc e9 44 35 43 e9 7e 35 e8 61 1b 35
       2.427704e-07 7.335618e-07 9.4961814e-07 5.788447e-07
000330 3b 1b da 34 25 09 7c 35 5f e3 f0 34 59 aa a3 35
       4.0625477e-07 9.389062e-07 4.4868918e-07 1.2194024e-06
000340 f7 88 26 33 de c6 9f 34 12 77 91 35 4d 89 e5 33
       3.8774456e-08 2.9760753e-07 1.0837996e-06 1.0688618e-07
000350 de 65 8f 34 b1 81 4d 34 72 18 e4 34 40 b4 00 35
       2.6709944e-07 1.9139294e-07 4.2486096e-07 4.7946014e-07
000360 58 1f 09 34 37 cd 64 34 2c 8a 7f 34 94 08 15 35
       1.2770522e-07 2.1308811e-07 2.3798992e-07 5.551931e-07
000370 48 64 ed 34 65 99 30 35 c7 f3 9c 34 aa 0b a0 34
       4.4217654e-07 6.578833e-07 2.9234636e-07 2.981081e-07
000380 42 2e cc 35 c4 b3 b2 35 89 fd a5 35 54 a6 0d 36
       1.5212647e-06 1.3314352e-06 1.2367246e-06 2.1107453e-06
000390 24 e5 49 35 c2 84 77 34 3e e7 ea 35 e0 18 28 35
       7.521178e-07 2.3051965e-07 1.7501659e-06 6.2621075e-07
0003a0 90 e5 8d 35 21 a3 d6 34 4e 10 fb 34 12 ec 0b 34
       1.057213e-06 3.9979298e-07 4.6764256e-07 1.3031266e-07
0003b0 ef 97 97 35 ad d1 f1 35 62 6e eb 34 5b 3c 02 35
       1.1294595e-06 1.8016923e-06 4.3852475e-07 4.85166e-07
0003c0 c0 97 31 38 cd f8 86 38 91 39 3b 38 2c 75 21 38
       4.2341417e-05 6.435961e-05 4.4637887e-05 3.8494516e-05
0003d0 d4 e7 0c 39 c5 8e 9a 38 df 39 ee 38 2b fa 36 39
       0.00013437803 7.369885e-05 0.00011359504 0.00017450067
0003e0 f5 3c 14 38 dc 9f a8 38 24 db 24 39 80 94 12 38
       3.534272e-05 8.0406404e-05 0.00015721895 3.4947414e-05
0003f0 12 26 53 38 e7 07 54 38 21 b6 5d 38 66 a2 24 38
       5.0341776e-05 5.05521e-05 5.2860127e-05 3.9251892e-05

exp_avg f4 [64]
000000 aa f2 33 3a aa 79 2a 3a ae ec 0d b8 a9 2b 64 ba
       0.0006864468 0.0006503115 -3.3837445e-05 -0.00087040156
000010 35 74 85 ba 50 67 e0 b8 6f c9 61 ba a2 73 1b b9
       -0.0010181727 -0.00010700396 -0.0008613085 -0.00014825028
000020 06 05 5f b9 87 b9 49 b8 d8 34 ce 37 d8 b9 05 b9
       -0.00021268809 -4.809492e-05 2.4581721e-05 -0.000127531
000030 2e 0b 9c 3a 00 00 00 00 f4 25 1d b8 48 be 13 34
       0.0011905187 0.0 -3.7467064e-05 1.3759666e-07
000040 d2 12 82 b9 3f 62 13 b9 0d 58 0e b6 1d ae 14 39
       -0.00024809554 -0.00014055612 -2.1210901e-06 0.00014179242
000050 07 66 51 b9 17 22 00 38 f1 97 45 b9 2b 28 9c b9
       -0.00019969801 3.0549327e-05 -0.00018843987 -0.00029784566
000060 58 ee 4f 35 80 0b d2 02 cf 87 6e b9 a5 98 b3 ba
       7.7460345e-07 3.0863327e-37 -0.00022748041 -0.0013702108
000070 8f 80 1e ba 5f 24 9a b9 52 5e 2e b6 c1 d1 90 39
       -0.00060463784 -0.00029400268 -2.5982922e-06 0.000276221
000080 9c 8e b6 3a e1 3e 76 b9 8c dc 97 39 b1 80 02 3a
       0.0013927999 -0.00023483812 0.00028965285 0.0004978283
000090 c7 19 71 b9 8e c9 60 ba 72 2d 95 39 66 60 5c ba
       -0.00022993154 -0.0008574956 0.00028453354 -0.00084066985
0000a0 e6 93 69 39 30 e1 fe b9 18 1e 43 3a 87 9c 1b 39
       0.00022275708 -0.00048614433 0.0007443144 0.00014840263
0000b0 e1 b8 2c ba c9 4e f2 b8 53 68 51 01 76 16 04 39
       -0.00065888284 -0.00011554134 3.8462086e-38 0.00012596868
0000c0 ef 8d 57 b9 54 4a 85 ba e5 91 09 ba 42 e8 e2 b9
       -0.00020556872 -0.0010169246 -0.0005247875 -0.00043279125
0000d0 14 1c 9f b9 48 4a 63 b9 47 7b 23 38 71 c8 93 3a
       -0.00030347763 -0.00021676079 3.897704e-05 0.0011274946
0000e0 d2 4b a9 b9 fc 58 1b 3a a9 3e a4 b8 8d ef c0 b9
       -0.00032290682 0.00059260405 -7.831801e-05 -0.00036799573
0000f0 0b 14 de b9 c8 23 05 b9 a7 fa 02 38 0d b9 7c 3a
       -0.00042358073 -0.00012697198 3.1227853e-05 0.0009640612
