published_data/SSA anaerobic (TL) /final_models/bag_model_21.pkl (torch, 324839 bytes, 21 tensors)

weight f4 [64, 20]
0	0x3e661ac5	0.2247115
1	0xbe755047	-0.23956405
2	0x3df7153d	0.12064598
3	0xbcd2de23	-0.025740689
4	0xbe13ea4a	-0.14444843
5	0xbdcf1461	-0.10111309
6	0xbda972ed	-0.082738735
7	0xbe1a0f2c	-0.1504485
8	0x3e4e6c93	0.20158605
9	0x3d9b73e7	0.07590466
10	0x3d8b922c	0.068149894
11	0xbdd96c93	-0.10616412
12	0xbe35861f	-0.17726944
13	0x3d468d30	0.04847449
14	0x3cb1cff5	0.021705607
15	0x3e3aa698	0.18227613
16	0xbd5470c3	-0.05186535
17	0xbdc40292	-0.09570803
18	0x3e20bf90	0.15698075
19	0x3d74dcf7	0.05978104
20	0xbe0f554a	-0.13997379
21	0x3dd9fb5a	0.10643645
22	0xbd6f04b9	-0.058354113
23	0xbdfb7b6e	-0.12279402
24	0x3e82056d	0.25394765
25	0x3e577827	0.21041928
26	0x3e45d3a6	0.19319019
27	0xbe803d37	-0.25046703
28	0xbe227415	-0.15864594
29	0xbe2d32c4	-0.16913897
30	0xbd6e6797	-0.05820426
31	0xbd9a53e7	-0.07535534
32	0x3e6ecf07	0.23321162
33	0xbd488aa9	-0.04896036
34	0xbdea8ca8	-0.11452609
35	0xbd19ed82	-0.03758002
36	0xbd83dbe8	-0.06438428
37	0x3d8586ff	0.06519889
38	0x3e21efea	0.15814176
39	0x3d8383e8	0.064216435
40	0x3e3a20eb	0.1817662
41	0x3dc84b77	0.09780019
42	0xbe77e2e6	-0.24207649
43	0x3dc67816	0.09690873
44	0x3e4048b1	0.1877773
45	0xbe59308a	-0.21209922
46	0xbe0f12af	-0.13971971
47	0xbd5371e2	-0.05162228
48	0xbd62a33b	-0.05533145
49	0x3ea5969f	0.32341477
50	0xbdf40c3b	-0.11916395
51	0xbe3ced7c	-0.18449968
52	0x3e414188	0.18872654
53	0xbd8217d0	-0.06352198
54	0xbe0de872	-0.13858202
55	0xbd4bac04	-0.049724594
56	0xbd359835	-0.04433461
57	0xbda47b9d	-0.0803139
58	0xbdf5ec05	-0.12007908
59	0x3bcf4dc0	0.006326407
60	0x3dd8d376	0.10587208
61	0x3d11992f	0.035546478
62	0x3dbfdb30	0.093679786
63	0x3e4a6de8	0.19768488
64	0xbe26bea3	-0.1628366
65	0x3e6b2f50	0.22967267
66	0x3e0d7a80	0.13816261
67	0xbe225786	-0.158537
68	0xbe0ac31a	-0.13550988
69	0xbe199fae	-0.15002319
70	0xbdc51193	-0.09622493
71	0x3d3c16d5	0.04592021
72	0x3e311160	0.17291784
73	0xbe05a17a	-0.1304988
74	0xbd7b3a77	-0.061335053
75	0x3d16a9ca	0.036783017
76	0xbd62b8c3	-0.055351984
77	0xbcc8345b	-0.024439028
78	0x3e4bb597	0.1989349
79	0xbdf0e769	-0.11762888
80	0x3e282d06	0.16423425
81	0x3e3290f2	0.17438105
82	0x3d111bd2	0.035426922
83	0xbe2a7018	-0.16644323
84	0x3e982ace	0.29720157
85	0xbcd24986	-0.025669824
86	0x3da27de4	0.07934168
87	0xbe8538d0	-0.26019907
88	0xbbe940cd	-0.0071183206
89	0x3db481ec	0.08813843
90	0x3e037869	0.12838902
91	0xbe5b009a	-0.21386948
92	0x3e56d269	0.20978703
93	0xbded7ee4	-0.11596468
94	0xbdd1530b	-0.10220917
95	0xbd935004	-0.07192996
96	0x3df30cc5	0.1186767
97	0x3e2ffe0d	0.17186756
98	0x3d121e67	0.035673525
99	0xbde2f99e	-0.11082767
100	0x3d884a65	0.06654815
101	0xbd7ee686	-0.062231563
102	0xbe1885fc	-0.14894861
103	0x3dddc670	0.108288646
104	0x3cb3d1f6	0.021950703
105	0xbdfab66e	-0.12241827
106	0x3de0e157	0.1098048
107	0x3e5df2ec	0.21674699
108	0xbe65c2c1	-0.22437574
109	0xbc9f39fa	-0.019436825
110	0x3d0bbf3c	0.034117922
111	0x3daf2c7a	0.08553405
112	0x3e64ab74	0.22331029
113	0x3e67797d	0.22604938
114	0x3daeed40	0.085413456
115	0x3e320134	0.17383271
116	0xbde20e88	-0.11037928
117	0xba72e4b8	-0.0009265649
118	0x3e0e658f	0.13905929
119	0x3d8539d4	0.065051705
120	0xbdfb6688	-0.12275416
121	0xbdee3290	-0.11630738
122	0x3e2a3a7f	0.16623877
123	0xbe18ee16	-0.14934573
124	0xbe2e07bd	-0.1699514
125	0xbda555d3	-0.0807301
126	0x3d377430	0.04478854
127	0xbd92a54a	-0.07160433
128	0xbddd6537	-0.10810321
129	0x3d9601f1	0.07324589
130	0xbcd791be	-0.026314612
131	0x3c858554	0.016298927
132	0xbdabf9a2	-0.08397223
133	0xbe18663a	-0.14882746
134	0x3e474310	0.19459176
135	0xbe82b50d	-0.25528756
136	0xbdd22dfc	-0.10262677
137	0x3e2d5c74	0.169298
138	0xbc4ec9cb	-0.012621353
139	0xbdc17395	-0.09445874
140	0xbc59202e	-0.013252301
141	0x3e21dbac	0.15806454
142	0x3e47c3e0	0.19508314
143	0x3e10f144	0.14154536
144	0x3e0c122a	0.13678804
145	0x3d270ee3	0.04078568
146	0x3e6b5995	0.22983392
147	0x3d9de5da	0.07709856
148	0x3d2078d3	0.039177727
149	0xbccd8aae	-0.025090542
150	0xbe1f1704	-0.15536124
151	0x3e0f4f6e	0.13995144
152	0x3e4364e3	0.19081454
153	0xbd92a103	-0.07159617
154	0x3e27b388	0.1637708
155	0x3d3479f7	0.044061627
156	0xbdbc6ec9	-0.09200818
157	0x3e4f00f5	0.20215209
158	0x3e4e9e6a	0.20177618
159	0xba1e996f	-0.0006050085
160	0x3e6ece46	0.23320875
161	0x3b707a87	0.0036694126
162	0x3cf5f2b6	0.03002296
163	0xbe1fba72	-0.15598467
164	0x3e04219b	0.12903444
165	0x3ddf4ec5	0.10903696
166	0x3e4f6394	0.2025283
167	0x3dcbf789	0.09959323
168	0x3e269463	0.16267543
169	0xbd785374	-0.060626462
170	0x3e2c9f54	0.16857654
171	0xbe4e6412	-0.20155361
172	0xbe0b603e	-0.13610932
173	0xbbaf1045	-0.0053425157
174	0xbe139d92	-0.14415577
175	0xbda92945	-0.08259825
176	0xbd7e7015	-0.06211861
177	0x3d8ba9db	0.06819507
178	0x3db21785	0.08695892
179	0x3da9a1db	0.082828246
180	0x3df3df29	0.11907799
181	0xbe00576a	-0.12533346
182	0x3cb76f4c	0.022391938
183	0xbd9ecdde	-0.0775411
184	0xbb4fc6d3	-0.0031704202
185	0x3dbd940f	0.092567556
186	0x3df5e36f	0.1200627
187	0x3e842825	0.25811878
188	0x3e1533ca	0.14570537
189	0xbdc2b74c	-0.09507617
190	0x3e0c40a3	0.13696532
191	0x3d7b16ce	0.061301045
192	0x3de145dc	0.10999653
193	0x3e799cfc	0.24376291
194	0x3da2710a	0.07931717
195	0x3dd05053	0.10171571
196	0xbc8fa40d	-0.01753428
197	0xbe28343b	-0.16426174
198	0xbe1f2ef7	-0.1554526
199	0xbe096ff0	-0.13421607
200	0xbe2483d1	-0.16065909
201	0x3e763e24	0.24047142
202	0x3e5023ca	0.20326152
203	0x3df4d48e	0.11954604
204	0x3e4fcad0	0.2029221
205	0x3da6937e	0.08133601
206	0xbe181954	-0.14853412
207	0x3dd9e359	0.10639066
208	0xbd20a5c1	-0.039220575
209	0x3d4e3295	0.050341208
210	0x3e02e25e	0.12781665
211	0x3e4600ba	0.19336215
212	0x3cac11ed	0.021004641
213	0x3e132ebd	0.14373298
214	0xbdafed71	-0.0859021
215	0xbd77fcfc	-0.060544
216	0x3d3a268a	0.04544691
217	0x3b9b2c83	0.004735531
218	0xbe2af7c7	-0.16696082
219	0x3e77af20	0.24187899
220	0xbe2f2b9b	-0.17106478
221	0xbd41281f	-0.047157403
222	0xbe208a13	-0.15677671
223	0xbd164507	-0.036686923
224	0xbdc2e01d	-0.095154025
225	0x3cd6134f	0.026132254
226	0x3c92a1b2	0.017899368
227	0x3e491d30	0.1964004
228	0xbd40aa2d	-0.047037292
229	0xbdf9eb8d	-0.12203131
230	0x3e0f2f12	0.139828
231	0xbc8a10a2	-0.016853634
232	0x3e673c85	0.2258168
233	0x3e946d28	0.2898953
234	0x3ccf9024	0.025337286
235	0x3d149d28	0.03628269
236	0x3d6f85f0	0.058477342
237	0xbdb29547	-0.08719879
238	0x3cf869e8	0.030323938
239	0xbe68f3e2	-0.22749284
240	0xbe1de283	-0.15418439
241	0xbc6ceef5	-0.014461269
242	0xbe3755b0	-0.17903781
243	0x3b2c165f	0.0026258451
244	0xbe6fae74	-0.23406392
245	0xbe30d7ac	-0.17269772
246	0x3d972659	0.07380361
247	0xbd8db35e	-0.06918977
248	0xbceefce2	-0.029173318
249	0xbe00748b	-0.12544458
250	0xbd4d9d4d	-0.05019884
251	0x3da601df	0.08105826
252	0x3e6c7540	0.23091602
253	0xbe9e314f	-0.30896994
254	0x3e2eb4f2	0.17061213
255	0x3dc335f0	0.09531772

bias f4 [64]
0	0xbe17a1a3	-0.14807753
1	0x3d8ee790	0.06977761
2	0x3decab3a	0.115560964
3	0x3e6a891c	0.22903866
4	0xbdfb0b99	-0.122580715
5	0xbdc6d841	-0.09709216
6	0x3d7a7517	0.06114682
7	0xbd3c870a	-0.04602722
8	0xbe12a010	-0.14318871
9	0xbe117d09	-0.14207853
10	0xbe596246	-0.21228895
11	0x3e3d20a2	0.1846948
12	0x3e64f556	0.22359213
13	0x3e42e0e6	0.19031104
14	0x3e0f8ba4	0.14018112
15	0x3e17f7ad	0.14840575
16	0xbdda6461	-0.10663677
17	0x3e20bfee	0.15698215
18	0xbe2f8b5d	-0.17143007
19	0x3e4a76cb	0.19771878
20	0x3e6e8464	0.2329269
21	0xbd98e99c	-0.074664325
22	0x3e270eca	0.16314235
23	0xbbce67ee	-0.0062990105
24	0xbe5342bd	-0.20630927
25	0x3d7bdd5e	0.06149041
26	0xbd0456c2	-0.0323093
27	0x3e28e0d5	0.16492017
28	0xbd4f768c	-0.050650164
29	0xbd7266b5	-0.05917998
30	0x3c597b01	0.013273955
31	0xbd7a5971	-0.061120454
32	0xbdc3526d	-0.09537206
33	0x3e407b8d	0.18797131
34	0xbe0842fe	-0.13306805
35	0x3d6cb54b	0.057790082
36	0xbc58db42	-0.013235869
37	0x3ca02cec	0.01955267
38	0x3e82df2b	0.2556089
39	0x3e2b5f12	0.16735485
40	0xbcf86911	-0.030323537
41	0x3e2cabc8	0.16862404
42	0x3c7b4fbe	0.015338836
43	0x3d938176	0.07202427
44	0xbcf2570d	-0.029582525
45	0xbcaee456	-0.021349113
46	0xbe101cc3	-0.14073472
47	0x3db222cf	0.086980455
48	0xbc16f27a	-0.009213084
49	0x3dad6198	0.0846588
50	0x3e336b55	0.17521413
51	0xbdb4854e	-0.08814488
52	0x3dce0e8d	0.10061369
53	0xbe34c627	-0.17653714
54	0xbe0fdfa7	-0.1405016
55	0x3dc865e3	0.09785058
56	0xbe201e69	-0.156366
57	0xbd8be3fd	-0.06830595
58	0xbd1d1347	-0.038348462
59	0xbc4ac8ed	-0.012377006
60	0x3e53c361	0.2068
61	0x3e02533c	0.12727064
62	0x3e241c73	0.16026478
63	0x3c2dcd37	0.010608009

weight f4 [256, 64]
0	0x3da28fb9	0.07937569
1	0xbd070724	-0.032965794
2	0xbcd78ed7	-0.026313229
3	0x3bc61759	0.0060452637
4	0x3d6f18da	0.05837331
5	0x3d618d04	0.055066124
6	0xbc53f2ea	-0.012936333
7	0x3d987e1c	0.074459285
8	0xbd74da28	-0.059778363
9	0xbdb38a21	-0.087665804
10	0x3dee118d	0.11624441
11	0x3d510d04	0.051037803
12	0xbe1988ea	-0.14993635
13	0xbe3cd580	-0.18440819
14	0xbcea2eb7	-0.028586728
15	0xbc3f4fce	-0.011676742
16	0xbcd99f5c	-0.026565246
17	0x3d636e6e	0.055525236
18	0xbd09f4f8	-0.033680886
19	0xbd29312e	-0.041306667
20	0xbd8c3573	-0.06846132
21	0xbd98d740	-0.07462931
22	0x3c93430a	0.017976303
23	0x3ce773b1	0.028253408
24	0x3e0fb090	0.14032197
25	0xbc1379a0	-0.009001166
26	0xbd3c6a1c	-0.04599963
27	0x3d74e743	0.05979086
28	0x3dba545e	0.09098123
29	0x3d9e2b49	0.077231
30	0xbd91dca6	-0.071221635
31	0xbe21433f	-0.15748309
32	0xbcfe8b29	-0.031072216
33	0x3ddc1302	0.10745813
34	0x3d335c21	0.043789033
35	0x3e0bb99a	0.1364502
36	0xbcea1cd3	-0.028578198
37	0x3c46049a	0.012086058
38	0xbda08469	-0.07837755
39	0xbde3eb6c	-0.111288875
40	0xbdd700c8	-0.10498196
41	0x3b0d3bb9	0.002155049
42	0x3d23f4ae	0.040028267
43	0xbd7fe9da	-0.062478878
44	0xbd928d01	-0.071558006
45	0x3e282ef2	0.16424158
46	0xbdbdf296	-0.09274785
47	0x3de270f9	0.11056704
48	0xbd93f6c1	-0.07224799
49	0x3a47aab4	0.00076166843
50	0xbe1b7210	-0.1518023
51	0x3d9b20cd	0.07574616
52	0x3d46ad8d	0.048505355
53	0x3d8aca48	0.06776863
54	0xbded4ba6	-0.115866944
55	0xbd74b612	-0.05974395
56	0x3dc97563	0.09836843
57	0x3d2e9821	0.04262555
58	0x3e07994c	0.13242072
59	0xbdb1d550	-0.08683264
60	0xbcf127e1	-0.029437961
61	0xbcd58f43	-0.02606929
62	0x3d32991d	0.04360305
63	0x3d2af642	0.041738756
64	0xbdfaea46	-0.12251715
65	0x3d3bd170	0.045854032
66	0x3bc92d4b	0.0061394325
67	0xbd8e8df0	-0.06960666
68	0xbd855831	-0.06510962
69	0x3c57c8cd	0.013170433
70	0x3d7f9391	0.06239659
71	0x3d698e69	0.05702058
72	0xbe1b0680	-0.15139198
73	0xbd82ad2f	-0.063806884
74	0xbc09c50c	-0.008408796
75	0xbc01e559	-0.007928216
76	0x3df4a710	0.11945927
77	0x3d8459d4	0.06462446
78	0x3de15088	0.11001688
79	0x3d9a8799	0.075453945
80	0x3b3e9e1a	0.0029085935
81	0x3de01e25	0.109432496
82	0xbe226fdf	-0.15862988
83	0x3c749ce5	0.014929985
84	0xbd8b4c74	-0.06801692
85	0x3baa8134	0.0052033905
86	0xbd12a8e7	-0.03580561
87	0x3da1549e	0.078774676
88	0xbd1bfcd4	-0.038082913
89	0x3d5c57b1	0.053794567
90	0x3c0b11b4	0.0084881075
91	0x3dac77a8	0.0842126
92	0x3d18401c	0.037170514
93	0x3e31cbba	0.17362872
94	0x3d853e9c	0.065060824
95	0xbda88172	-0.08227815
96	0xbd9059b5	-0.0704836
97	0x3d9d7d44	0.07689908
98	0x3b8b10b6	0.0042439355
99	0x3c02d529	0.007985392
100	0x3cd06b2a	0.025441725
101	0x3ba1f423	0.0049424334
102	0x3d814b25	0.06313161
103	0x3d84cb5e	0.06484102
104	0xbdd50321	-0.104009874
105	0x3d9c3006	0.07626347
106	0xbdb217f4	-0.08695975
107	0xbdc8629a	-0.09784432
108	0x3e3a8654	0.18215305
109	0xbc44dc3d	-0.0120153995
110	0xbdf67ac9	-0.12035138
111	0xbe0577db	-0.13034002
112	0x3e2788fe	0.16360852
113	0xbd9063df	-0.07050299
114	0x3e6ee2f4	0.23328763
115	0x3daf680e	0.08564769
116	0xbdfa697c	-0.12227151
117	0x3d154974	0.036447003
118	0xbb5e4638	-0.0033916365
119	0x3e085429	0.13313355
120	0x3df65c8a	0.12029369
121	0x3d6cfa3c	0.05785583
122	0xbc7782d3	-0.0151068745
123	0xbd3d611a	-0.04623518
124	0xbd449a60	-0.047998786
125	0x3e0d5713	0.13802747
126	0x3e0b648c	0.13612574
127	0x3e09a9b9	0.1344365
128	0xbcb12b3f	-0.021627067
129	0xbdad6180	-0.08465862
130	0x3d471270	0.048601568
131	0x3da535e5	0.0806692
132	0xbe1738d7	-0.14767776
133	0xbc6cbe01	-0.014449597
134	0xbc56d679	-0.013112658
135	0xbdceb13d	-0.10092399
136	0x3bc8ba94	0.0061257575
137	0x3dbd10c7	0.09231716
138	0xbcb813b4	-0.022470333
139	0xbdddcd91	-0.10830224
140	0x3e0abc66	0.13548431
141	0x3d0b8ff3	0.034072828
142	0x3dbc7aa7	0.092030816
143	0x3e0db081	0.13836862
144	0xbc74f402	-0.014950754
145	0x3d856c6d	0.06514821
146	0x3ce65759	0.028117822
147	0xbda1fdca	-0.079097345
148	0xbbd7693c	-0.006573824
149	0x3dde3b68	0.108511746
150	0xbcdefadf	-0.027219234
151	0x3d538d43	0.05164839
152	0x3df5fdc0	0.120112896
153	0xbd8cac20	-0.06868768
154	0x3e331fdc	0.17492622
155	0x3d4a72a5	0.04942574
156	0xbd6a612d	-0.05722158
157	0xbd0291f8	-0.031877488
158	0xbd96994b	-0.07353457
159	0xbddf69d9	-0.10908861
160	0x3cfdcf9c	0.030982785
161	0xbd254729	-0.040351067
162	0x3d2d6304	0.042330757
163	0x3df9e94b	0.122027
164	0x3db5d0ab	0.08877691
165	0xbd95d4d4	-0.07315984
166	0xbb7f1b84	-0.0038926313
167	0xbdc5d0d3	-0.09658971
168	0xbd0be8b8	-0.034157485
169	0x3d17074b	0.03687219
170	0x3d999606	0.07499318
171	0xbc662f84	-0.014049415
172	0x3d8e426b	0.06946262
173	0x3d1cb2b0	0.038256347
174	0xbdca0604	-0.09864429
175	0x3cf802f3	0.030274844
176	0xbd30b44e	-0.043140702
177	0x3d2a8ce9	0.04163829
178	0xbdadc410	-0.084846616
179	0x3e0002aa	0.12501016
180	0xbc97f4cf	-0.018549351
181	0x3d55d868	0.052208334
182	0x3cd32a16	0.025776904
183	0xbd29c9dc	-0.041452274
184	0x3dd0b5bb	0.10190912
185	0x3c3d8af6	0.011568775
186	0x3dfd8baf	0.12380158
187	0xbd2b0628	-0.041753918
188	0xbb8c3aa7	-0.004279453
189	0x3ce34666	0.02774353
190	0x3b621f99	0.0034503697
191	0x3c4b80aa	0.012420813
192	0xbe4fecb2	-0.20305136
193	0x3cbb2ddb	0.022849014
194	0xbce7e6dd	-0.028308326
195	0x3d070747	0.032965925
196	0xbd0b083c	-0.0339434
197	0x3cf6f3e1	0.030145587
198	0x3ccc8a4e	0.024968293
199	0x3dce71e9	0.100803204
200	0xbdb7f82a	-0.089828804
201	0x3c2752bb	0.010212596
202	0x3dab0f49	0.08352525
203	0x3dcc523f	0.09976625
204	0x3db3c60b	0.08778008
205	0x3e34fda1	0.17674877
206	0xbcc561aa	-0.024094421
207	0x3d01540c	0.031574294
208	0xbd777ccb	-0.060421746
209	0xbe0965b3	-0.13417701
210	0x3ddd65fe	0.10810469
211	0x3dd9d773	0.10636797
212	0x3dbcd9b2	0.092212096
213	0x39b7d2a1	0.0003506141
214	0x3e29b321	0.16572239
215	0x3e0be22a	0.13660493
216	0xbdce9527	-0.10087042
217	0xbda61e60	-0.08111262
218	0xbe125720	-0.14291048
219	0xbc04ab90	-0.008097544
220	0xbe464260	-0.19361258
221	0xbbf66bee	-0.0075201904
222	0x3d12d6ac	0.03584926
223	0x3e178b34	0.14799196
224	0x3d763b78	0.060115308
225	0x3d0be347	0.034152295
226	0xbe10cb2c	-0.14140004
227	0xbe332687	-0.17495166
228	0xbce4802a	-0.027893145
229	0x3d024c81	0.03181124
230	0x3c516990	0.012781516
231	0xba1f9fb2	-0.0006089165
232	0xbd838a35	-0.06422845
233	0xbda6393e	-0.08116387
234	0xbcbcbe07	-0.02303983
235	0xbd814b3b	-0.06313177
236	0xbe58063b	-0.21096127
237	0xbe34aa4a	-0.17643085
238	0xbcf275c4	-0.02959717
239	0xbc98da9b	-0.018658927
240	0xbce448c2	-0.027866725
241	0xbcd3f605	-0.025874147
242	0x3ce41c5b	0.027845552
243	0xbdd96522	-0.10614993
244	0xbdaa6468	-0.08319932
245	0x3d877e53	0.06615891
246	0xbe149574	-0.14510137
247	0xbddb95dc	-0.10721943
248	0xbdab4d98	-0.08364409
249	0xbe2f2566	-0.1710411
250	0xbd9b9bd5	-0.07598082
251	0xbde568b3	-0.112016104
252	0x3b7e1c96	0.0038774363
253	0xbd24b719	-0.040213678
254	0x3d63d53c	0.055623278
255	0xbe39da71	-0.18149735

bias f4 [256]
0	0x3db1e001	0.086853035
1	0xbd482cc9	-0.048870835
2	0x3a18923f	0.0005820132
3	0xbde02a6b	-0.109455906
4	0x3c0aaa9e	0.00846353
5	0x3e06f440	0.13179111
6	0x3c0bb351	0.008526639
7	0x3d0c003a	0.034179904
8	0xbdd2a594	-0.10285488
9	0x3d4f4ab4	0.05060835
10	0xb8e7c98f	-0.000110524816
11	0x3d85e569	0.06537897
12	0xbd86c9d3	-0.06581464
13	0xbd0c3655	-0.034231503
14	0xbd32bed5	-0.043639023
15	0x3b342654	0.0027488666
16	0xbd9bfbcd	-0.076163866
17	0xbdaded9e	-0.084925875
18	0xbda9e6e7	-0.08295994
19	0x3d1e9c0a	0.03872303
20	0x3cefd291	0.02927521
21	0xbddfd8be	-0.10930012
22	0x3c4c8497	0.012482784
23	0xbda5ba97	-0.0809223
24	0x3e05b2b7	0.13056456
25	0xbc769d31	-0.015052126
26	0x3d0ab4c7	0.03386381
27	0x3d38491b	0.044991594
28	0x3d94351b	0.072366916
29	0xbd2e1583	-0.042500984
30	0x3d9d0029	0.07666046
31	0x3e09f1b9	0.13471116
32	0xbdacbf41	-0.08434916
33	0x3d8a23b2	0.067450896
34	0xbd94c85a	-0.072647765
35	0x3d8ca206	0.06866841
36	0x3b441f30	0.0029925816
37	0x3bede0cb	0.0072594634
38	0x3c80c740	0.01572001
39	0x3c98d2ff	0.018655298
40	0xbd2018e9	-0.039086256
41	0x3d2b068d	0.041754294
42	0x3d2ecaa1	0.04267371
43	0x3d9cad15	0.076502
44	0xbdff3b42	-0.124624744
45	0xbdb02207	-0.0860024
46	0xbd6d7f05	-0.057982463
47	0xbd6931b2	-0.05693216
48	0x3c133e93	0.008987087
49	0x3e0085e2	0.12551072
50	0x3d192ee3	0.03739823
51	0x3d940854	0.07228151
52	0xbdf321e2	-0.11871697
53	0x3e167a39	0.14695062
54	0x3e128f05	0.1431237
55	0xbd3d8b40	-0.046275377
56	0xbdc101e6	-0.0942419
57	0x3dabef9d	0.08395312
58	0x3d8123ad	0.06305633
59	0xbd70ecd5	-0.05881961
60	0xbc903ca5	-0.017607043
61	0xbdb23e96	-0.087033436
62	0x39a66346	0.00031735952
63	0x3d5694e1	0.052388076
64	0x3cb488a3	0.02203781
65	0xbdc8e721	-0.09809709
66	0xbc41417c	-0.011795398
67	0xbd5bc04f	-0.053650197
68	0x3d9f0a3d	0.07765625
69	0x3c4ec0b2	0.012619184
70	0xbbc642c3	-0.006050439
71	0x3bd18198	0.0063936226
72	0x3e050aaf	0.12992357
73	0x3d27e980	0.040994167
74	0xbd0a8ef0	-0.033827722
75	0x3d0dd650	0.034628212
76	0x3d96edb0	0.07369554
77	0x3d6649ac	0.056222603
78	0x3defb67f	0.1170473
79	0xbcc71bf1	-0.024305316
80	0xbdb8c2a1	-0.090214975
81	0xbd089c7b	-0.033352356
82	0xbd03403d	-0.032043684
83	0x3d2f5657	0.04280695
84	0xbd3ad627	-0.045614388
85	0xbcf65c13	-0.030073201
86	0x3d5ba414	0.053623274
87	0xbdf48e88	-0.11941248
88	0x3db316b7	0.08744567
89	0xbd3b26a7	-0.04569116
90	0xbcabd11b	-0.020973733
91	0x3d27cfb9	0.040969584
92	0x3dc5460f	0.09632503
93	0x3cfad6b4	0.030619957
94	0x3dff9240	0.12479067
95	0xbcb6d35e	-0.022317585
96	0x3d688149	0.05676392
97	0xbe14477e	-0.14480397
98	0xbde45c91	-0.11150468
99	0x3c85dec1	0.016341569
100	0x3dcddaa3	0.10051467
101	0xbcd7f346	-0.026361119
102	0xbde7d57b	-0.11320015
103	0xbd33646b	-0.043796938
104	0x3d687803	0.056755077
105	0xbd0bad5b	-0.03410087
106	0x3c476ff9	0.012172692
107	0x3b828826	0.0039835153
108	0x3d6456a3	0.055746686
109	0xbd531116	-0.051529966
110	0x3dd50bcc	0.10402641
111	0xbdab180a	-0.083541945
112	0xbc4ac2a9	-0.012375512
113	0xbdf70a3b	-0.12062498
114	0x3da433a1	0.0801766
115	0x3dcf6d33	0.1012825
116	0xbd612f35	-0.05497666
117	0x3d16fd96	0.036862932
118	0x3d3c4a3e	0.04596924
119	0x3d3a151c	0.045430288
120	0x3bb66dec	0.005567303
121	0xbd229ca1	-0.039700154
122	0x3dbdcf12	0.09268011
123	0x3ce11967	0.027477933
124	0xbdc81272	-0.09769143
125	0x3c1fe368	0.009758808
126	0x3dc35d32	0.0953926
127	0x3cef8a95	0.029240886
128	0xbca633b1	-0.02028832
129	0x3de7755a	0.1130168
130	0xbd9fd27d	-0.07803819
131	0xbc83e20a	-0.016098995
132	0x3dd6d84e	0.104904756
133	0xbc2df8f4	-0.010618437
134	0x3afb2b17	0.0019162622
135	0x3b8ef811	0.004363068
136	0xbde4ba7a	-0.1116838
137	0xbdb02dde	-0.086024985
138	0xbda17709	-0.07884032
139	0x3e0498b2	0.12948874
140	0xbdfca555	-0.12336222
141	0x3cd8473a	0.026401151
142	0xbd9e6b02	-0.07735254
143	0xbe079444	-0.13240153
144	0x3de8de99	0.11370582
145	0xbc426cb6	-0.011866739
146	0x3df22565	0.11823539
147	0xbde0ade1	-0.10970665
148	0xbd0eedae	-0.034894638
149	0xbd3997af	-0.045310672
150	0xbd2a80ef	-0.041626867
151	0xbd649179	-0.055802796
152	0x3c3b6bd6	0.011439284
153	0x3daeee24	0.085415155
154	0x3dd77334	0.1052002
155	0xbd9b998f	-0.07597648
156	0x3d93b10a	0.07211502
157	0x3d1d8091	0.03845269
158	0xbc2e236c	-0.010628562
159	0x3d588948	0.052865297
160	0xbd8a3237	-0.06747859
161	0xbdd8eec8	-0.10592419
162	0xbd947e9b	-0.072507106
163	0xbc400fdc	-0.011722531
164	0x3d9e3926	0.07725744
165	0xbd29d7c5	-0.04146554
166	0x3d8325f7	0.064037256
167	0x3d58d406	0.052936576
168	0x3dd37710	0.10325444
169	0xbd9899d2	-0.07451214
170	0x3d02c095	0.03192194
171	0xbdb54407	-0.08850866
172	0xbdedb63b	-0.11607023
173	0x3c8ef5b1	0.01745114
174	0xbdc54d2c	-0.0963386
175	0x3dc2e6d9	0.09516687
176	0xbe06974b	-0.13143651
177	0xbd715e6f	-0.05892795
178	0x3cddfc3e	0.027097818
179	0x3c95c2fb	0.01828145
180	0xbd891791	-0.06693948
181	0xbd99714b	-0.07492312
182	0xbcb0de5a	-0.0215904
183	0xbd66a2c0	-0.056307554
184	0x3d335539	0.043782447
185	0xbd9e2f8c	-0.077239126
186	0x3d31b8d9	0.043389175
187	0x3d5f6de5	0.054548163
188	0xbe172aec	-0.14762467
189	0xba377a12	-0.0006999086
190	0x3d48f8d4	0.049065426
191	0xbd6444af	-0.055729564
192	0xbe0cb303	-0.13740163
193	0x3da9ca28	0.08290511
194	0x3ce54ad8	0.02798979
195	0x3d256231	0.040376846
196	0xbdf27897	-0.11839407
197	0x3e008fc5	0.12554844
198	0xbd9e8c80	-0.07741642
199	0xbc89891c	-0.016789012
200	0xbce4dc0e	-0.027936962
201	0xbce34ef6	-0.027747612
202	0xbe115cbe	-0.14195535
203	0x3d9fa606	0.07795338
204	0x3dae8804	0.08522037
205	0xbde3da22	-0.1112559
206	0xbe1f413a	-0.15552226
207	0xbde41959	-0.11137647
208	0x3dbdd40c	0.0926896
209	0x3dd03ae3	0.10167482
210	0xbd6e136f	-0.058124002
211	0xbcdf8544	-0.027285226
212	0xbda2dea3	-0.07952621
213	0x3d7d95ef	0.061910566
214	0x3da8b63d	0.08237884
215	0x3d9d8c1a	0.07692738
216	0x3ba182f4	0.004928941
217	0xbd2836ae	-0.04106777
218	0xbcd49c0b	-0.025953313
219	0xbd2e4e9c	-0.042555436
220	0x3ce86602	0.028368954
221	0x3c7e495b	0.015520419
222	0x3d081434	0.033222392
223	0xbd25ed08	-0.040509254
224	0x3cc41ed6	0.023940485
225	0xbdc9cc8f	-0.098534696
226	0x3d2daa6e	0.042398863
227	0x3d99664d	0.074902155
228	0x3db8886d	0.09010396
229	0x3b8e3b56	0.0043405695
230	0xbc2938e6	-0.010328507
231	0xbd98999f	-0.07451176
232	0x3cd3b7ed	0.025844539
233	0xbd772563	-0.06033839
234	0xbd13900d	-0.03602605
235	0xbd61bf1e	-0.055113904
236	0xbdbbfab1	-0.09178675
237	0x3e0878a2	0.13327268
238	0xbdb2604e	-0.08709775
239	0x3dd056bc	0.10172793
240	0xbd40ace4	-0.04703988
241	0xbd269c82	-0.0406766
242	0xbca61144	-0.020271905
243	0x3daad15a	0.08340712
244	0xbdea2e2b	-0.11434587
245	0x3dc0b740	0.09409952
246	0xbd729bca	-0.059230603
247	0x3d5879fe	0.052850716
248	0x3ce2d414	0.027689017
249	0x3dc56ab8	0.096394956
250	0xbcd795d5	-0.026316563
251	0xbde1d339	-0.11026616
252	0x3b9eb735	0.0048436173
253	0xbcc6c12c	-0.024262033
254	0x3d20d011	0.039260928
255	0x3c99bcb8	0.018766746

weight f4 [32, 256]
0	0x3d9bc447	0.07605796
1	0xbdd77370	-0.10520065
2	0xbdb0150a	-0.08597763
3	0xbd8362d4	-0.06415334
4	0xbc8e63a3	-0.017381495
5	0xbd214dce	-0.03938084
6	0xbd61d17e	-0.055131428
7	0xbc0b43a5	-0.008500014
8	0xbd28703b	-0.041122656
9	0xbd9fa78e	-0.077956304
10	0xbd23ebb6	-0.040019713
11	0x3d54ca31	0.051950637
12	0xbe33c0ff	-0.17554091
13	0xbe172569	-0.14760365
14	0xbcc4dba3	-0.024030512
15	0xbd7adbe8	-0.061244875
16	0xbdfcfa94	-0.123524815
17	0xbdcf0173	-0.10107698
18	0x3d392366	0.045199774
19	0x3b7d6533	0.0038665056
20	0x3b3146cb	0.0027050253
21	0x3d827671	0.06370247
22	0x3bcadc2a	0.0061907964
23	0x3df30691	0.11866487
24	0xbdd25acf	-0.102712266
25	0x3d2b0cb5	0.041760165
26	0xbd6445c5	-0.0557306
27	0xbd9bf7ef	-0.07615649
28	0xbd0f5a7f	-0.034998413
29	0x3d4d6a30	0.050150096
30	0xbd3b8c5a	-0.045788147
31	0xbe17c67a	-0.14821807
32	0xbdb2cb2b	-0.087301575
33	0xbce6786d	-0.028133595
34	0xbe01053d	-0.12599654
35	0x3d48956a	0.048970617
36	0xbd830a8e	-0.063984975
37	0x3dbfe60b	0.09370049
38	0x3d40fb74	0.047114804
39	0x3b393e80	0.0028266013
40	0x3d92e1d2	0.07171978
41	0x3aa613c7	0.0012670689
42	0xbd241332	-0.04005737
43	0x3d0ab8dd	0.033867706
44	0xbc436214	-0.011925239
45	0xbddbc574	-0.107310206
46	0xbe13c49d	-0.14430471
47	0xbcc61e18	-0.024184272
48	0xbd25145b	-0.040302616
49	0xbc7146c8	-0.014726348
50	0xbd713939	-0.058892462
51	0x3d80edec	0.0629538
52	0x3dc40f52	0.095732346
53	0xbdff0e0a	-0.124538496
54	0xbe07d5a5	-0.13265093
55	0xbd3ab624	-0.04558386
56	0x3d9f6edf	0.07784819
57	0xbe77bac1	-0.24192335
58	0xbd0fa539	-0.035069678
59	0x3bc6993f	0.006060749
60	0x3d1833c1	0.03715873
61	0xbdd556a3	-0.10416915
62	0xbca8e479	-0.020616757
63	0x3c78f23d	0.015194473
64	0xbc97b206	-0.018517505
65	0xbe234f39	-0.1594819
66	0x3c87e48a	0.016588468
67	0xbe05126d	-0.1299531
68	0x3d2dfb91	0.04247624
69	0x3e55bd08	0.20872891
70	0xbdf9459e	-0.121714815
71	0x3ccf1455	0.02527825
72	0xbe2e86bd	-0.17043586
73	0x3ab758c2	0.0013988244
74	0xbd0073c9	-0.03136042
75	0x3dd1ca3b	0.102436505
76	0xbc90b68e	-0.017665174
77	0xbcbd656f	-0.023119656
78	0xbd4291ba	-0.047502257
79	0x3d478bbd	0.04871725
80	0xbd8164a8	-0.06318027
81	0xbe00450f	-0.12526344
82	0x3d543149	0.051804814
83	0xbe1fb44a	-0.15596119
84	0xbb6f8f72	-0.0036554006
85	0xbe17310c	-0.14764804
86	0x3cae4406	0.02127267
87	0xbd4d19c8	-0.050073415
88	0x3d6f4b03	0.058421146
89	0x3d4a79db	0.049432617
90	0xbcfa327a	-0.030541647
91	0xbd836771	-0.06416214
92	0x3d3ef8ec	0.04662411
93	0x3d8bc93e	0.06825493
94	0x3e436dab	0.19084804
95	0xbdf145ee	-0.11780916
96	0xbc6f70eb	-0.014614324
97	0x3e447d47	0.19188415
98	0x3c95e735	0.018298725
99	0x3c345af5	0.011008014
100	0x3c9478fb	0.018124094
101	0xbcb3abaf	-0.021932451
102	0xbddbafee	-0.10726915
103	0x3cb19403	0.021677023
104	0xbc8cad0f	-0.017172365
105	0x3d50e17c	0.05099629
106	0x3c525845	0.012838428
107	0xbda1f67c	-0.07908341
108	0x3c16e0f1	0.009208904
109	0x3db989dc	0.09059498
110	0xbd98a3d9	-0.074531265
111	0x3d5bacb5	0.053631503
112	0x3e5dca1e	0.21659133
113	0x3d93bc39	0.07213635
114	0x3d885f06	0.06658749
115	0x3d413fad	0.047179867
116	0x3d9bd9ad	0.07609878
117	0xbb7222ba	-0.0036946968
118	0xbc7508a2	-0.0149556715
119	0xbdfca0fa	-0.12335391
120	0xbdfe879b	-0.124282084
121	0x3d44045e	0.047855727
122	0xbde430cd	-0.111421205
123	0xbc07f968	-0.008299209
124	0xbc9cfd0f	-0.019163636
125	0xbda8e04e	-0.08245908
126	0xbd474f3d	-0.048659552
127	0x3d83c88b	0.06434735
128	0x3d4dddfb	0.050260525
129	0xbdb6a39e	-0.08917926
130	0x3d23a6d7	0.039954033
131	0xbe3b5e7b	-0.1829776
132	0xbdd4e259	-0.10394735
133	0xbcb8239b	-0.022477916
134	0xb95fe181	-0.00021350944
135	0xbbb06f03	-0.0053843274
136	0xbd6dd100	-0.058060646
137	0xbd0e46ff	-0.034735676
138	0x3bb07b8a	0.0053858208
139	0xbc8f00e8	-0.017456487
140	0xbd4bb412	-0.049732275
141	0xbe23fbe1	-0.16014053
142	0x3d7d5ebb	0.06185792
143	0xbdb095b2	-0.08622302
144	0xbd1287a9	-0.035773907
145	0xbdb62075	-0.088929094
146	0x3b115bfc	0.002218007
147	0xbd9c0b7e	-0.076193795
148	0xbdd9394c	-0.10606632
149	0x3df4f3ae	0.11960541
150	0xbe2cb53b	-0.16866009
151	0xbd8397af	-0.06425416
152	0xbdbb6ba4	-0.0915139
153	0xbde55622	-0.11198069
154	0xbb5d82fd	-0.00338
155	0x3c2d1419	0.010563874
156	0xbc53eb26	-0.012934482
157	0xbe3efbdd	-0.18650766
158	0xbdfa1fee	-0.12213121
159	0x3c5e1a58	0.0135560855
160	0x3cc333a6	0.023828339
161	0xbc9b8787	-0.018985523
162	0xbea8b52f	-0.32950732
163	0x3d99fd78	0.075190485
164	0xbe120aaa	-0.1426188
165	0xbcd75e51	-0.02629009
166	0x3b3e8a14	0.0029074
167	0x3cd3c93b	0.02585279
168	0x3d123650	0.035696328
169	0xbe18ae09	-0.14910139
170	0xbcc741f3	-0.02432344
171	0xbe85d3b0	-0.26138067
172	0xbdaee544	-0.08539823
173	0xbd8b6486	-0.06806283
174	0x3d8b189e	0.06791805
175	0xbdb261e0	-0.087100744
176	0x3bf44706	0.0074547557
177	0x3ddc236b	0.10748943
178	0x3d87eaea	0.06636603
179	0xbdcf677a	-0.101271585
180	0x3d546ef4	0.051863626
181	0xbe1c5090	-0.15265107
182	0xbd3be7bd	-0.0458753
183	0xbdd53854	-0.10411134
184	0x3d21ec3d	0.039531935
185	0xbd3b58e4	-0.04573907
186	0x3cbca13a	0.023026098
187	0xbddc1508	-0.10746199
188	0x3c806bae	0.015676346
189	0x3d2d6c7a	0.04233978
190	0x3d2b57fb	0.04183195
191	0x3d9f2c9a	0.07772179
192	0xbc8c593f	-0.0171324
193	0xbd1ef31e	-0.038806073
194	0xbd518bab	-0.05115859
195	0x3cf3a41d	0.029741341
196	0xbcf02dd4	-0.029318728
197	0xbda145c7	-0.07874637
198	0xbe2970b1	-0.16546895
199	0x3e46cfe8	0.19415247
200	0xbd09d741	-0.033652548
201	0xbc608fe2	-0.013706179
202	0xbcb1bc1b	-0.021696141
203	0xbd8f067c	-0.06983659
204	0x3c89b927	0.01681192
205	0xbe65ed04	-0.22453696
206	0x3dde3d68	0.10851556
207	0xbcf8e8fe	-0.030384537
208	0xbcc8605d	-0.024460012
209	0xbdc1ebc4	-0.09468797
210	0x3d84c79a	0.064833835
211	0xbe287e48	-0.16454422
212	0xbe01cf0e	-0.12676641
213	0xbe2a5ba5	-0.16636522
214	0xbd4d17c3	-0.05007149
215	0x3d22bf5c	0.039733276
216	0xba00341c	-0.00048905774
217	0xbc43a9a8	-0.011942305
218	0xbdc9553f	-0.098307125
219	0xbaa78ba4	-0.0012782705
220	0xbc9c1f87	-0.019058002
221	0x3e79167c	0.24324983
222	0xbdf85b8c	-0.12126836
223	0xbd23f565	-0.04002895
224	0xbcf85edb	-0.030318668
225	0x3d9a1a57	0.07524555
226	0x3d92b9e2	0.071643606
227	0xbb1ee656	-0.0024246178
228	0x3c57e090	0.0131760985
229	0x3d82a518	0.063791454
230	0xbde44ba5	-0.111472405
231	0x3d1676ce	0.036734395
232	0xbd9c3339	-0.076269574
233	0x3b632c49	0.0034663847
234	0x3ca788e0	0.02045101
235	0xba8a0a4e	-0.0010531635
236	0xbcb3ebfb	-0.02196311
237	0xbdef4ba2	-0.11684348
238	0xbdec2f62	-0.11532475
239	0xbe1a504c	-0.15069693
240	0x3cd4d40d	0.02598002
241	0xbd89f8e6	-0.06736927
242	0x39c285ff	0.00037102398
243	0xbc5facbc	-0.013652023
244	0x3e08692a	0.13321367
245	0xbe23ced1	-0.15996863
246	0xbd01a09f	-0.03164732
247	0xbd67a38f	-0.056552466
248	0xbd9fd638	-0.07804531
249	0xbe22e416	-0.1590732
250	0x3db16bf2	0.08663167
251	0xbdd4d1b5	-0.10391561
252	0xbe23e5db	-0.16005652
253	0xbcbfc19c	-0.02340775
254	0xbdad64cb	-0.0846649
255	0x3d7bfec8	0.061522275

bias f4 [32]
0	0x3c5a3517	0.013318322
1	0x3d5aca4c	0.05341558
2	0x3d3aca07	0.045602825
3	0xbcbfd6af	-0.023417799
4	0x3ae58123	0.0017509799
5	0x3d1fb183	0.038987648
6	0xbceb554c	-0.028727196
7	0x3d242ce3	0.04008187
8	0x3d1d6725	0.038428444
9	0x3cb57e5a	0.022154976
10	0x3d26b7b7	0.040702548
11	0xbd4f818f	-0.050660666
12	0x3cc6ca08	0.024266258
13	0xbb0ab5e9	-0.0021165556
14	0xbca908dd	-0.02063411
15	0xbd450bcd	-0.048106957
16	0x3d2d7476	0.042347394
17	0xbccd7778	-0.025081381
18	0x3d17e26c	0.037081167
19	0x3ce00a23	0.027348584
20	0xbd7795e7	-0.060445692
21	0xbc117d23	-0.008879933
22	0x3ca70fb6	0.020393234
23	0xbd39add4	-0.04533179
24	0x3ce7b895	0.028286258
25	0xbae0f0b2	-0.0017161577
26	0xbd58d42a	-0.05293671
27	0xba66d47f	-0.0008805468
28	0xbc39c587	-0.011338598
29	0x3cffb796	0.03121547
30	0x3d1b0ee4	0.037855998
31	0xbd1a840a	-0.03772358

weight f4 [1, 32]
0	0x3e2185cc	0.15773696
1	0xbdb0dc88	-0.08635813
2	0x3deeaf05	0.11654476
3	0x3e2b353a	0.16719523
4	0x3dab9969	0.0837887
5	0x3deb98a1	0.11503721
6	0xbe413a7a	-0.18869963
7	0xbe1d38bc	-0.15353674
8	0x3e2df00f	0.16986106
9	0xbde9b0a9	-0.114106484
10	0x3ddb029e	0.106938586
11	0xbda933cd	-0.08261833
12	0x3da73b39	0.08165593
13	0x3e241961	0.16025306
14	0xbda61068	-0.08108598
15	0x3e6b498a	0.22977272
16	0x3e541951	0.20712782
17	0x3afd4161	0.0019321853
18	0x3e31908b	0.17340295
19	0xbdafccab	-0.08583959
20	0x3e510732	0.20412901
21	0x3dfcdec6	0.12347178
22	0x3e71859c	0.23586124
23	0xbc1a1fe1	-0.009407015
24	0x3ebe1cde	0.371314
25	0xbe1c9b5a	-0.15293637
26	0xbdb1782e	-0.086655006
27	0xbcc92811	-0.024555238
28	0x3e5dd5cc	0.21663588
29	0xbda4b7c0	-0.0804286
30	0x3e3a03e7	0.18165551
31	0xbd011643	-0.03151537

exp_avg f4 [64, 20]
0	0xb8e43185	-0.00010881111
1	0xb827a9ca	-3.997403e-05
2	0xb6c41451	-5.8436203e-06
3	0xb8776d62	-5.899126e-05
4	0xb7be7a25	-2.2706643e-05
5	0xb7a58975	-1.9733541e-05
6	0xb8db7ac3	-0.000104656
7	0xb7ff90c8	-3.0465788e-05
8	0xb810b0b4	-3.4496843e-05
9	0xb8cdcdb8	-9.81348e-05
10	0xb91c96c3	-0.00014933482
11	0xb87f7cad	-6.091285e-05
12	0x373b7460	1.1173164e-05
13	0xb81f3ef7	-3.7967195e-05
14	0x380f5f04	3.4182347e-05
15	0xb93010aa	-0.00016790876
16	0x37cb7b79	2.4256982e-05
17	0xb523e23b	-6.105144e-07
18	0xb788a46b	-1.6289026e-05
19	0xb7bfbeee	-2.2857883e-05
20	0xb91215cd	-0.00013931766
21	0x37cecf63	2.4653686e-05
22	0xb7bd61c0	-2.2576074e-05
23	0xb9007dc6	-0.00012253886
24	0xb97ea98c	-0.00024286489
25	0xb829c1f9	-4.047339e-05
26	0xb90b27a0	-0.00013270834
27	0xb967892e	-0.0002208098
28	0xb8d41d26	-0.00010114377
29	0x3809ae04	3.282541e-05
30	0xb9707e38	-0.00022935204
31	0xb871da44	-5.7662153e-05
32	0xb88855c4	-6.5009604e-05
33	0xb87cf3f0	-6.0308666e-05
34	0x38882300	6.4915046e-05
35	0xb8acfaea	-8.2483355e-05
36	0x3688ec19	4.0806012e-06
37	0x380a0563	3.290678e-05
38	0xb94dd3c2	-0.0001962921
39	0xb96e8724	-0.00022747793
40	0xb848daae	-4.7887377e-05
41	0x37a1f2b6	1.9305717e-05
42	0x381549a2	3.5592944e-05
43	0x3902f782	0.0001248997
44	0xb7ec828f	-2.8194188e-05
45	0xb83db0f2	-4.5225905e-05
46	0xb8912c58	-6.9223985e-05
47	0xb859e05f	-5.1945794e-05
48	0x379de373	1.8821773e-05
49	0xb9266ce1	-0.00015871554
50	0x38bac822	8.906449e-05
51	0x38a83f82	8.0226935e-05
52	0xb8fa052a	-0.00011921891
53	0x3900ea83	0.00012294394
54	0x3842dcba	4.6458772e-05
55	0xb85832ac	-5.1545605e-05
56	0xb804782a	-3.1583164e-05
57	0x3845f1e7	4.719375e-05
58	0xb86b44f7	-5.6092595e-05
59	0x38bf3fb3	9.1194546e-05
60	0xb9992a90	-0.00029214146
61	0xb8d0c252	-9.954408e-05
62	0xb9ec43df	-0.00045063996
63	0xb977ef68	-0.00023644941
64	0xb9183407	-0.00014515231
65	0x37b35295	2.1376918e-05
66	0xb94fd3a0	-0.00019819895
67	0xb9a8a0fd	-0.00032163403
68	0xb8a807ff	-8.012354e-05
69	0xb78c76a8	-1.6744554e-05
70	0xb99f7a2d	-0.0003041787
71	0xb96d92b5	-0.00022656734
72	0xb98dc70a	-0.0002704191
73	0xb9c65092	-0.00037825532
74	0xb8cb4969	-9.693468e-05
75	0xb9766f79	-0.00023501915
76	0xb8e3596b	-0.00010840859
77	0xb9b11e76	-0.00033782766
78	0xb8de96ef	-0.000106138985
79	0xb9673bd6	-0.00022052167
80	0xb92d0766	-0.00016501322
81	0x38a05fb3	7.64722e-05
82	0x38b8cf2e	8.812394e-05
83	0xb89ac875	-7.38063e-05
84	0x39940000	0.0002822876
85	0x387dc661	6.0504655e-05
86	0x39962e83	0.00028644883
87	0x3988716f	0.00026024456
88	0x33f45b64	1.1378759e-07
89	0xb7a453f6	-1.958942e-05
90	0x396d5d50	0.00022636843
91	0x396aeb82	0.00022403713
92	0x396e5658	0.00022729614
93	0x399c022e	0.00029756263
94	0x3897ef97	7.244868e-05
95	0x3960bd6d	0.00021432871
96	0xb98af00c	-0.0002650026
97	0x36b233d3	5.3108465e-06
98	0xb7a3d526	-1.953037e-05
99	0x398026a6	0.00024442858
100	0x3956790b	0.00020453722
101	0xb82f9b12	-4.1867672e-05
102	0x37c39edc	2.3319786e-05
103	0x3889c848	6.569974e-05
104	0x38e4e414	0.0001091437
105	0xb7a532f0	-1.9693252e-05
106	0x38f867b7	0.0001184488
107	0x393026d9	0.0001679914
108	0x38b0242d	8.399072e-05
109	0x371aa5b0	9.217692e-06
110	0x390e980c	0.00013598817
111	0x39535fa0	0.00020158151
112	0xb6cdad07	-6.129619e-06
113	0x380b4430	3.3203687e-05
114	0x37f22f9b	2.8870816e-05
115	0x39876513	0.00025824513
116	0x38f58980	0.00011708122
117	0x38588ec4	5.1631374e-05
118	0x38e0def6	0.00010722682
119	0x38ceaf54	9.855503e-05
120	0xb02f74f0	-6.383081e-10
121	0xb6ca584c	-6.0303482e-06
122	0xb7eb2f90	-2.8036331e-05
123	0x35534542	7.870441e-07
124	0x37a6ac92	1.9869101e-05
125	0x362e8aae	2.6008743e-06
126	0x37b441f2	2.148838e-05
127	0x37c426a0	2.3383007e-05
128	0xb751b8cc	-1.2500397e-05
129	0x379ff815	1.90698e-05
130	0x3727c0d7	9.998875e-06
131	0xb6994af4	-4.568481e-06
132	0xb6b40d36	-5.365956e-06
133	0x381b7786	3.7066195e-05
134	0xb723455e	-9.731708e-06
135	0xb583a5e4	-9.808541e-07
136	0x35e058c2	1.6715132e-06
137	0x38a00ffc	7.632372e-05
138	0xb85f7a70	-5.3281372e-05
139	0xb82eb186	-4.1650164e-05
140	0x3867f481	5.5302404e-05
141	0xb9228943	-0.00015500658
142	0xb9556f3e	-0.00020354704
143	0xb816808e	-3.5882513e-05
144	0x391f3341	0.00015182515
145	0xb8c0d56a	-9.195025e-05
146	0x38f4da22	0.00011675457
147	0x389c7c7f	7.461849e-05
148	0x38e584f0	0.000109443325
149	0x395720f3	0.00020516272
150	0x39091c39	0.00013075852
151	0xb784b716	-1.5820882e-05
152	0x3822bb45	3.8798218e-05
153	0x357fc9d6	9.528861e-07
154	0x378a45ed	1.6483444e-05
155	0x392804f3	0.00016023572
156	0xb8b3990a	-8.563891e-05
157	0x398ef996	0.00027270307
158	0x3901e0f4	0.000123862
159	0x39732f5c	0.00023191929
160	0x3943b8c4	0.0001866548
161	0xb898127d	-7.2513685e-05
162	0x38aaf3d8	8.151651e-05
163	0x385850fa	5.157383e-05
164	0x382365d5	3.8957067e-05
165	0xb81bd2fc	-3.7151374e-05
166	0x38a393a1	7.799944e-05
167	0x3855114a	5.079926e-05
168	0x3748663c	1.1944732e-05
169	0x38af3153	8.3538376e-05
170	0x37ef1550	2.8500945e-05
171	0x39819e27	0.0002472263
172	0x393a456c	0.00017764204
173	0x38975b96	7.2173e-05
174	0x3962c2f0	0.0002162566
175	0x39220844	0.00015452603
176	0x3910030f	0.0001373405
177	0xb829cf17	-4.0485607e-05
178	0x39821d09	0.00024817165
179	0x398470aa	0.00025260943
180	0x38a83f83	8.022694e-05
181	0x38225e1f	3.8711467e-05
182	0x3854cbad	5.0734427e-05
183	0x38ecc69d	0.000112903515
184	0x391341fe	0.00014043596
185	0xb7817e7c	-1.5436897e-05
186	0x3954b223	0.00020284257
187	0x3963fcc8	0.00021742575
188	0x388597c2	6.370201e-05
189	0x38cfd1ec	9.90963e-05
190	0x38a8df93	8.052508e-05
191	0x3792419f	1.7435113e-05
192	0xb8d8fb5c	-0.00010346502
193	0xb8170e2f	-3.6014415e-05
194	0xb8f1afb9	-0.000115245064
195	0x3897b711	7.23434e-05
196	0xb69d9c48	-4.697158e-06
197	0x38b5d117	8.6696986e-05
198	0x397f3671	0.00024338976
199	0xb8e5fabe	-0.00010966275
200	0x38e7d38b	0.00011054341
201	0x3936df8a	0.00017440147
202	0x38cb9a24	9.708505e-05
203	0x36b02992	5.250048e-06
204	0x3997fd0f	0.00028989508
205	0x39972105	0.00028825566
206	0x399118fb	0.00027675167
207	0x3999667e	0.00029258797
208	0xb8118fc0	-3.470457e-05
209	0x389b0204	7.3913514e-05
210	0x39a41167	0.00031293483
211	0x399d4b09	0.0003000128
212	0x38761c75	5.8677473e-05
213	0x38ce4191	9.835058e-05
214	0x3980fd5e	0.00024602836
215	0x395adda4	0.00020872668
216	0xb8959e30	-7.1343384e-05
217	0x3898c36c	7.284325e-05
218	0x39ca7a1c	0.0003861942
219	0x398b8d36	0.00026617356
220	0xb6c77406	-5.944169e-06
221	0x387d6977	6.0418122e-05
222	0x38d5cec6	0.00010195146
223	0xb822983b	-3.8765585e-05
224	0xb6b4e95c	-5.3915846e-06
225	0x386cb8e8	5.6438992e-05
226	0xb8035713	-3.1313928e-05
227	0xb78c8d5f	-1.6755132e-05
228	0xb6b01109	-5.247192e-06
229	0x381ab442	3.688434e-05
230	0x3834ce12	4.3107262e-05
231	0xb5b763f1	-1.3663649e-06
232	0x38594099	5.1796993e-05
233	0xb78eb967	-1.7014054e-05
234	0x38085219	3.2501386e-05
235	0x38c27c0c	9.2737464e-05
236	0xb877a59d	-5.904363e-05
237	0x37aae87b	2.0373836e-05
238	0x38552dbd	5.0825754e-05
239	0x385af0ba	5.2199444e-05
240	0x3857cd6d	5.1451312e-05
241	0xb88eaae7	-6.802921e-05
242	0xb7d68eb4	-2.557724e-05
243	0x388475f1	6.316219e-05
244	0xb90b9a6e	-0.00013313603
245	0xb9a30f35	-0.00031101113
246	0xb91f66b5	-0.00015201683
247	0xb8b43195	-8.592304e-05
248	0x38c931fa	9.593736e-05
249	0xb7ac82d0	-2.0564912e-05
250	0xb909e697	-0.0001315124
251	0x3963f187	0.00021738383
252	0xb926206d	-0.00015843073
253	0x37991e1c	1.8253042e-05
254	0xb982badc	-0.00024934753
255	0x37f87dc2	2.9622464e-05

exp_avg_sq f4 [64, 20]
0	0x36373be3	2.7303984e-06
1	0x35c1876f	1.4419037e-06
2	0x3629471d	2.5224356e-06
3	0x3601b0b8	1.9325362e-06
4	0x363e6a33	2.8374022e-06
5	0x35dc8671	1.6430405e-06
6	0x3625a056	2.4680244e-06
7	0x363f6876	2.8522022e-06
8	0x3639501f	2.7613785e-06
9	0x36397f44	2.7641227e-06
10	0x364e9778	3.0784558e-06
11	0x35ea48e3	1.7455571e-06
12	0x35c9f7d5	1.5047796e-06
13	0x3630acd7	2.632665e-06
14	0x360ea684	2.1256574e-06
15	0x3634b6af	2.6928426e-06
16	0x360cc1ad	2.097436e-06
17	0x35ea16c4	1.7440984e-06
18	0x3645f26c	2.9496396e-06
19	0x361df84e	2.3539355e-06
20	0x36382d53	2.7444519e-06
21	0x37258820	9.8664605e-06
22	0x368b523a	4.1520952e-06
23	0x36344a38	2.6865291e-06
24	0x3794670a	1.7690956e-05
25	0x370fd0c1	8.5720685e-06
26	0x378205a0	1.5499827e-05
27	0x3767669b	1.3792563e-05
28	0x3626fa0c	2.4881474e-06
29	0x3701bb1a	7.732562e-06
30	0x37927f9e	1.7463983e-05
31	0x36535cf4	3.1495556e-06
32	0x36bd93e4	5.6498557e-06
33	0x36bcbec1	5.6250433e-06
34	0x3687c370	4.0460654e-06
35	0x369a1a4e	4.59262e-06
36	0x3699df2a	4.585735e-06
37	0x36c124bb	5.756124e-06
38	0x370f8f85	8.55688e-06
39	0x3731c6a8	1.0596275e-05
40	0x350e0b57	5.2915624e-07
41	0x35532091	7.8651016e-07
42	0x33e2b679	1.0557137e-07
43	0x348be867	2.6059863e-07
44	0x3606b14b	2.0070754e-06
45	0x34e51fc5	4.267769e-07
46	0x35e77681	1.724533e-06
47	0x360f39fe	2.1342416e-06
48	0x33a5b0c6	7.715566e-08
49	0x36074f0e	2.0162583e-06
50	0x35e6202a	1.7145696e-06
51	0x33ab4141	7.9746776e-08
52	0x351e6d1d	5.901837e-07
53	0x34ebf752	4.395211e-07
54	0x344229f1	1.8082916e-07
55	0x34403983	1.7902316e-07
56	0x348e878b	2.6548182e-07
57	0x35000426	4.768975e-07
58	0x345bd0aa	2.0471876e-07
59	0x35997070	1.1432112e-06
60	0x3734a295	1.076669e-05
61	0x370ef21f	8.520233e-06
62	0x372e772f	1.0398958e-05
63	0x3733996c	1.0704953e-05
64	0x37a825fe	2.0044852e-05
65	0x376bfffc	1.40666925e-05
66	0x37a9d2b9	2.0244495e-05
67	0x37cf66ac	2.4724133e-05
68	0x36e953c8	6.9536945e-06
69	0x375805a5	1.28759175e-05
70	0x37b52882	2.1595744e-05
71	0x37141793	8.826976e-06
72	0x375f974f	1.3327065e-05
73	0x3711a413	8.680875e-06
74	0x373a4a4d	1.1103763e-05
75	0x372a39d2	1.0146252e-05
76	0x371c28e5	9.307846e-06
77	0x373161b7	1.0572773e-05
78	0x378a3236	1.6474263e-05
79	0x373f4b53	1.1402025e-05
80	0x36d3078c	6.2891686e-06
81	0x37064d42	8.00501e-06
82	0x36eb7981	7.0176907e-06
83	0x36ceca64	6.16284e-06
84	0x378774dc	1.6147671e-05
85	0x3719f9bb	9.177656e-06
86	0x378e0324	1.6929182e-05
87	0x37ccb5b6	2.440331e-05
88	0x36bfd231	5.716713e-06
89	0x376c2894	1.4076144e-05
90	0x37ad308a	2.064581e-05
91	0x36ada874	5.1754123e-06
92	0x36e13fca	6.7129486e-06
93	0x3711f672	8.7000535e-06
94	0x36ffd2a0	7.624112e-06
95	0x36ef0676	7.123507e-06
96	0x36df6d32	6.65863e-06
97	0x3705ad3d	7.967753e-06
98	0x37088595	8.137334e-06
99	0x375156bd	1.2477566e-05
100	0x374a3fc2	1.2054983e-05
101	0x37962a5d	1.790112e-05
102	0x376b6cec	1.4032452e-05
103	0x37588b7d	1.290708e-05
104	0x37fb744a	2.9975683e-05
105	0x37bafbf3	2.229025e-05
106	0x37c71624	2.3732959e-05
107	0x38019daa	3.0902833e-05
108	0x3754c6b3	1.2682448e-05
109	0x378b5e79	1.6614084e-05
110	0x37d967b6	2.591671e-05
111	0x37306ccc	1.0515749e-05
112	0x373c09e8	1.120798e-05
113	0x373bb18c	1.1187407e-05
114	0x377026db	1.43141615e-05
115	0x374d0bb1	1.2221674e-05
116	0x37448753	1.1714018e-05
117	0x3794aedb	1.7724398e-05
118	0x3780f897	1.5374548e-05
119	0x37b0d71e	2.1081007e-05
120	0x33062a76	3.1237924e-08
121	0x34df2084	4.1560645e-07
122	0x34894578	2.5568784e-07
123	0x3310dacf	3.3726618e-08
124	0x34fbc153	4.6893055e-07
125	0x3482674c	2.4289545e-07
126	0x35406fb6	7.1688135e-07
127	0x3534ef95	6.7403863e-07
128	0x32a69829	1.9394138e-08
129	0x351709c6	5.6266106e-07
130	0x3539378d	6.899871e-07
131	0x337767ad	5.760346e-08
132	0x33e1bc10	1.0511587e-07
133	0x33cdd2a9	9.584375e-08
134	0x34a2a069	3.0291565e-07
135	0x33668b60	5.367781e-08
136	0x33df97a8	1.0411833e-07
137	0x34d6abc2	3.9985576e-07
138	0x3423eb36	1.5266127e-07
139	0x34babc50	3.4782215e-07
140	0x36a89384	5.0239632e-06
141	0x36ea557b	6.9836947e-06
142	0x36b3ec72	5.3621416e-06
143	0x369d8826	4.6948144e-06
144	0x380f3d80	3.4151133e-05
145	0x371f3d37	9.491391e-06
146	0x37cc91eb	2.4386643e-05
147	0x38230aaf	3.887218e-05
148	0x36ae717c	5.1988154e-06
149	0x37ab50b2	2.0422365e-05
150	0x3822912e	3.875902e-05
151	0x36b725cf	5.4582265e-06
152	0x36d6f4d0	6.406197e-06
153	0x371506f0	8.882707e-06
154	0x37132cd5	8.772321e-06
155	0x36ce25ad	6.1436645e-06
156	0x36b5675f	5.4062543e-06
157	0x37054534	7.94353e-06
158	0x370d6a96	8.429071e-06
159	0x37dcb222	2.6308993e-05
160	0x37e336f1	2.7086093e-05
161	0x382eda80	4.1688327e-05
162	0x380ff7d6	3.4324672e-05
163	0x37f8acbc	2.964434e-05
164	0x38aa8010	8.130085e-05
165	0x381df800	3.7662685e-05
166	0x38973611	7.210312e-05
167	0x38c59a19	9.422395e-05
168	0x37b528fd	2.1595968e-05
169	0x3888151d	6.488918e-05
170	0x389f824a	7.605979e-05
171	0x37f6e380	2.9431423e-05
172	0x381fb744	3.8079233e-05
173	0x3811d70f	3.4770983e-05
174	0x38131c43	3.5073852e-05
175	0x3807cedf	3.2379172e-05
176	0x3810c1d9	3.451281e-05
177	0x38209804	3.828855e-05
178	0x383a0887	4.4353797e-05
179	0x386b329f	5.607551e-05
180	0x358d9d27	1.0551056e-06
181	0x35ae8725	1.3003342e-06
182	0x358fc6ec	1.0712224e-06
183	0x358c2500	1.0441581e-06
184	0x360d5696	2.1061037e-06
185	0x35cb824e	1.5162602e-06
186	0x361d1494	2.34068e-06
187	0x36349a17	2.6911782e-06
188	0x3579fca3	9.3127363e-07
189	0x35ed6bfb	1.7689302e-06
190	0x3624ad3d	2.4538742e-06
191	0x357766fb	9.2164527e-07
192	0x3581e723	9.678519e-07
193	0x359be499	1.1614931e-06
194	0x35947a5d	1.1062472e-06
195	0x358c8ffd	1.0472719e-06
196	0x35755607	9.13948e-07
197	0x35e2b012	1.6889555e-06
198	0x35ecefd9	1.7653175e-06
199	0x35ddda64	1.6529343e-06
200	0x37a647a6	1.9822106e-05
201	0x37b62985	2.1715425e-05
202	0x379e0756	1.8838484e-05
203	0x37b90eb8	2.2060573e-05
204	0x3881c987	6.188737e-05
205	0x3834e543	4.312886e-05
206	0x384e839d	4.92368e-05
207	0x38aa42f9	8.118706e-05
208	0x3787cbab	1.6188094e-05
209	0x38127030	3.4913595e-05
210	0x38835fb0	6.26439e-05
211	0x377e806e	1.5169482e-05
212	0x37dd1cd0	2.635867e-05
213	0x3797dc74	1.810326e-05
214	0x37c03d84	2.2916829e-05
215	0x37aeac34	2.0822605e-05
216	0x379dff46	1.883473e-05
217	0x380363c2	3.132574e-05
218	0x3806fad5	3.2181695e-05
219	0x382db660	4.1416264e-05
220	0x35a1174f	1.2002218e-06
221	0x36054b5c	1.986241e-06
222	0x36008753	1.9152255e-06
223	0x35e07946	1.6724596e-06
224	0x35fdd87c	1.8912974e-06
225	0x35d6f58a	1.6015704e-06
226	0x35f1ab7e	1.800581e-06
227	0x363561ca	2.7028022e-06
228	0x35891bac	1.0215349e-06
229	0x360fa3bb	2.1403964e-06
230	0x3639752d	2.7635353e-06
231	0x35c13237	1.4394235e-06
232	0x35e82a40	1.7297643e-06
233	0x35ee0c7c	1.7736015e-06
234	0x3605549e	1.9867798e-06
235	0x35e5fb16	1.7134905e-06
236	0x35b8b278	1.376101e-06
237	0x3608e990	2.040153e-06
238	0x3616fba8	2.2498225e-06
239	0x3609ac74	2.0514972e-06
240	0x34245623	1.5305027e-07
241	0x35625f94	8.4330645e-07
242	0x343d1db6	1.7612805e-07
243	0x34e6ec67	4.3012844e-07
244	0x352c5c86	6.420963e-07
245	0x345b57b4	2.042787e-07
246	0x35c15774	1.4405073e-06
247	0x35ce5af3	1.5374666e-06
248	0x34158d24	1.3928053e-07
249	0x35213710	6.00573e-07
250	0x35d0d5f8	1.5559481e-06
251	0x35099cae	5.1264476e-07
252	0x354783a5	7.4324845e-07
253	0x340a463a	1.28778e-07
254	0x357fbc0f	9.5268564e-07
255	0x3519c6e4	5.7286366e-07

exp_avg f4 [64]
0	0xb8ca85eb	-9.657055e-05
1	0xb96c6a70	-0.00022546365
2	0xb811fe92	-3.480778e-05
3	0xb95efdee	-0.00021266166
4	0x3990dd66	0.00027630775
5	0x391bd781	0.00014862233
6	0x37936942	1.757278e-05
7	0x3908c2cb	0.00013042537
8	0x380989ba	3.2791613e-05
9	0x390055a1	0.0001223893
10	0x39994e13	0.00029240604
11	0xb744a1a3	-1.1720144e-05
12	0xb906e97a	-0.00012866213
13	0x38a2e21e	7.7668796e-05
14	0x38734416	5.7999125e-05
15	0x3966007c	0.0002193469
16	0xb9ea558b	-0.00044695692
17	0xb958db41	-0.00020681044
18	0x398018bf	0.000244325
19	0xb8abe4f2	-8.19656e-05
20	0xb9674a15	-0.00022057474
21	0x3925821f	0.000157841
22	0xb9331009	-0.00017076744
23	0x39a14083	0.00030756378
24	0x3961ff02	0.0002155267
25	0xb9731ad8	-0.00023184286
26	0x382d9fb0	4.1395135e-05
27	0xb7ea8402	-2.7956445e-05
28	0x37af1489	2.0871188e-05
29	0xb7d10eaf	-2.492158e-05
30	0x3912fa8b	0.0001401698
31	0xb8f814ce	-0.00011829437
32	0x36b79af6	5.471865e-06
33	0xb810b0e3	-3.4497014e-05
34	0x3954da1c	0.00020299148
35	0x393e7304	0.00018162659
36	0x37c9287c	2.397992e-05
37	0xb8d17196	-9.9870536e-05
38	0xb88ed77b	-6.811224e-05
39	0x38d2a855	0.000100449346
40	0x38941dc0	7.062731e-05
41	0xb8b8576f	-8.7900895e-05
42	0x38729ffa	5.7846286e-05
43	0x39a22d9e	0.00030933035
44	0xb9303719	-0.00016805193
45	0xb808fb7b	-3.2659136e-05
46	0xb98ee048	-0.00027251453
47	0xb8a75f54	-7.980937e-05
48	0xb851af78	-4.99929e-05
49	0x394fa501	0.00019802527
50	0xb9930553	-0.00028041992
51	0xb8dfc3e0	-0.00010669953
52	0x391b4b9b	0.00014810117
53	0x350b780e	5.195624e-07
54	0xb8e0bfc6	-0.00010716873
55	0x3984fa9f	0.0002536373
56	0x38dce827	0.00010533659
57	0xb901cbfb	-0.00012378387
58	0x38ea853c	0.00011182806
59	0xb786bd03	-1.606206e-05
60	0xb95c8e3b	-0.0002103382
61	0xb8a693b1	-7.9430065e-05
62	0xb7fc61c9	-3.0086276e-05
63	0xb90d68da	-0.00013485868

exp_avg_sq f4 [64]
0	0x366e9bce	3.5555454e-06
1	0x37b9beef	2.2142629e-05
2	0x3630224a	2.6246003e-06
3	0x37e8717b	2.7709399e-05
4	0x37c4ea92	2.3474251e-05
5	0x381baf6e	3.711826e-05
6	0x35857515	9.943348e-07
7	0x383d3f96	4.512033e-05
8	0x38e9dc05	0.000111512876
9	0x36425c3d	2.8961942e-06
10	0x38bcaccf	8.996727e-05
11	0x3641b469	2.8864254e-06
12	0x35e68c22	1.7177119e-06
13	0x37ef1f24	2.8505521e-05
14	0x390996e3	0.00013121548
15	0x373c4c9d	1.1223511e-05
16	0x38a6809f	7.9394544e-05
17	0x38239225	3.8998336e-05
18	0x38185852	3.632188e-05
19	0x37448abb	1.1714811e-05
20	0x37a7956c	1.9977531e-05
21	0x389f0175	7.581982e-05
22	0x387b9dfd	5.99902e-05
23	0x3753db5d	1.26276545e-05
24	0x383a374a	4.4397348e-05
25	0x37d161d8	2.4960304e-05
26	0x35d0cea2	1.5557346e-06
27	0x362b8d17	2.556311e-06
28	0x384643a8	4.726989e-05
29	0x377f71cb	1.5225679e-05
30	0x378612ad	1.5982741e-05
31	0x377a7a69	1.4929662e-05
32	0x3745f82d	1.1799898e-05
33	0x361ead96	2.3644875e-06
34	0x374b16b4	1.2105029e-05
35	0x38c94d5e	9.598838e-05
36	0x3648d246	2.9924718e-06
37	0x369dbbd3	4.7008302e-06
38	0x371812ab	9.0642525e-06
39	0x375035a0	1.2410252e-05
40	0x37219b09	9.632445e-06
41	0x3680025f	3.8149733e-06
42	0x376c0fe7	1.4070399e-05
43	0x3903c2a9	0.0001256565
44	0x38435d5e	4.6578578e-05
45	0x35717065	8.994305e-07
46	0x37a91289	2.0155001e-05
47	0x368995e0	4.100366e-06
48	0x366e4d22	3.550966e-06
49	0x38316408	4.229325e-05
50	0x37ddafcb	2.6427113e-05
51	0x369df91f	4.707966e-06
52	0x377c76fe	1.50480755e-05
53	0x38a4eadc	7.863875e-05
54	0x361b9bcd	2.3187488e-06
55	0x3808b2b4	3.2591357e-05
56	0x36bd26de	5.6371637e-06
57	0x3633fabd	2.6819027e-06
58	0x379fd301	1.9052533e-05
59	0x36b875e0	5.49735e-06
60	0x377d8a2d	1.5112147e-05
61	0x36a20eeb	4.829713e-06
62	0x37da6297	2.6033535e-05
63	0x36a5dada	4.942861e-06
