published_data/SSA anaerobic (TL)/final_models/bag_model_16.pkl (torch, 324833 bytes, 21 tensors)

weight f4 [64, 20]
000000 4b ce 1d 3e 16 76 2d bd ce 2e ff bd b5 6b 48 be
       0.15410726 -0.042348944 -0.12460099 -0.19572337
000010 42 a8 7c be f0 9d 31 be d0 ef db bd 57 ca 29 3e
       -0.2467356 -0.17345405 -0.107391 0.16581093
000020 65 93 65 bd 54 9d 28 3c a9 4f d8 bd 8f 7c 66 be
       -0.05604877 0.010291416 -0.10562069 -0.22508453
000030 8a 91 70 3e 88 60 c7 3d e6 eb d6 3d 2b 50 20 bb
       0.23493019 0.09735209 0.10494213 -0.0024461846
000040 93 77 3c be c3 1f 34 be 39 05 80 3c 85 de 8b bd
       -0.18404989 -0.17590241 0.01562749 -0.068295516
000050 34 33 e5 3c af 23 f5 bd d2 1e 46 3d 0f 9f 81 be
       0.027978517 -0.11969697 0.048369236 -0.25316665
000060 df 7c a0 bd 00 73 e1 bc 56 17 0c 3d 5f d5 a3 3d
       -0.07836317 -0.027520657 0.034201942 0.07999682
000070 92 ed c1 bd 40 f3 e1 bd a5 2e 31 3e b0 09 39 be
       -0.09469141 -0.110327244 0.1730295 -0.18070102
000080 19 6e 0a be 6e f3 bd 3d 81 10 dc bc 1b 0d 3a 3e
       -0.13518561 0.09274946 -0.026863338 0.18169062
000090 13 d7 75 be 65 3c 59 be 74 2c 86 be 3c f8 39 be
       -0.24007826 -0.21214445 -0.2620579 -0.181611
0000a0 d3 f9 8e bd 78 2d 61 bd 5a 51 51 3e d8 d7 45 3e
       -0.06981244 -0.054975003 0.2044119 0.19320619
0000b0 c2 01 d2 ba 8c b9 08 3e c9 5c 28 3e cc b0 8a be
       -0.0016022252 0.1335203 0.16441645 -0.2708801
0000c0 20 18 a7 3d 4f f1 fa bd ff 96 f2 bd f1 ff 6f 3e
       0.08158898 -0.12253057 -0.118452065 0.23437478
0000d0 26 29 51 3e 32 68 f7 3b 24 8a 62 be 4b da c8 bd
       0.20425853 0.007550263 -0.22123009 -0.09807261
0000e0 08 21 6e 3d 9e 5d c5 3d 3b f9 c0 3d 0d a4 ef bc
       0.05813697 0.09636997 0.09422537 -0.02925303
0000f0 36 dc 81 be 21 ef 26 3e 40 ce 62 3d a1 01 89 bd
       -0.2536332 0.16302158 0.055372477 -0.06689764
000100 c1 74 23 3e ca 98 09 be 3d f0 47 3e 72 f4 ad bd
       0.15962507 -0.1343719 0.19525237 -0.0849389
000110 cd 68 28 3e 7f a4 3b bd f7 47 21 be 1b 74 3e 3e
       0.16446228 -0.045811173 -0.15750109 0.18598978
000120 c5 7e a0 3d 63 72 3c bc 56 52 c9 bd 94 e1 18 3e
       0.07836679 -0.011501881 -0.098301575 0.14929801
000130 9d 9f 86 be 1f bb 1b 3e 69 78 84 3d 19 5f b1 3d
       -0.2629365 0.152081 0.06468279 0.086607166
000140 95 22 8f 3d 34 23 df 3d 58 e8 6d 3e 65 e5 11 3e
       0.06989018 0.10895386 0.23233163 0.14247663
000150 3d a7 4d be bf be 0a 3e 92 12 af bb d7 b9 f0 bd
       -0.20083328 0.13549326 -0.00534279 -0.11754196
000160 59 96 48 3d 9b dc 7c 3d a0 5a 39 be d9 ef ea bd
       0.048971508 0.061733823 -0.18100977 -0.114715286
000170 18 12 9e 3c 91 f3 05 3e 07 e9 45 3d 9f c1 14 be
       0.019295737 0.13081194 0.048317935 -0.14526986
000180 9a d7 49 be 79 91 ae be 26 3c 7c be 4c 0f dd 3d
       -0.19711152 -0.34095362 -0.2463232 0.10793933
000190 4e 63 d2 bd 54 44 32 3d 19 dd 28 be f9 cb ab 3d
       -0.10272847 0.043522194 -0.16490592 0.08388514
0001a0 70 7e 31 3e 8b 55 16 be 6c 3f d9 3c 9e cb 17 3e
       0.17333388 -0.1468107 0.0265195 0.14823768
0001b0 f9 68 c7 bd 8a 5c 3a 3e 30 b0 0e 3d fb 2b 8c 3c
       -0.09736819 0.18199363 0.034835994 0.017110815
0001c0 3e 79 00 3e 4f 0e 07 be 45 02 51 bd 0c 9e 53 bd
       0.1254625 -0.13189052 -0.051027555 -0.051664397
0001d0 98 5f 6a 3e 8d 9e fb 3d 11 f3 53 3e 62 7e 73 3e
       0.22888029 0.122861005 0.20698191 0.2377868
0001e0 fd db 1f 3e 8d 1d 45 3d a8 20 b7 bd bc c5 8b bd
       0.15611263 0.048123885 -0.089417756 -0.06824824
0001f0 f0 4e 60 3e d5 59 bc bc 23 b4 03 be c6 fa 89 be
       0.21905112 -0.022992054 -0.12861685 -0.26949137
000200 7e b9 54 bd 6a ad 13 be 39 63 31 3e 7f e2 04 3e
       -0.05193471 -0.14421621 0.17323007 0.12977026
000210 82 7b 4e 3d 29 bf 2f 3e f3 7d 3d 3e 8a bb 4d 3d
       0.050410755 0.17162766 0.18505077 0.05022768
000220 d5 77 02 be 1c e6 bc bd fd cf 73 bc 31 20 74 bd
       -0.12741025 -0.092235774 -0.014881131 -0.059601013
000230 d7 3e 1c be 3b d5 19 bd 5b 92 37 3e 41 86 13 3e
       -0.15258346 -0.037556868 0.17926924 0.14406683
000240 6f 22 02 3e 6a 68 50 3e b3 8d 93 bd fd 85 fb 3d
       0.12708448 0.20352331 -0.07204761 0.122814156
000250 47 1a a6 bb 72 13 10 3e 3f 2a bd 3c 0e 96 0f be
       -0.0050690505 0.14069918 0.023091434 -0.14022085
000260 f9 35 c6 3d 71 39 91 bd d6 cb bb bd b5 f7 11 3e
       0.09678263 -0.07091034 -0.09169738 0.14254649
000270 c9 fd 00 be e9 44 cd bd 82 f7 9c bd 0e c2 08 3e
       -0.12596811 -0.10022909 -0.07664396 0.13355276
000280 a3 8e 48 3e 5a 19 2c be 6d 8d 3b be 95 0e 1f 3e
       0.19585662 -0.16806546 -0.18315668 0.15532906
000290 ef a9 89 3d 16 fe e0 3d b4 2d 2e bd a0 3d 94 3c
       0.067218654 0.10985963 -0.042524055 0.018095791
0002a0 c7 16 f5 bc 71 d9 78 be 6b fe 11 3c cf 24 43 be
       -0.029918088 -0.24301697 0.008910756 -0.1905701
0002b0 64 41 3e 3e fd 14 b9 3b fd 90 19 3d 13 8f 1f 3e
       0.18579632 0.005648254 0.037491787 0.15581922
0002c0 b8 36 21 be a0 2d 77 3e 13 c1 60 be 7e 34 08 be
       -0.1574353 0.24138498 -0.21948652 -0.13301274
0002d0 cb 64 f2 bd 0e e7 7c bd dd d2 7a bd 7d 6c da bd
       -0.11835631 -0.06174379 -0.06123625 -0.10665224
0002e0 06 3e f1 bd c1 23 d1 3d 6c 24 04 3e 01 ad 5d 3e
       -0.11779408 0.10211898 0.12904519 0.21648027
0002f0 e1 1b 39 be de 3d 3a bd fd 17 73 3e bd 08 47 3e
       -0.18077041 -0.045469157 0.2373962 0.19436927
000300 61 3a d5 bd 99 a7 02 3e 5a 5b be bc 8f d9 f5 3c
       -0.104115255 0.12759246 -0.02323692 0.030010967
000310 82 9a 73 3e 78 d4 d0 3c 7e 99 c1 3d 06 40 af bd
       0.23789409 0.025491938 0.094531044 -0.085571334
000320 1b 23 00 3d 8a 22 ef bd 41 71 09 be e4 5c 02 be
       0.03128348 -0.1167651 -0.13422109 -0.12730747
000330 6e db 52 3e 77 48 05 3e 36 1a 4a 3e 6c eb 1a 3e
       0.20591518 0.13015924 0.19736561 0.15128869
000340 ff 02 87 bc 31 f1 5f 3e dd 08 17 be a2 3a 68 b9
       -0.01648092 0.21869351 -0.14749475 -0.00022147087
000350 33 36 30 3e b0 74 6b 3e 97 73 d2 bc c8 42 fb 3d
       0.17208175 0.22993731 -0.025689883 0.12268597
000360 27 cb 25 3e 6f a3 18 3e 83 7b 99 bc 0f 78 67 bb
       0.16190778 0.14906095 -0.018735653 -0.0035319363
000370 00 7a 42 be 6c 52 a7 bd 6f 9d aa 3d 6c 22 12 be
       -0.18991852 -0.081700176 0.08330809 -0.14270943
000380 6f d8 95 bc 7c 4b e6 bd 26 63 5c 3c 0e 6d 76 3c
       -0.01829168 -0.11244866 0.013451373 0.015040649
000390 99 5b 90 be ef b2 c4 3d 16 f2 57 bd 1d 9a 32 bd
       -0.28194883 0.096044414 -0.052721106 -0.043604005
0003a0 be c6 14 3e 71 ab d3 bd 6f 8b a5 be d2 4f 14 bd
       0.14528939 -0.10335434 -0.32332942 -0.036208935
0003b0 3e 68 94 3d 00 68 7c be 43 1e 4e 3e 5c d3 84 3b
       0.07246445 -0.24649048 0.20128731 0.0040535163
0003c0 c1 7c 0d 3e 07 82 02 be e9 35 4a 3e fe 41 9a 3d
       0.13817121 -0.12744914 0.19747128 0.07532118
0003d0 14 1e 82 bd f3 8d 22 be 28 cf 02 be b7 7b 76 3d
       -0.06353393 -0.15874462 -0.12774336 0.060176577
0003e0 58 94 84 3d 3f ba 93 bd a7 0e 5c be 82 dc 4c be
       0.06473607 -0.07213258 -0.21489964 -0.20005992
0003f0 92 74 bc 3c 05 06 e7 3d 22 62 7a 3d 98 64 25 3e
       0.023004804 0.11280445 0.061128743 0.16151655

bias f4 [64]
000000 ed dd bb 3d a6 fa fb bd 2a 6f 28 be 5e 1c 04 3e
       0.09173188 -0.12303667 -0.16448656 0.12901446
000010 61 64 94 bc bc 1d ed bd 9a 36 22 3e 7c db fb 3a
       -0.01811427 -0.11577937 0.15841141 0.0019215192
000020 6b 27 39 3e c8 f0 fb bc fe 7d 12 3e 29 1e 8b 3e
       0.18081443 -0.030754462 0.14305875 0.27171448
000030 5b 10 24 3e 03 16 96 3c b0 da 67 3e e0 dd 56 be
       0.16021864 0.018321043 0.22642016 -0.20983076
000040 18 4c 3d bc 4c 3f c5 3c 49 16 30 3d 95 1c 70 3e
       -0.011553787 0.024078034 0.042990003 0.23448403
000050 28 bc 4f 3d 76 09 a1 3d 84 5c 64 3e bb 4b 5d ba
       0.05071655 0.07863133 0.22300917 -0.00084417657
000060 b4 af 0d 3e 42 30 74 3d d1 97 64 bd 4a e6 ed 3d
       0.13836557 0.059616335 -0.055808846 0.1161619
000070 9c 52 50 3e 95 1b b6 bc 26 38 de bc 19 a0 5b be
       0.20344013 -0.022229949 -0.027126383 -0.21447791
000080 99 ab 25 be 50 e7 d7 bc 13 68 34 3e d4 0f 40 3e
       -0.1617874 -0.026355416 0.17617826 0.18756038
000090 53 f3 38 be 8f 69 06 bd cd ab 67 3e 61 18 4e be
       -0.18061571 -0.032815512 0.2262413 -0.20126487
0000a0 ef e6 74 bd 9e 81 0c bd 1d 84 a0 bb e2 5f 19 bd
       -0.059790548 -0.0343033 -0.0048985616 -0.037444957
0000b0 c3 5a 09 be 46 4e 4a 3e 2e dd 3d bd 1a 62 7c 3c
       -0.13413529 0.19756421 -0.04635351 0.015404249
0000c0 64 e5 1b 3e 69 c5 99 bc 60 89 bd bd f1 8c 21 bd
       0.15224224 -0.01877089 -0.09254718 -0.039441053
0000d0 df d1 d9 3b 01 15 89 3d b2 91 f4 bb 32 d3 14 3c
       0.006647333 0.06693459 -0.0074636573 0.009083556
0000e0 c5 83 10 3e f8 cb da bd f8 4c 5c be 10 a7 1b be
       0.14112766 -0.10683435 -0.21513736 -0.15200448
0000f0 7c 58 07 3e da f4 17 3e 40 68 23 be 87 51 f6 3c
       0.13217348 0.14839497 -0.15957737 0.030068172

weight f4 [256, 64]
000000 d6 97 d1 bc 93 75 82 3d ff 44 88 bb 98 03 f2 3d
       -0.025585096 0.06370082 -0.0041586156 0.11817092
000010 3c d9 f1 3c 21 80 87 bd e3 56 55 3c 17 04 06 3d
       0.02952253 -0.066162355 0.013021204 0.032718744
000020 56 d5 e2 3d 25 43 eb bc 1d 64 8c 3d 9a 66 5e 3d
       0.11075847 -0.02871854 0.068550326 0.054297067
000030 58 6a d0 3c 0f 76 d9 bd fc de c1 bd fc a2 ce bd
       0.025441334 -0.10618221 -0.09466359 -0.100896806
000040 63 3e 00 3d fc 38 26 bb 9f 8f 99 3d 97 63 3d bd
       0.031309497 -0.0025363555 0.07498097 -0.046237554
000050 1d 4a c8 bd 64 a6 8c bd 18 28 aa bd 45 8d 36 3c
       -0.09779761 -0.06867674 -0.083084285 0.01114208
000060 ca cf 9f 3c 90 f4 89 3d 6a dc a9 3d c4 b6 4f bb
       0.019508261 0.067361 0.08293994 -0.003169463
000070 9c b9 fb 3d a9 36 4b 3d 52 79 0a be a8 c3 cc bd
       0.122912616 0.049612675 -0.13522843 -0.09998256
000080 40 17 cd 3d f2 3e ae bd 2a 43 6b bd fe 2d 68 3d
       0.100142 -0.085080996 -0.0574371 0.056684487
000090 ad 22 b2 3d fc e3 41 bd ee cc c6 bd d3 89 84 bc
       0.0869802 -0.047336563 -0.09707056 -0.016179001
0000a0 6f 36 f0 ba 7c 58 da bd d8 01 1f 3c df b5 32 3d
       -0.0018326769 -0.10661408 0.009705029 0.043630477
0000b0 e3 62 a6 bc 9b 99 a7 3d 3e cc e5 3c d4 0f 46 3d
       -0.020310825 0.08183595 0.028051492 0.04835494
0000c0 aa e3 ba bc 8a 36 79 3d 1d 08 64 bc 45 aa 8a 3c
       -0.022813637 0.060843028 -0.01391795 0.016926894
0000d0 ba 47 19 bd 41 61 a0 bc ba b7 13 bd 43 b6 e1 3d
       -0.03742192 -0.019577624 -0.036063887 0.11021092
0000e0 b0 4c 4d bc 3f 96 ba 3d 92 16 a8 bd d4 1f 3c bc
       -0.012530491 0.091106884 -0.0820743 -0.011482198
0000f0 89 5c 01 bd d3 cd b0 bd cd e6 5a 3b 57 70 44 3b
       -0.03158239 -0.08633008 0.0033401728 0.0029974186
000100 10 85 ab bd be 70 0b be 74 cb 97 3d 24 fc 66 bd
       -0.08374989 -0.13617226 0.074118525 -0.056392804
000110 6c d2 03 be 18 dc 33 3e 10 6a 3f 3c a9 e3 a1 3d
       -0.12873238 0.17564428 0.011683002 0.07904751
000120 9c 6a 86 3d 07 97 9c bd c2 e0 c0 3d bd 34 b5 bd
       0.06563303 -0.07645994 0.09417869 -0.0884795
000130 2b a5 08 3a bd 8a c5 3d 70 52 76 bd e6 ff c4 3d
       0.00052126 0.09645603 -0.060137212 0.09619121
000140 d5 a9 38 bd 57 ff f9 3c 97 32 11 3d 7c 29 dc 3d
       -0.04508384 0.030517263 0.035448637 0.107501
000150 49 a6 a3 bc 22 a5 ab 3d 97 95 cc 3d 26 75 55 bc
       -0.019976752 0.08381106 0.099894695 -0.013028419
000160 7f ba 7a 3d 31 15 88 bc a6 0d e9 3d a1 f0 15 be
       0.061213013 -0.016611667 0.11379556 -0.14642574
000170 49 fd a6 bd 86 c2 8f 3d 56 f5 48 bc 51 40 18 bd
       -0.08153779 0.07019524 -0.012265524 -0.037170712
000180 f5 0b 11 3e ee 76 65 bd 8c 52 21 bd 8d 68 96 3d
       0.14164717 -0.056021623 -0.039385363 0.0734416
000190 bd 33 9f 3d e3 6d 10 be c5 4e d7 bc 1a 4d 5f 3d
       0.0777354 -0.14104418 -0.026282677 0.05451689
0001a0 9d 4e 3d bc 0c 74 8d bc cf 10 aa 3c be 5f e7 bd
       -0.011554387 -0.01726725 0.020759968 -0.11297558
0001b0 95 a1 d6 3d ee 28 e8 3d 92 cd 0e be ad bf 6a 3c
       0.10480038 0.11335932 -0.13945606 0.014327926
0001c0 a2 37 4f bd 20 ee e3 bc 75 5c b3 bc 81 f3 0e 3d
       -0.050590165 -0.027823508 -0.021894673 0.034900192
0001d0 a8 d1 05 be 71 c6 ba bc 98 77 a2 bd 67 de 10 bd
       -0.13068259 -0.022799702 -0.07932967 -0.03536835
0001e0 2d 6e 8b 3d 88 5b ee bd 48 b5 32 3d 80 6c 75 bd
       0.06808124 -0.11638552 0.043629915 -0.059917927
0001f0 fe 44 2d bc 86 fc 47 bd 0e 89 45 3d c6 a6 c6 bd
       -0.010575531 -0.04882481 0.04822641 -0.09699778
000200 4a ab 2e 3b 4d bc 11 be b8 1d b1 bd 94 ef 4a 3d
       0.002665239 -0.14231987 -0.086482465 0.049544886
000210 22 42 29 bd d8 4c 2c 3e 64 e4 dd 3d fa 57 d3 3d
       -0.041322835 0.16826189 0.10834578 0.103195146
000220 4f d3 eb bd dd 0d 64 bd c7 0f 40 bd 85 ab e5 bd
       -0.11514913 -0.055677284 -0.046890046 -0.112143554
000230 34 6a 99 3b 63 7b c9 bc a0 7f fe bd c6 27 b1 3d
       0.00468185 -0.024594968 -0.12426686 0.08650164
000240 05 c3 f9 bd a6 af f5 3c 18 1d 86 bd bb 0d d1 bd
       -0.121954 0.029990982 -0.06548518 -0.10207697
000250 ca 92 c0 bc 61 39 ac 3c 36 47 d4 bc cc ce a1 3d
       -0.023507494 0.021023454 -0.025912862 0.079007715
000260 a6 cc aa bd b6 3d 14 bd 05 ab ab 3d 36 76 7b 3c
       -0.08339815 -0.036191665 0.08382229 0.015348008
000270 c8 29 ae 3d a7 12 bd 3c 81 e3 07 be 62 84 be 3d
       0.08504063 0.023080183 -0.1327038 0.09302594
000280 86 16 d4 3d 00 45 a2 3d a2 ef e4 3d 53 f4 60 bd
       0.103558585 0.07923317 0.11178519 -0.054920506
000290 d4 db fe 3d 37 2f 5a 3d fa ba a9 3d 15 de d3 3c
       0.12444273 0.053267684 0.08287616 0.025862733
0002a0 30 31 10 3d ae cf d0 3d 06 d5 e2 bd ef b0 5c bc
       0.03520316 0.10195862 -0.11075787 -0.013469919
0002b0 aa 72 2d 3d d2 7c 82 3d a0 f7 6f 3c 66 8d 26 be
       0.04234568 0.06371464 0.014646441 -0.16264877
0002c0 fd 48 bd 3d e3 4f 1b bd ba f6 f5 3d 9a bb 06 bc
       0.09242437 -0.037917983 0.1200995 -0.008223439
0002d0 81 e3 b0 bd 60 6f 28 bd bb 13 b9 bc 1a bf d7 3d
       -0.08637143 -0.04112184 -0.022592416 0.105344966
0002e0 35 d4 ed 3d 38 cb 77 3c f8 41 4b 3c ad 05 bf bd
       0.11612741 0.015124135 0.012405865 -0.093272544
0002f0 b1 d5 98 bd c3 13 e5 3c aa eb cf 3d 8d a8 49 bc
       -0.074626334 0.027963525 0.10152371 -0.012308252
000300 00 9a a9 b9 28 d2 ec 3c 94 f1 16 bd 90 d9 d1 bc
       -0.0003234893 0.028908804 -0.03685148 -0.025616437
000310 70 b8 fc bc 7c 41 fb 3d b8 19 32 3d 80 ad da bc
       -0.030849665 0.122683495 0.04348156 -0.02669406
000320 c8 fa 10 3d d0 fe d7 bd 00 9a 33 3a 18 4a f6 3c
       0.035395414 -0.105466485 0.0006851256 0.030064628
000330 74 0b 75 bd d8 87 e0 bd 30 86 33 3d 00 17 37 3c
       -0.059825376 -0.1096341 0.043829143 0.011174917
000340 44 20 9a bd 0c 32 4e bd a8 07 ad 3d 50 43 6f 3c
       -0.075256854 -0.050340697 0.08448726 0.014603451
000350 7e 9d ef 3d ba e8 ca 3d b6 c7 a9 bd 78 aa 17 bd
       0.11699961 0.0990767 -0.08290045 -0.037027806
000360 a4 94 8d bd 12 99 c0 bd b8 97 2c 3d 20 02 cc bd
       -0.069131166 -0.09404196 0.042136878 -0.09961343
000370 50 57 51 bc 16 bf e8 bd a8 7d 22 3d a0 dc 78 3d
       -0.012777165 -0.11364572 0.039670616 0.06075728
000380 a4 0e 05 3d ea 4d c9 bd 38 0d ec bd 66 e4 fc bd
       0.032484666 -0.09829314 -0.11525959 -0.12348251
000390 b0 c9 50 3d 40 0f 56 3c f4 a4 fb bd 60 88 94 bd
       0.050973594 0.013065159 -0.12287322 -0.07252574
0003a0 30 19 87 bd fc 55 5e bd 44 47 95 bd 7c b0 08 bd
       -0.06596601 -0.05428122 -0.072889835 -0.033371434
0003b0 de 60 ef 3d 3e f1 d3 bd 60 35 14 3c 7c c8 02 bd
       0.11688398 -0.10348748 0.009045929 -0.031929478
0003c0 c0 76 8d bd 74 6e ba bd a8 43 cd bd 84 03 d0 bd
       -0.069074154 -0.091030985 -0.1002267 -0.101569206
0003d0 d2 3c a8 3d 8c 6c d4 bd 60 09 9e bb 70 96 39 3d
       0.082147256 -0.10372266 -0.004822895 0.045309484
0003e0 f4 31 6a 3d 62 70 bc 3d d8 22 c5 bc 50 21 b5 3d
       0.057176545 0.09201123 -0.024064466 0.088442445
0003f0 30 f2 d4 3c ce db f6 bd f8 2d e0 bd 60 7b 58 3d
       0.02599439 -0.12053643 -0.10946268 0.052852035

bias f4 [256]
000000 b6 ff 01 be 06 1c d9 bd a5 d3 d9 bb e8 74 e4 bd
       -0.12695202 -0.10601048 -0.0066475444 -0.111551106
000010 ef 1f 00 3e d6 1c ec bc a6 c0 b9 3d 09 c4 7b 3d
       0.12512182 -0.028822344 0.09069948 0.06146625
000020 f6 c5 96 bd e3 09 bd 3c 48 26 e9 3d fb c1 6c 3d
       -0.07361977 0.023076003 0.11384255 0.05780218
000030 1e 85 c0 3d e8 e0 ae 3d 8d 71 73 bd 66 c5 81 3c
       0.0940039 0.08538991 -0.059434462 0.015841197
000040 1f 74 a5 3d 7d ba 1f 3d 60 58 38 bc 3e b5 9b 3d
       0.08078789 0.03899621 -0.011251539 0.076029286
000050 88 c8 89 3c d7 2f 39 3d 9a 41 eb 3d 67 c4 1f 3e
       0.016819254 0.04521164 0.11487122 0.15602265
000060 86 30 d2 bd 5c 80 49 bb 00 68 80 3d f2 01 d6 3b
       -0.10263161 -0.0030746674 0.062698364 0.0065309936
000070 ea f5 eb bd 91 f7 fb 3c 7d d1 f5 3a fd d9 6f bb
       -0.11521514 0.030757697 0.0018754449 -0.0036598437
000080 11 92 7c bc 66 c3 89 bd b7 16 a7 3d c4 4e 05 3d
       -0.015415684 -0.067267224 0.081586294 0.03254582
000090 51 b8 87 3c 46 b8 83 ba 80 19 f8 bc b5 65 06 be
       0.016567381 -0.0010049425 -0.030285597 -0.13124736
0000a0 fa 1f 99 bd 63 3e ab 3d 0c 0a 3d 3d 11 2a b5 bd
       -0.07476802 0.08361509 0.04615216 -0.08845914
0000b0 92 15 89 3d 79 1c 28 bd 47 21 6f 3b d1 09 13 bd
       0.06693567 -0.04104278 0.003648834 -0.035898034
0000c0 0e d2 fa 3d 2e 07 d9 bd 12 59 db bb d1 e8 99 3d
       0.12247096 -0.105970725 -0.0066939676 0.07515109
0000d0 f2 5a 8e 3d 99 6d 1b 3d 99 7c 88 bc c8 72 a2 3d
       0.0695094 0.037946317 -0.016660975 0.07932049
0000e0 38 b8 01 be 9d 83 e2 bd 25 52 ce bd ee 15 50 bd
       -0.1266793 -0.110602595 -0.100742616 -0.050802164
0000f0 27 40 de bc 00 66 89 bc 68 f4 56 bd ef c5 c6 3c
       -0.0271302 -0.01677227 -0.052479178 0.024264304
000100 94 0a 00 3e fd 5c 29 3d d4 4c a4 3d e5 4d 21 3d
       0.12504035 0.041348446 0.08022466 0.039380927
000110 5f 79 5b bd ae 0a 66 bd ca b5 92 3d 1a 56 51 bd
       -0.053582545 -0.05616253 0.0716358 -0.051107503
000120 52 69 8d 3d e4 cc cd 3d 4c 47 8e 3d a0 4d 84 3d
       0.06904854 0.100488454 0.069471925 0.06460118
000130 09 ec ce 3d de c5 35 bd 62 68 f1 3c 43 55 9c bd
       0.10103614 -0.044378154 0.029468719 -0.0763345
000140 12 66 6a bc d8 55 d3 bd e6 40 e7 3d 49 a4 9a 3d
       -0.014306562 -0.10319108 0.11291675 0.07550866
000150 71 2b 72 bc 40 12 02 be 76 83 ad 3d 00 3d 18 bd
       -0.014780865 -0.12702274 0.0847234 -0.03716755
000160 e4 fc 9d bd 59 28 b5 3d d1 8f 98 3d 94 25 81 3c
       -0.07714251 0.08845586 0.07449306 0.015764989
000170 66 25 98 bd 0e 0a 4e 3d b2 f3 9f 3d af 5c e4 bd
       -0.07429008 0.050302558 0.07810153 -0.111504905
000180 97 12 09 be b5 ed 82 3c d7 0e c9 3d 69 c8 18 3e
       -0.13385998 0.015982488 0.098172836 0.149202
000190 5d 63 b5 3d f0 28 1c bd f0 3b b4 bd 70 cc 87 3d
       0.08856843 -0.03812498 -0.08800495 0.0663079
0001a0 3b 03 47 bb 99 98 18 3d 07 89 22 bd 91 cf 07 bd
       -0.0030366916 0.037254903 -0.03968146 -0.033156935
0001b0 0d 3b bc bd a8 90 68 bd d6 11 cc 3d 1d 4d 2a 3d
       -0.091909505 -0.05677858 0.099643394 0.041577447
0001c0 1b 74 e3 3d e0 ab 6b 3d 56 b5 0d bd 3d d6 1f 3d
       0.1110613 0.05753696 -0.034596764 0.039022673
0001d0 4e 34 f3 bd 95 4b 98 3d 49 52 08 3c b7 3b 8a 3d
       -0.11875211 0.07436291 0.0083204 0.06749671
0001e0 29 f9 46 bd 6b 46 69 bc 0b f6 b1 bd 98 e5 ec bd
       -0.04857746 -0.01423798 -0.08689507 -0.11567229
0001f0 a5 cc 7c 3d 14 a8 fc 3d d9 93 54 bb 05 c2 81 3d
       0.0617186 0.12336746 -0.0032436757 0.063358344
000200 e9 9c 63 3d f9 f5 3e 3d 38 91 c5 3d 78 95 92 3d
       0.055569563 0.046621297 0.09646839 0.07157415
000210 a9 b9 af 3d 09 1c ff 3c 71 22 94 bd 9e 12 f6 bd
       0.08580334 0.031141298 -0.07233132 -0.1201527
000220 07 dc a4 3d 10 f1 aa 3d bf 06 c1 3d fd 8f 5e 3d
       0.080497794 0.0834676 0.09425115 0.054336537
000230 df 45 ce bd 45 70 ac 3c 0b 4b 98 3d 15 52 4d bd
       -0.100719206 0.021049628 0.07436188 -0.050127108
000240 b7 96 78 bc 16 4b d1 bb 72 11 65 bd 19 c0 3a bc
       -0.015172652 -0.006387125 -0.05592484 -0.011398339
000250 b7 d3 41 3d 1a 0e b9 bd c6 73 06 be c4 7e 78 bd
       0.047321048 -0.09035893 -0.13130102 -0.060667768
000260 a8 32 cc bd 08 5b fb bd 89 46 ac 3d af 75 aa 3d
       -0.099705994 -0.12273222 0.08411891 0.083232276
000270 53 27 52 bc 6c 53 16 bc bc 75 56 3d 84 6f 51 bd
       -0.012826758 -0.009175163 0.052358374 -0.05113174
000280 59 53 ee 3c 10 fa 07 3d bc 15 05 be 44 36 7a 3d
       0.029092478 0.033197463 -0.12996572 0.061086908
000290 d3 82 a3 bd 4d e0 89 3d ae b9 d6 3c 46 00 c5 3d
       -0.07983937 0.06732235 0.026211586 0.09619193
0002a0 b9 94 b9 bd 10 fa d8 bd a3 35 65 bc 6d cb 22 3d
       -0.0906157 -0.10594571 -0.013989839 0.039744783
0002b0 d1 cd 2e bc 17 56 c3 bd 9d 46 2e 3c b7 3d 8a bc
       -0.010669188 -0.09537905 0.010636953 -0.016875131
0002c0 be e2 cb 3d 7a 1d 81 3d 7a f8 5d bd d2 48 23 3d
       0.09955357 0.0630445 -0.054192044 0.03986437
0002d0 bb 6c 50 3d 32 58 da 3d bd 0e 01 3e 07 40 b0 3d
       0.050884943 0.10661353 0.12603278 0.08605962
0002e0 7e c9 a4 3d b1 9b 10 bd 9f fd d8 3d 07 30 ea bc
       0.08046244 -0.03530473 0.105952494 -0.028587354
0002f0 0d fb 1a bd 2e d0 4a 3d 72 ff 2b bc b8 75 8c bc
       -0.037837077 0.049514942 -0.010497915 -0.017145976
000300 31 89 a1 3d b5 f7 a8 3d 3b ea e0 bc 79 f6 ae 3d
       0.07887495 0.08250371 -0.02745544 0.08543105
000310 2a 99 27 3d 0f c0 0f bd f4 dc 3b bd ef 92 a3 bd
       0.040917553 -0.03509527 -0.045865014 -0.0798701
000320 45 e1 4d bc a8 50 70 3d a0 07 fb bc be d2 d0 3c
       -0.0125659155 0.05867067 -0.030643284 0.025491115
000330 72 ed a8 bc 43 bc c3 3d 80 06 54 bd e5 ce 09 3e
       -0.020621035 0.095573924 -0.05176401 0.1345783
000340 04 64 11 bd ec 03 aa 3c bc 92 19 ba d6 a4 d3 3d
       -0.035495773 0.020753823 -0.0005858352 0.10334174
000350 38 00 5b 3d d7 07 00 bc c2 77 a7 3c a1 0b b1 bd
       0.053467005 -0.007814369 0.020442847 -0.08644796
000360 bf b6 46 3d 02 07 a1 3c c1 4f 2c bd 39 b2 e1 3c
       0.048514124 0.019656662 -0.042068247 0.027550803
000370 b0 62 9f bc e6 c2 eb bd 32 4f 5e bd 61 1f 3d bc
       -0.019456238 -0.11511783 -0.054274745 -0.011543126
000380 b4 6e 36 3a 22 62 e3 bd 08 5f 8d 3d b2 2d f7 3d
       0.0006959245 -0.11102702 0.069028914 0.120692626
000390 5c ce 7e bd e1 14 3b bd 2a 3b 02 be 09 5d 95 bd
       -0.06220852 -0.04567421 -0.12717882 -0.07293136
0003a0 36 84 85 bd e4 0b b9 bd 0b 90 31 3d 00 6a 5d bd
       -0.06519358 -0.09035471 0.04335026 -0.054056168
0003b0 09 cc 7c 3c 09 c4 cc 3d b4 ce bf b9 47 84 e9 3d
       0.015429505 0.09998328 -0.00036584365 0.11402183
0003c0 df 64 f8 3c 20 e1 85 bd be 19 a1 bd 99 eb c7 bc
       0.030321537 -0.0653708 -0.07866238 -0.024404334
0003d0 5c c7 6f bd 65 8d d0 bd 51 c3 5a bc 2f ac e6 3d
       -0.058539733 -0.10183219 -0.013352231 0.1126331
0003e0 a4 f5 ea 3a 2f 8b 46 ba af 08 da bd 53 25 dc bc
       0.001792599 -0.00075738406 -0.106461875 -0.026873266
0003f0 64 d4 b6 bd 71 b7 36 3d 21 d3 dc bd f5 39 96 bc
       -0.08927229 0.044608537 -0.10782457 -0.018338183

weight f4 [32, 256]
000000 34 17 08 3d a1 e8 44 bd da 26 85 3d b2 85 51 bd
       0.033225253 -0.048073415 0.06501551 -0.051152892
000010 41 3b 47 be b7 f9 ce 3d d2 45 a6 bd 31 ae 33 bc
       -0.19456197 0.10106223 -0.08118786 -0.010966823
000020 a0 72 3c be c3 25 dd bc 6b 2a 8d bd 82 1b cf 39
       -0.18403101 -0.026995545 -0.06892856 0.00039502612
000030 a2 0f 10 bc bb ea 75 be a8 40 fc bc 79 9e 3a 3e
       -0.00879279 -0.24015324 -0.03079255 0.18224515
000040 96 d9 fb bc 50 d3 0a be b8 5a 28 bd fa 52 a2 3c
       -0.030743401 -0.13557172 -0.04110214 0.019814957
000050 a5 78 6e bc 7c b8 af bd 6d 9c 25 3d 8e d5 fc bc
       -0.014555131 -0.085801095 0.040432382 -0.03086355
000060 b8 7a cb 3d 7e 29 35 be 8f 05 4d 3d 06 17 42 be
       0.09935516 -0.1769161 0.05005413 -0.18954095
000070 86 d4 5e 3d b0 7e 14 be a8 c0 bb 3c aa 23 16 bd
       0.054401897 -0.14501452 0.022919014 -0.036655106
000080 d3 11 02 bd 5b 70 0d 3d 62 67 8b 3c 5a ac ba bc
       -0.03175528 0.03453098 0.01701707 -0.022787262
000090 36 01 26 be 29 82 5f 3d 5a 1d ec 3d 98 be 33 3d
       -0.162114 0.05456749 0.11529036 0.043882936
0000a0 36 cd 73 be da 52 6a 3c 09 5a 1b 3d 85 51 34 3c
       -0.2380875 0.01430198 0.03792766 0.011005764
0000b0 52 1e 37 3d 96 8d 9d bc d9 f9 fa 3d 25 a8 e8 bd
       0.04470665 -0.019232552 0.12254686 -0.11360196
0000c0 99 95 38 be 73 31 99 3d 3b 1a 34 be 4e 55 83 3d
       -0.18025817 0.07480135 -0.17588131 0.06412755
0000d0 1a 52 17 bd 2a 64 12 bb 3d f5 1b bd a0 d9 53 be
       -0.036943533 -0.0022337534 -0.038075674 -0.20688486
0000e0 82 c6 05 3d 64 66 43 3d 37 c8 94 3d 35 0a 34 3d
       0.032660015 0.04770507 0.072647505 0.043955047
0000f0 b3 80 32 3e 68 5a 33 bd e5 54 87 bd b1 5c a9 bc
       0.17431907 -0.04378739 -0.06607989 -0.020674082
000100 83 24 20 ba 30 4f 29 be bf 97 5c 3d 87 5c 6b 3d
       -0.00061089563 -0.16534114 0.053855654 0.057461288
000110 d3 0a 61 3c 6b 57 c0 3b 35 82 64 bc 5c 4a c1 bb
       0.013735491 0.005869796 -0.013947059 -0.005898757
000120 b7 aa 6a 3d af ca 5d 3d f2 36 e5 3c d7 b4 da 3d
       0.057291713 0.054148372 0.027980302 0.10679024
000130 fa d6 08 3d 2e c2 cd 3d 19 a2 57 bd 88 a8 db ba
       0.033408143 0.100468025 -0.052644823 -0.00167586
000140 12 77 08 3d f5 a2 72 3d 4b e0 1c be 07 25 f8 3d
       0.03331668 0.05923744 -0.15319936 0.121164374
000150 8f fd a2 3c cf 3a a4 3d f9 e7 98 3d f4 a2 1e 3e
       0.019896297 0.08019029 0.0746612 0.15491849
000160 54 55 15 3e 80 f9 50 bd 86 dc 4d bd dd 2e 96 bb
       0.14583331 -0.05101919 -0.050259136 -0.0045832233
000170 40 58 89 bd 65 f4 cf bd a6 44 34 3d bd b3 81 3c
       -0.067062855 -0.101540364 0.04401078 0.015832776
000180 f4 17 78 3d 60 db 40 bc e6 97 11 bc b6 46 dd bd
       0.06056972 -0.011771053 -0.008886313 -0.10804503
000190 9a 85 a8 3d 52 54 d9 bc ac 5a fc 3c 07 04 24 bd
       0.082286075 -0.026529465 0.030804954 -0.040042903
0001a0 bd 2f a9 3d bd a6 85 3d 85 04 3e 3c 29 fc 28 be
       0.082610585 0.065259434 0.011597757 -0.16502441
0001b0 02 f4 88 be fc 45 c8 3c ce aa 71 3c 41 13 d7 bb
       -0.26748663 0.024447434 0.014750196 -0.0065635745
0001c0 de 8d fc 3c 2d b7 16 bd 0d f8 94 3d 56 08 ad 3d
       0.030829366 -0.036795784 0.072738744 0.084488556
0001d0 e6 f9 33 bd d9 5e 1c 3d 07 f1 be bd 28 38 07 3c
       -0.043939494 0.03817639 -0.09323316 0.008253135
0001e0 14 5e 2d 3d 59 ef 05 bc 88 3f e6 bc 3d ea 73 3e
       0.042326048 -0.008174741 -0.028106466 0.23819824
0001f0 66 45 e0 3b fb 55 ee bd cf bd 14 3d f9 6c 9d bb
       0.0068442104 -0.11637493 0.036313828 -0.0048042503
000200 df 27 44 bb 58 3d 10 3d 26 72 72 be 0a 77 5e bc
       -0.0029930992 0.035214752 -0.23676357 -0.013578186
000210 94 eb 7c 3d 46 27 0a 3d ff 69 35 3a 32 ea 15 3e
       0.061748102 0.03372886 0.00069203967 0.1464012
000220 ea a7 e5 3d 71 33 cb bb c5 e1 0f bd 82 51 4e bd
       0.11213668 -0.0062012007 -0.03512742 -0.0503707
000230 da de c6 3d 82 45 64 3d 1f 86 92 bc 7c 2e 7c 3d
       0.09710474 0.05573035 -0.01788622 0.06156777
000240 33 b1 86 bd 79 f3 e0 bb db 31 81 be bd cb 42 3d
       -0.06576767 -0.0068649617 -0.2523335 0.04755758
000250 4e e5 33 bd 35 5f 90 3c 50 f4 c2 3d e9 1a 0f 3e
       -0.043919854 0.017623523 0.09519255 0.13975109
000260 c8 a3 04 3d 69 5c da 3c b4 11 27 3d f2 96 cd 3c
       0.032382756 0.026655393 0.040788367 0.02509639
000270 10 fc 59 be f0 16 79 bc 30 60 cc bc 98 26 c7 3d
       -0.2128756 -0.015203223 -0.02494821 0.09724158
000280 59 f5 7f 3d 86 d8 10 bb fb 9f 57 3e dd 94 19 3e
       0.06248984 -0.0022101714 0.21057121 0.14998193
000290 3e 5d a7 bd 2a 1c 30 bd 8b db 3d 3c c4 c6 e4 bd
       -0.081720814 -0.04299561 0.011587988 -0.11170724
0002a0 8b b6 70 3d b4 8c be 3d f3 b0 98 3d 80 6a 6e 3d
       0.058767837 0.09304181 0.074556254 0.058207035
0002b0 7f c8 0f bc 53 41 b4 3c 50 05 88 3d ae c7 79 3d
       -0.008775829 0.022003805 0.06641638 0.060981445
0002c0 87 ee 9c 3d 2f e4 4d bd d7 1c 2a 3c 8a d1 c6 bc
       0.07662683 -0.05026644 0.0103828525 -0.024269838
0002d0 76 0d 80 3d 3a 2a 2e be 99 eb 25 be 64 60 98 3a
       0.062525675 -0.17008296 -0.16203155 0.0011625406
0002e0 65 30 57 3d 57 0b 12 bb e3 6a 85 3b 7f 98 bc 3c
       0.052536387 -0.002228459 0.00407158 0.023021935
0002f0 43 ff 89 3c 99 47 44 bc 86 5f cb bc ac a0 81 be
       0.016845351 -0.011979961 -0.024825823 -0.25317895
000300 e1 30 90 3c 0a d5 4a bd e8 5c 3b 3d 76 8d fe 3d
       0.017601432 -0.049519576 0.0457429 0.12429325
000310 86 52 82 be 56 ae 46 3d 39 b5 36 be d3 e3 5a be
       -0.25453585 0.048506103 -0.17842568 -0.2137597
000320 3a 1d 27 be d7 ae 12 be 83 f1 a1 3e 3e 8b bd bd
       -0.16319743 -0.14324509 0.3162957 -0.09255074
000330 c1 55 9f bc dc 2f 8e bd 18 28 0c 3d 6b e7 69 3b
       -0.01945007 -0.06942722 0.034217924 0.0035690914
000340 61 42 5c 3d 8c 7a ec 3c ff e6 c0 3c 75 55 8f 3a
       0.05377424 0.028867029 0.023547648 0.0010935502
000350 eb 89 55 bd 0e 87 ee bb 20 9c 53 bd f3 fa 1b be
       -0.052133482 -0.0072792834 -0.051662564 -0.15232448
000360 f5 04 c1 bc 3a 82 3e b9 31 5b 0f 3c 2a 04 66 3d
       -0.023561934 -0.00018168325 0.008749769 0.056156315
000370 e8 75 37 3d 9e 33 ba 3d a2 30 30 bc a9 ae e1 3d
       0.04479018 0.090918764 -0.0107537825 0.11019642
000380 06 fd 93 39 40 46 89 3d f3 b7 3e bd cc cc 59 3c
       0.00028226542 0.06702852 -0.046562146 0.013293456
000390 ef fd 44 be 50 e8 2d bd b2 be de 3d ec be ce bd
       -0.19237493 -0.04245788 0.10876216 -0.10095009
0003a0 0b 09 04 3d 1f db 17 3d dc 1c 7c 3c 0f df 2f 3e
       0.032235187 0.037074205 0.01538774 0.17174934
0003b0 6f a0 ce 3c 3f 33 0e 3e 11 e7 31 3e 46 0a ce bc
       0.025222985 0.13886736 0.17373301 -0.025151383
0003c0 03 45 c2 3d 18 ef e5 bd 0d e7 0d 3d 57 ef 28 3e
       0.09485819 -0.11227244 0.034644175 0.16497551
0003d0 1c 60 a2 bc e5 d6 33 3d 37 bd 32 3d b4 62 67 3a
       -0.01982122 0.04390611 0.04363748 0.00088266586
0003e0 88 a5 2f be 8e d2 00 be b9 35 e0 3c ca 5f 99 be
       -0.17152989 -0.1258032 0.027369367 -0.29955894
0003f0 e1 c2 12 bd e9 e5 33 3e bd a1 89 3d 6a 00 d5 3d
       -0.035830382 0.17568173 0.06720302 0.104004696

bias f4 [32]
000000 87 4c 6d bd 92 a5 1f bd 8c 01 75 bd eb 46 91 bc
       -0.05793431 -0.03897626 -0.05981593 -0.017734012
000010 08 18 58 bd 99 28 92 ba d5 ab 06 bd e1 c6 e5 bc
       -0.052757293 -0.0011151015 -0.032878716 -0.028048934
000020 4b 93 29 3d 59 b4 21 3d a6 3c b6 3c e3 33 f9 bb
       0.041400235 0.039478634 0.022245716 -0.0076050623
000030 ef ab 00 bc 38 7a 0e bd c6 cb a4 3c 95 33 aa bc
       -0.007853492 -0.034784526 0.020116698 -0.02077655
000040 3a cf 55 bd cd b3 f3 3c 84 1f c9 3c 0f ca ea bc
       -0.05219958 0.029748822 0.02455116 -0.028660802
000050 23 89 4d bc 52 37 a6 3c b9 67 1e bb 11 77 dc 3c
       -0.012544903 0.02029005 -0.002417071 0.026912244
000060 e3 aa 56 bd f7 27 69 bd 44 84 0e bd 59 3b 35 bd
       -0.052409064 -0.05692288 -0.034794107 -0.04424605
000070 85 29 58 bd 1c 11 26 3d a1 b6 b2 bc d3 c9 12 3d
       -0.05277397 0.04054366 -0.0218156 0.035837006

weight f4 [1, 32]
000000 03 37 87 3d ad e6 cb 3d 3c 5e a2 bd f2 28 28 bd
       0.066022895 0.09956107 -0.0792813 -0.041054673
000010 16 1b 10 3b b2 ec 68 3e 6a f8 12 be bb c6 3e 3e
       0.00219888 0.22746542 -0.14352575 0.18630497
000020 76 6b 0f 3e ab f3 90 bd d8 b3 d6 3d 0a 37 3d 3e
       0.14005837 -0.07077726 0.10483521 0.18478027
000030 a9 4f d2 3d 89 be 00 3e 35 83 10 bd 85 be 37 3e
       0.102691 0.12572683 -0.03528138 0.17943771
000040 39 b7 22 be ad 55 42 3e 69 54 c1 3d 63 34 9e 3e
       -0.15890206 0.18977995 0.09439928 0.30899343
000050 9f ab 16 3e 9c a6 08 be a2 10 4c be 6a b6 39 3e
       0.14713906 -0.13344806 -0.1992822 0.18135992
000060 e4 a0 41 bd a7 7e 78 bd a1 3f e4 3d a6 eb 2f bd
       -0.047272578 -0.06066766 0.11144949 -0.04294934
000070 63 92 01 bc 93 34 24 3e af 5d 13 be 01 88 1b 3e
       -0.0079084365 0.1603568 -0.14391206 0.151886

exp_avg f4 [64, 20]
000000 91 7b 85 b8 62 53 ff 38 01 9d 30 37 5d 65 e1 36
       -6.36495e-05 0.00012174879 1.0526973e-05 6.717323e-06
000010 00 8f 89 37 06 cf 7e 38 5a 8f 84 b7 1a 65 b8 37
       1.6398262e-05 6.0751125e-05 -1.580238e-05 2.1981588e-05
000020 a1 73 d1 b4 65 11 db b8 d6 27 98 39 b9 ed d7 b6
       -3.9013415e-07 -0.00010445974 0.0002902138 -6.435174e-06
000030 ea 0d f6 b7 03 56 87 38 36 d5 f8 38 95 58 2e 37
       -2.9331964e-05 6.4533226e-05 0.00011865275 1.0391833e-05
000040 b1 ee 06 38 af 46 43 38 8f 64 03 39 b3 9d 1b b9
       3.217039e-05 4.6557452e-05 0.00012530595 -0.000148407
000050 ae 08 8e b8 e9 9f 14 b7 21 2a 69 34 ae d8 b5 2b
       -6.7727044e-05 -8.858719e-06 2.1715142e-07 1.2920964e-12
000060 12 44 94 38 31 02 0b b9 b1 8c 0d 38 da 67 7e 38
       7.069869e-05 -0.0001325689 3.374805e-05 6.065504e-05
000070 00 00 00 00 e1 db 0b 37 74 6a 7e 38 69 a9 2d 2d
       0.0 8.33624e-06 6.065746e-05 9.871528e-12
000080 5c 0d 24 ac 0b d3 9d b7 8b c5 41 39 b2 6b a5 37
       -2.3313218e-12 -1.8814133e-05 0.00018479505 1.9719682e-05
000090 19 f9 d4 2a af 1b 0c 10 61 82 9f 30 d7 df 07 b6
       3.783161e-13 2.7631458e-29 1.1605829e-09 -2.024686e-06
0000a0 44 93 76 38 89 c3 79 39 06 22 03 39 f6 fe 57 37
       5.8788122e-05 0.00023819333 0.00012505808 1.2874361e-05
0000b0 e1 4e ba b8 60 b4 bc 38 c2 75 ae b7 c6 55 9c 38
       -8.8838635e-05 8.998136e-05 -2.0797252e-05 7.454636e-05
0000c0 67 77 9a 38 ce cd 01 39 dd c3 3a b9 9a 6a 84 b8
       7.365533e-05 0.00012379067 -0.00017811307 -6.3141066e-05
0000d0 e5 46 be b8 4f e3 b4 b8 df 38 c8 38 9c 03 a3 38
       -9.073111e-05 -8.6254084e-05 9.547336e-05 7.773118e-05
0000e0 ea 53 90 b9 6a 22 20 39 c9 64 09 b9 9e c1 a2 37
       -0.0002752834 0.0001527161 -0.00013102884 1.9402065e-05
0000f0 4b 1c 8a 38 c9 a6 19 b8 a3 e3 dc 38 72 e7 6c b8
       6.585623e-05 -3.6633373e-05 0.00010532818 -5.6482335e-05
000100 bd e0 15 39 b1 2b 81 39 f0 08 0a 38 a2 7e 9e 38
       0.00014293469 0.0002463735 3.2910088e-05 7.557614e-05
000110 4e b2 ff 38 c6 61 a6 39 e2 f7 29 39 4f d4 a8 38
       0.000121925594 0.00031734834 0.0001620944 8.05041e-05
000120 10 14 27 39 47 28 46 b6 84 95 2e b7 1d c5 d2 37
       0.00015933835 -2.9527744e-06 -1.040602e-05 2.5125739e-05
000130 fe 12 85 38 6c 67 d2 36 01 92 27 b9 3a 04 1b 39
       6.345472e-05 6.2705276e-06 -0.00015980752 0.00014783526
000140 3e 96 92 38 de 1a 26 b8 58 5d 15 b8 fd 0e 46 b7
       6.989807e-05 -3.9602506e-05 -3.56113e-05 -1.1805209e-05
000150 fe 17 68 b6 10 7e b8 38 17 6c 30 38 64 c3 c5 b7
       -3.458466e-06 8.797285e-05 4.2062336e-05 -2.3575216e-05
000160 10 27 99 38 19 c1 3c 39 db 4b 41 39 4a 1d d1 37
       7.3028845e-05 0.00018001012 0.00018434173 2.492838e-05
000170 0c c6 53 b9 0e bd 55 b8 53 a7 e4 b7 cb 86 9c 37
       -0.00020196306 -5.095923e-05 -2.7257634e-05 1.8659417e-05
000180 65 b2 d3 38 fc 86 92 37 d3 35 62 b9 b0 ae 5e b7
       0.000100944926 1.7467413e-05 -0.0002157309 -1.3272904e-05
000190 64 51 14 ba 7c 72 ea b9 75 c9 c6 b8 3b 89 61 b9
       -0.000565788 -0.00044717256 -9.4789e-05 -0.00021508794
0001a0 a2 36 0f ba 0d 75 11 ba ad 6c 4d ba b3 20 d4 b9
       -0.0005463158 -0.0005548753 -0.00078363233 -0.00040460154
0001b0 b7 ea d9 b9 ce 9a ad b9 1b cb 96 b9 d7 6b 4d 39
       -0.00041564342 -0.0003311247 -0.00028761555 0.00019590497
0001c0 45 61 19 ba 82 36 14 ba b7 13 b8 b9 f0 c9 35 b9
       -0.0005850981 -0.0005653874 -0.00035109904 -0.00017336733
0001d0 2a 4f 04 b8 17 cd 00 ba bf c6 f9 b8 bc ba 1c ba
       -3.154498e-05 -0.0004913373 -0.000119102646 -0.00059787533
0001e0 f6 a1 b4 39 24 f7 91 39 81 69 7a 39 66 da ba 39
       0.00034452946 0.0002784069 0.00023881161 0.00035639404
0001f0 6a ed 33 39 0d 14 1e b8 fc 4e de 39 a8 9d e6 b6
       0.00017159214 -3.768881e-05 0.00042401988 -6.8728878e-06
000200 35 71 3d 39 11 71 fe 38 c7 56 36 39 c9 df 21 39
       0.00018066617 0.00012132724 0.000173892 0.00015437523
000210 7e aa c7 39 27 b2 2f 39 af 7c 96 39 81 2d 4b 35
       0.00038083264 0.00016755667 0.00028703126 7.568961e-07
000220 31 fe a7 38 9c 85 36 39 50 54 0c 39 2c 16 b4 39
       8.0105274e-05 0.00017406646 0.0001338285 0.00034348795
000230 32 2e b8 b8 ac 10 9d b8 59 70 21 b9 24 20 c4 38
       -8.782408e-05 -7.489449e-05 -0.00015396009 9.351995e-05
000240 7f d0 81 b9 6a 52 8e b9 75 75 bf b9 df 8b 8c b9
       -0.0002476014 -0.00027145754 -0.0003651787 -0.00026807093
000250 d2 eb ff b8 f6 3c 58 b9 a9 b9 b3 b8 a7 a6 a8 b8
       -0.000122032725 -0.00020622075 -8.569967e-05 -8.041906e-05
000260 9c 0d 6d b9 14 d1 b0 b8 20 6d 0e b9 de 97 30 b8
       -0.00022607151 -8.431278e-05 -0.00013582828 -4.2103107e-05
000270 7c 6d 5c b8 b1 8a 24 b9 83 b6 99 38 06 be c2 b8
       -5.2554053e-05 -0.00015691925 7.329604e-05 -9.2860355e-05
000280 12 dd c1 b5 8d d1 43 37 dd 48 35 b7 75 b1 89 37
       -1.444396e-06 1.1671696e-05 -1.08054055e-05 1.6414308e-05
000290 5b 08 46 b9 a4 ab 17 b9 55 9e 02 b9 57 fe d9 b8
       -0.00018885864 -0.00014464423 -0.0001245675 -0.00010394741
0002a0 b3 99 a7 b8 78 a7 ca b8 33 21 0c b9 c8 59 bb b8
       -7.991809e-05 -9.663304e-05 -0.00013363808 -8.933578e-05
0002b0 9f d6 8c b7 79 0a ce 38 fb 01 84 37 c7 68 37 b9
       -1.6789241e-05 9.824796e-05 1.5736548e-05 -0.00017491273
0002c0 f1 6f ca 37 4f 35 c1 36 94 51 85 38 a6 9d 93 b8
       2.4132403e-05 5.758054e-06 6.357129e-05 -7.0388705e-05
0002d0 de dd aa b8 a4 1f 9d 37 57 7a 29 b9 55 49 c4 b8
       -8.147558e-05 1.8730592e-05 -0.00016162671 -9.3596675e-05
0002e0 1a b6 94 b7 7a 07 87 b8 a7 28 21 b9 a8 86 84 b8
       -1.7727773e-05 -6.438694e-05 -0.000153693 -6.319332e-05
0002f0 84 ac f3 36 03 1b 00 b9 e1 17 44 b7 4c 0d 0f b9
       7.262048e-06 -0.00012217094 -1.168807e-05 -0.00013642496
000300 3e 80 65 39 7b 0f 03 39 ce 64 b3 b8 0a 91 26 b9
       0.00021886916 0.000124989 -8.5541615e-05 -0.00015885025
000310 68 b2 ad b8 a9 91 ac 38 de e4 d8 b8 06 d2 07 b8
       -8.2825136e-05 8.2287304e-05 -0.000103423125 -3.2382108e-05
000320 5b 15 3c b9 a1 77 22 b9 43 e5 10 b9 47 c3 18 b9
       -0.00017937033 -0.00015494089 -0.00013818317 -0.00014568596
000330 c5 80 e7 b8 2b 4c 67 37 d7 46 a8 b8 70 cd 67 b7
       -0.000110389235 1.3786407e-05 -8.024059e-05 -1.3816505e-05
000340 6b d5 38 37 65 d8 3e b9 9f 13 e4 b7 c9 92 b8 b7
       1.1016945e-05 -0.00018200425 -2.7188855e-05 -2.2002861e-05
000350 88 22 61 b9 1a 9d b1 b8 73 81 03 b9 e0 07 91 b7
       -0.00021470536 -8.46928e-05 -0.00012541357 -1.7289014e-05
000360 98 6c 2e b8 9b f5 b8 b8 e2 22 16 39 50 0b 0d 38
       -4.158597e-05 -8.819551e-05 0.0001431811 3.3627555e-05
000370 8f 9a 9a 34 25 a9 f0 38 88 05 23 39 d3 ed 3b 38
       2.8797191e-07 0.000114755974 0.00015546952 4.4805765e-05
000380 7f bb c3 38 7d ae 7b 39 bf 0c 05 39 0b df 5b 38
       9.3332485e-05 0.00024002227 0.00012688617 5.2421394e-05
000390 28 2e 25 39 f5 5e 57 38 af 4f 60 38 52 0d b5 36
       0.00015752821 5.134843e-05 5.3479973e-05 5.395771e-06
0003a0 49 e2 0a 39 1d 79 17 39 0c ab 51 38 59 94 18 b8
       0.00013245003 0.000144456 4.9988783e-05 -3.6377784e-05
0003b0 d1 8d 5d b8 af cc aa 38 12 bb 00 b8 e5 66 28 39
       -5.2822583e-05 8.144357e-05 -3.06918e-05 0.0001606006
0003c0 02 cc 6c b7 57 4f 50 38 c5 85 b9 37 05 4a 27 39
       -1.4114195e-05 4.9664955e-05 2.211601e-05 0.00015953936
0003d0 90 fa 99 37 83 ef 83 b8 63 6c ec 37 04 52 af 37
       1.8355699e-05 -6.291179e-05 2.8183864e-05 2.0899817e-05
0003e0 39 b1 f6 b8 86 00 3c 39 4d 0c 49 b8 bf ac 5d b7
       -0.000117632044 0.00017929272 -4.793359e-05 -1.3212847e-05
0003f0 4e 1d 26 37 04 83 32 b9 77 01 d9 b7 2b 03 ea 37
       9.901194e-06 -0.0001702421 -2.5869098e-05 2.7896449e-05

exp_avg_sq f4 [64, 20]
000000 09 f8 0b 36 d4 31 56 36 4f 5c 79 35 a2 45 cb 34
       2.085699e-06 3.1917489e-06 9.2894055e-07 3.786236e-07
000010 f4 0c be 35 2b 4b f5 35 f0 6a 48 36 18 95 bd 36
       1.4159873e-06 1.8275799e-06 2.9864568e-06 5.6499957e-06
000020 f0 d4 34 35 ef d9 4e 36 2e 11 9d 36 55 b7 17 35
       6.736509e-07 3.0823246e-06 4.6809646e-06 5.6518667e-07
000030 88 2d 56 36 dc df f0 35 f5 b3 dc 35 5b 7e ae 35
       3.1914988e-06 1.7946545e-06 1.6443652e-06 1.3000785e-06
000040 63 6e 27 35 d2 21 02 35 a9 37 23 36 65 f9 e3 35
       6.237298e-07 4.847799e-07 2.4321291e-06 1.6985401e-06
000050 6e d4 ba 34 2e 4d 4d 35 82 5f f9 34 eb 86 0e 33
       3.4799763e-07 7.648076e-07 4.6449355e-07 3.318466e-08
000060 33 5e 8c 35 d0 6e 57 35 e9 87 fc 35 7e 02 1b 36
       1.0458228e-06 8.0254995e-07 1.8815018e-06 2.309825e-06
000070 00 00 00 00 53 b1 95 34 a1 0c 1d 36 61 74 16 32
       0.0 2.7882433e-07 2.3402174e-06 8.757611e-09
000080 ff 6d 86 31 b8 10 0c 34 b0 f3 b8 34 e8 0b 3f 35
       3.9124184e-09 1.3044598e-07 3.4449977e-07 7.117037e-07
000090 91 3c aa 31 1c 44 a7 30 63 52 c9 32 21 55 10 34
       4.954537e-09 1.2170207e-09 2.3436945e-08 1.3442015e-07
0000a0 7a 00 2a 36 4e 63 5e 36 d4 5a 72 36 96 83 81 36
       2.5332251e-06 3.313838e-06 3.611368e-06 3.859818e-06
0000b0 50 ec 48 36 f6 88 78 36 12 61 73 36 f7 95 6e 36
       2.9939874e-06 3.7034602e-06 3.6266324e-06 3.5552055e-06
0000c0 88 94 37 36 1c ef 2a 36 35 88 3a 36 de 41 7d 36
       2.7355582e-06 2.5471154e-06 2.7795443e-06 3.7738278e-06
0000d0 70 70 75 36 43 6f 56 36 9b 13 0a 36 c2 96 19 36
       3.6573292e-06 3.1953248e-06 2.0575014e-06 2.288653e-06
0000e0 86 63 3f 36 3b d6 61 36 4c 0e 56 36 f3 3f 69 36
       2.8519148e-06 3.3652311e-06 3.1896807e-06 3.475693e-06
0000f0 e2 8d 4d 36 a8 02 92 36 50 3b 50 36 bb cb 3c 36
       3.0629967e-06 4.3514483e-06 3.102894e-06 2.813277e-06
000100 a0 e1 07 37 0c 15 a5 36 5b a7 94 36 d3 02 0f 37
       8.0991595e-06 4.9198334e-06 4.4302265e-06 8.524122e-06
000110 c8 3d 40 36 52 c6 92 36 fd 0a fc 36 ca 9d 4e 36
       2.864619e-06 4.3742266e-06 7.5114644e-06 3.0788237e-06
000120 46 e6 86 36 79 f0 32 36 43 9a 42 36 01 c7 6e 36
       4.0203186e-06 2.666404e-06 2.8998045e-06 3.55806e-06
000130 17 8e 1f 36 e6 d4 5d 36 d3 32 8c 36 43 f5 c7 36
       2.3775553e-06 3.305549e-06 4.178242e-06 5.9592144e-06
000140 01 68 a6 35 db 40 81 36 3e 02 75 36 43 52 22 36
       1.2398233e-06 3.8520498e-06 3.650915e-06 2.4187764e-06
000150 72 cc d0 35 4a d2 39 36 5d 5c 3b 36 f8 45 83 36
       1.5556709e-06 2.7689553e-06 2.7918934e-06 3.9122497e-06
000160 e3 73 8f 35 38 77 77 36 1a 43 6f 36 fe 33 94 35
       1.0688058e-06 3.6875263e-06 3.5652834e-06 1.1041991e-06
000170 b2 65 a9 35 23 d4 c5 35 08 64 c3 35 f2 68 5f 35
       1.2621078e-06 1.4739384e-06 1.4557745e-06 8.322669e-07
000180 0f bd 16 35 a3 e8 50 35 3e 5a ac 34 6c ef 7d 36
       5.615447e-07 7.782457e-07 3.2103156e-07 3.78393e-06
000190 e4 8a 71 38 e0 6b b1 38 8a d9 6f 38 72 96 6f 38
       5.758823e-05 8.460111e-05 5.718464e-05 5.7122154e-05
0001a0 8d 54 33 39 42 8d b2 38 d8 c2 2a 39 0d ac 69 39
       0.00017102268 8.514013e-05 0.00016285048 0.00022284705
0001b0 54 b2 48 38 12 21 ea 38 03 2e 36 39 34 d0 82 38
       4.7849797e-05 0.00011164149 0.00017374013 6.237664e-05
0001c0 d6 39 92 38 9c 49 92 38 d6 2a 85 38 16 f6 7b 38
       6.972595e-05 6.975533e-05 6.349913e-05 6.007225e-05
0001d0 c6 5f 83 38 45 a5 91 38 65 5a 99 38 c7 18 fc 38
       6.264406e-05 6.944923e-05 7.312446e-05 0.000120209115
0001e0 44 be cc 37 71 88 f9 37 5c 43 9c 37 32 21 9e 37
       2.4407294e-05 2.9746649e-05 1.8628016e-05 1.8850526e-05
0001f0 11 0f 6b 38 c1 06 d5 37 2c 90 18 38 0e a3 71 38
       5.6042398e-05 2.5394724e-05 3.6373895e-05 5.7610734e-05
000200 9c 2d a2 37 fd ee ef 37 85 d8 79 38 f3 c1 b2 37
       1.9333143e-05 2.8602308e-05 5.9567876e-05 2.1309568e-05
000210 f4 2d b6 37 83 63 d1 37 00 b0 c9 37 00 3e b7 37
       2.171749e-05 2.496108e-05 2.4043024e-05 2.1844171e-05
000220 c7 0b 97 37 a7 62 b9 37 d9 ea bb 37 10 28 28 38
       1.8006087e-05 2.2099657e-05 2.2401497e-05 4.0091632e-05
000230 d5 5e 03 37 a3 46 4d 37 fe f5 12 37 76 34 20 37
       7.830288e-06 1.2235399e-05 8.759553e-06 9.548958e-06
000240 f7 50 91 37 29 86 8d 37 1c a7 73 37 77 47 f4 37
       1.732305e-05 1.6870983e-05 1.4522837e-05 2.9120345e-05
000250 98 52 ca 36 a7 70 82 37 ad 22 ae 37 f0 54 03 37
       6.0296843e-06 1.5549665e-05 2.0758564e-05 7.8279845e-06
000260 45 c1 23 37 33 e6 00 37 79 9a 03 37 03 45 19 37
       9.760556e-06 7.682992e-06 7.844174e-06 9.135579e-06
000270 c7 ed 14 37 b9 26 25 37 bd 2b 43 37 3f e9 5b 37
       8.876849e-06 9.843782e-06 1.1633089e-05 1.3107724e-05
000280 70 7b bc 35 ec 3f ae 35 27 f1 62 35 04 7a d4 35
       1.4043017e-06 1.2982614e-06 8.4542484e-07 1.5830742e-06
000290 22 a4 68 36 f3 e1 1a 36 97 92 eb 35 b1 f0 78 36
       3.4666232e-06 2.3079308e-06 1.7551528e-06 3.709498e-06
0002a0 e0 7b 3a 35 8d 96 fd 35 52 44 43 36 9d 02 a6 35
       6.947066e-07 1.8893785e-06 2.9097032e-06 1.2368724e-06
0002b0 58 34 1d 36 a9 18 cf 35 8b 30 d2 35 bc 92 db 35
       2.3425291e-06 1.5429879e-06 1.5660347e-06 1.6359477e-06
0002c0 0e 44 b3 35 ce 76 fd 35 b2 2c 9c 35 43 08 fc 35
       1.3356346e-06 1.8884546e-06 1.1635914e-06 1.8777868e-06
0002d0 c9 f3 ed 35 9a ed 0a 36 d5 82 cc 35 00 6e c1 35
       1.7728827e-06 2.0701905e-06 1.5237262e-06 1.4411635e-06
0002e0 68 42 80 36 b8 63 4a 36 07 09 65 36 dc bd aa 36
       3.822428e-06 3.015839e-06 3.4128914e-06 5.0884973e-06
0002f0 de ec a2 35 a8 25 6b 36 fe 84 92 36 88 78 02 36
       1.2138878e-06 3.5039648e-06 4.3666214e-06 1.9441668e-06
000300 f1 2f ed 35 02 7f 16 36 88 ed c0 35 bd ac e3 35
       1.7671829e-06 2.242567e-06 1.4374245e-06 1.6963091e-06
000310 71 cf 36 36 72 69 f1 35 78 3c f5 35 11 e0 5a 36
       2.724086e-06 1.7986588e-06 1.8271521e-06 3.2614955e-06
000320 51 3a a6 36 10 fc 83 36 ca 9c 9e 36 79 17 8b 36
       4.9539744e-06 3.933448e-06 4.7270196e-06 4.1452554e-06
000330 8c 22 65 37 6b 21 84 36 0b 53 1b 37 ec 2e 5f 37
       1.3657507e-05 3.937797e-06 9.258055e-06 1.3302761e-05
000340 d3 35 8c 36 78 a7 ef 36 18 13 55 37 5c dd 89 36
       4.178591e-06 7.142251e-06 1.2700235e-05 4.108688e-06
000350 da 5f aa 36 c5 70 b3 36 08 65 af 36 72 d5 a9 36
       5.0775534e-06 5.347744e-06 5.227168e-06 5.061441e-06
000360 37 38 9f 36 ae de bc 36 3d c2 a8 36 c4 c4 2f 37
       4.7451135e-06 5.62876e-06 5.0294025e-06 1.0476626e-05
000370 64 a0 04 34 b6 49 77 35 b8 8e 17 35 0a 9b 19 34
       1.2351808e-07 9.2121934e-07 5.6459567e-07 1.4305638e-07
000380 90 3a 34 36 58 8f bb 35 dc 32 fd 35 a0 64 6e 36
       2.6856178e-06 1.3974304e-06 1.8864771e-06 3.5523335e-06
000390 bb 02 a0 33 75 a4 ba 35 9c 7d 3d 36 0a cd 81 34
       7.451077e-08 1.3905943e-06 2.823631e-06 2.4177308e-07
0003a0 5e 32 41 35 cf b3 05 35 53 af 29 34 14 00 87 34
       7.1971397e-07 4.9808017e-07 1.5803134e-07 2.5145766e-07
0003b0 64 38 09 35 37 bb 46 34 98 76 aa 35 a2 fd b8 35
       5.1118536e-07 1.8508295e-07 1.2700502e-06 1.3782885e-06
0003c0 a9 21 e9 35 9f f2 ec 35 ab 3f fc 35 1f 9a e3 35
       1.7369649e-06 1.7653982e-06 1.8793993e-06 1.6957673e-06
0003d0 ef ef d6 35 3f ac dd 35 aa ec dd 35 12 2d 3f 36
       1.6014072e-06 1.6515913e-06 1.6534661e-06 2.8487452e-06
0003e0 30 f1 af 35 77 17 11 36 07 bc 21 36 6d 9a ac 35
       1.3108711e-06 2.1620342e-06 2.4100316e-06 1.2859942e-06
0003f0 e4 8e d1 35 a0 13 d4 35 dd bb d5 35 6c af f6 35
       1.56133e-06 1.5800942e-06 1.5924412e-06 1.8379483e-06

exp_avg f4 [64]
000000 16 65 b8 37 71 6a 7e 38 c1 b5 84 b8 0e b5 08 39
       2.1981581e-05 6.065745e-05 -6.328105e-05 0.00013037419
000010 ee 57 6a b7 c5 28 0d ba 4b b8 3b 39 78 64 7f b9
       -1.396796e-05 -0.0005384798 0.00017902364 -0.00024356123
000020 b6 b2 21 b9 09 5f 1f b8 8d 6d 75 b8 d5 f8 b3 38
       -0.00015420732 -3.7997062e-05 -5.851458e-05 8.581734e-05
000030 2c 38 2c 38 80 3c 80 b9 6c 7a fd 38 89 d9 b7 b8
       4.106031e-05 -0.00024459139 0.00012086783 -8.766639e-05
000040 99 4c 08 39 66 f2 19 b9 35 b6 f2 37 1a e1 15 39
       0.00012998506 -0.00014681517 2.8933495e-05 0.00014293604
000050 b8 c3 b3 b8 9e 5a dc b7 e4 1d f2 b8 65 e7 35 38
       -8.5718406e-05 -2.626824e-05 -0.00011545027 4.3369266e-05
000060 bd fa 63 38 0c bd dd 37 23 fd 69 b9 f7 ab 9c b7
       5.4354536e-05 2.6433285e-05 -0.00022314912 -1.8676727e-05
000070 5a ad 1f 39 7e ca 78 b8 42 10 b1 37 71 79 e0 b9
       0.00015228 -5.9316393e-05 2.1107615e-05 -0.0004281509
000080 39 cc 8e b9 d4 18 4d b7 15 48 c4 b6 e7 b6 5e 39
       -0.00027236508 -1.2224733e-05 -5.8496466e-06 0.00021239706
000090 f0 27 f4 b7 7a 80 cb 38 f3 6b 58 39 43 7d d2 b7
       -2.9105664e-05 9.703725e-05 0.0002063958 -2.509228e-05
0000a0 19 d1 b2 38 37 f8 ce b9 6f 3a 8a b7 33 45 2b 39
       8.526649e-05 -0.00039476316 -1.6478092e-05 0.0001633361
0000b0 c8 48 94 b9 bd c5 e2 b8 d7 23 02 39 c5 17 85 39
       -0.00028282986 -0.000108133514 0.00012411117 0.00025385446
0000c0 1e ca 92 b9 5b 8a 57 b9 be b3 c7 b6 0e 15 ec 38
       -0.0002799788 -0.00020555539 -5.951587e-06 0.00011257279
0000d0 fd 2e 45 b9 a7 86 2c 39 4e f0 31 b9 c2 1c 8b 38
       -0.00018804889 0.0001645336 -0.00016969556 6.633393e-05
0000e0 1f 02 14 b9 6a 6e b6 b8 fe 40 63 b8 90 67 14 b6
       -0.0001411517 -8.6990025e-05 -5.4181546e-05 -2.2114e-06
0000f0 f0 ec 0c 39 55 d5 da b8 f9 f4 49 b8 3e d4 29 b8
       0.00013439707 -0.00010434786 -4.8150283e-05 -4.0490406e-05
