published_data/SGO aerobic (TL)/final_models/bag_model_13.pkl (torch, 324839 bytes, 21 tensors)

weight f4 [64, 20]
00000000: 36c2 14bc cc45 5bbd 4f96 bbbd bea5 57bd
00000010: 7e74 3a3e 8bdb d43b 7251 f8bd fec5 423e
00000020: 5b8e 0e3d ab5e f53d fd44 ee3d 735b 3dbe
00000030: dbc9 663a ae88 83bc e20f 48be 7643 093e
00000040: 35a2 39be 234d 283e ce8a 3a3e 7028 023e
00000050: 9bb6 44be d5aa 4d3e ed24 4abd ba63 ddbd
00000060: a6ab dfbb 3cef ad3d 9f9a 5d3e b3c6 023e
00000070: b024 49bd d656 503c 9c5b c43c f8c5 733d
00000080: 848e 16be 1123 543e 8bc5 9939 5170 793e
00000090: bdc5 203e 5167 0ebe c510 9d3d 5023 153e
000000a0: 7db3 143e 7d76 0d3d 9a1d 0c3d 32ee 23be
000000b0: db08 cdbd 9137 3a3e 599b 7f3e 5cf1 05bd
000000c0: 73e9 f3bd 01ad f43d 12e1 493e dbf3 813d
000000d0: 7cf9 20be 8c35 743d ef2f 363e fdfc a8bb
000000e0: 8bea ce3c e43e 073d af0a 533e 9a84 703e
000000f0: 504b 38be a928 8abd ae53 ccbb b61e f5bd
00000100: 7bab 8fbd 5503 773e b00f d0bd b615 4d3e
00000110: cb08 35be a960 cbbc cb20 23be b2a7 483d
00000120: 7395 2cbe 9805 cbbd e886 923d 9c6a 2d3e
00000130: 4c9d a43d b509 843e 6c36 5d3e ffe1 3a3e
00000140: 0445 1dbe ad0f 1a3e 06ac 01be f159 5cbe
00000150: eb88 80be b480 ecbd 7954 ae3d 9ebb bcbd
00000160: 15b0 283d d208 b5b8 eb5c af3d 3100 a9bd
00000170: a4f1 de3c d0f2 04be 5ddf 173e 90b6 84bd
00000180: 9ba1 0ebc 3b4b 723e 4b91 06be f8ee 80bc
00000190: e5ff 323e 537c 9a3e e60f fd3d 75d3 373e
000001a0: 6010 1bbe 0e79 0f3e 82df 40bd e42f 153e
000001b0: 4109 4bbe 7730 b2bd 0b46 cc3c 46d2 dabd
000001c0: c5ff fc3c fc83 73be e366 23bd 952f 1fbe
000001d0: 5673 563c 28f3 fabd 35db 24bd 5ab8 eb3d
000001e0: f6b5 69bd a1d9 163e 388d 483d 467e 0f3e
000001f0: d93c fd3d 452c 79bc 6b1f ff3c e778 533e
00000200: 5ff2 b03c 6434 1f3e e189 373e a739 cabd
00000210: b33c acbd 6e43 0cbe 579e f63d ea2f 1dbd
00000220: c939 5d3d 5aed c2bd b6e3 c7bd 6db7 0abe
00000230: 60ea 15bd ae07 203d f9d8 b7bd 3357 143e
00000240: 3224 52be d211 0b3d 7e32 c73d e35d 25be
00000250: 812b 023e 4af7 143e 9200 32be f150 b73d
00000260: 2eae 07be 952d b0be 2902 fb3c 9cbf 853d
00000270: 4c1d 2a3e 9d70 70be 572b 493d 9e35 4d3e
00000280: 4ad1 61be aea8 793e 0947 a83b dc34 0a3e
00000290: 6b39 223e 596b 5fbd a5a5 09be 185b b2bc
000002a0: e0b2 d83d e050 7cbd 2de8 943e e340 26bd
000002b0: 786b 043e 53fe 27be 73f5 303e 22bc bebe
000002c0: 5103 db3d c835 12be c947 95bd bedb ce3a
000002d0: 3742 16bd 4d6d f93d b60f 63bd aa5c 4f3e
000002e0: 1c8a d3bd ee5f 8fbd 9103 4b3e d079 28be
000002f0: 7eb5 533e e37f 153e 8496 903d 8192 09bd
00000300: 0063 1abe 8262 7c3e ad36 6a3e 8495 a03d
00000310: 17bd 0fbb 1d55 c2bd 772c bbbd a2bb 53bd
00000320: 6d12 93bd 69c4 7abc 574e efbc 91d0 d1bd
00000330: 4433 c0bd af44 463e 08c0 93bd 57e9 7f3e
00000340: fa8b 003e 4dfe 06be bebe 70be b155 8d3d
00000350: b0c0 d2bb 0e9b ee3d f055 dcbd 9e94 44bd
00000360: c13f 3dbe 913a c3bc 4b4b 383e a74a 6fbd
00000370: ea67 4d3e 6464 873e ce5a 52bd 2a53 ef3d
00000380: 47bd d93b 011b d9bd fbd5 97bd f4cb 263e
00000390: 8a9a 51bd 7b06 ef3c 4777 68be 1741 e6bd
000003a0: 6d1c 2c3e b0b6 2b3c d72b 01be 3ea7 3f3e
000003b0: 00a7 093e 2399 1ebd 5d13 2fbe 2362 89be
000003c0: ec0a 4b3d d672 0fbe d7af 1fbe 13bc ccbd
000003d0: f61f 86bd e925 a4bd 491e a0bd ea30 253e
000003e0: ad5b 18bd aee7 303d 530a 7a3e 3dd2 723e
000003f0: 698a 6a3e 77ed 7b3d 4bb5 813d acd4 803d
-0.009079507 -0.05353336 -0.091595285 -0.0526483 0.182085 0.006495898 -0.121249095 0.1902084
0.03480373 0.11980947 0.11634252 -0.18491916 0.00088038825 -0.016056385 -0.19537309 0.1340464
-0.18128283 0.16435675 0.18217012 0.12710738 -0.19210283 0.20084698 -0.04935162 -0.10810037
-0.006825882 0.08492896 0.21641015 0.1277111 -0.049107254 0.012716016 0.023969464 0.05951497
-0.14702803 0.20716502 0.00029329615 0.24359252 0.15700431 -0.139066 0.07669214 0.14564252
0.14521594 0.034536827 0.034207918 -0.16008833 -0.10011455 0.1818526 0.24961604 -0.03270088
-0.11909761 0.119470604 0.19714764 0.0634534 -0.1572017 0.05962138 0.17791723 -0.0051571117
0.025258323 0.03301896 0.20609544 0.23488083 -0.1799748 -0.067460366 -0.0062355613 -0.11968748
-0.07015129 0.24122365 -0.10159242 0.20027813 -0.17679136 -0.024826365 -0.15930478 0.04898805
-0.16853885 -0.09913176 0.071546376 0.169352 0.080378145 0.25788656 0.21602792 0.18250273
-0.15358359 0.15045042 -0.12663278 -0.21518685 -0.2510446 -0.11547986 0.08512206 -0.09215473
0.04118355 -8.6323955e-05 0.085626446 -0.0825199 0.027214833 -0.1298325 0.148313 -0.064801335
-0.008705522 0.2366151 -0.13141362 -0.01573895 0.17480429 0.30172977 0.12356548 0.17951758
-0.15142965 0.14011022 -0.047088154 0.1456905 -0.19827749 -0.0870065 0.024935743 -0.10684638
0.03088368 -0.23780817 -0.039893042 -0.15545495 0.013089022 -0.122534096 -0.040248115 0.11509772
-0.057058297 0.14731456 0.0489628 0.14013013 0.123651214 -0.015208309 0.031142911 0.2065159
0.021599947 0.15547329 0.1792369 -0.098742776 -0.08410015 -0.13697597 0.1204192 -0.038375773
0.054010186 -0.095179275 -0.09760229 -0.13546534 -0.03660047 0.039069824 -0.08976931 0.14486389
-0.2052162 0.03395254 0.097264275 -0.16149096 0.12711908 0.14547458 -0.1738303 0.08950985
-0.13250038 -0.34409776 0.030640678 0.06530687 0.16612738 -0.23480459 0.049113598 0.20039985
-0.22052494 0.24380752 0.005135421 0.13496727 0.15842216 -0.054545734 -0.13442095 -0.021771953
0.10580993 -0.061600566 0.29083386 -0.040589225 0.12931621 -0.1640561 0.17281131 -0.3725291
0.10693992 -0.14278328 -0.072890826 0.0015782041 -0.03668424 0.121790506 -0.055434905 0.20250192
-0.10329077 -0.07000719 0.19825579 -0.16452718 0.20674703 0.14599566 0.070599586 -0.033586983
-0.15076828 0.24646953 0.2287242 0.07841018 -0.0021932775 -0.0948889 -0.0913934 -0.051692612
-0.07181249 -0.015305617 -0.02921216 -0.10244859 -0.09384778 0.19362138 -0.072143614 0.24991356
0.12553397 -0.13182946 -0.23510262 0.0690111 -0.0064316615 0.11650668 -0.10758579 -0.047993295
-0.18481351 -0.023831638 0.17997472 -0.058420803 0.20059171 0.2644378 -0.05135613 0.11685784
0.006644878 -0.10600854 -0.074138604 0.1628874 -0.05117277 0.029177895 -0.2270175 -0.11242884
0.16807719 0.010480568 -0.1261438 0.18716142 0.13442612 -0.03872026 -0.1709723 -0.26832685
0.049570963 -0.1400865 -0.15594421 -0.0999681 -0.06549065 -0.08015043 -0.078182764 0.1613194
-0.037196804 0.043189697 0.24418001 0.23713012 0.22904362 0.06150576 0.06333407 0.06290564

bias f4 [64]
00000000: 746c 8b3d eb75 6cbe 3c5f 61be 5280 37be
00000010: 8761 053e 5bd3 c53c 5dbf 1f3e d3e1 c43d
00000020: 59c2 3a3d be29 243e 15bf 723e e1cb 223e
00000030: dde9 a8bd f458 723e 5e28 a9bd 1d0a d2bd
00000040: afcc 55bc 542c fb3d 8810 b3bd 8a9d 6c3e
00000050: 9f66 383d deeb 443e fb81 963d d371 293e
00000060: 53a1 663e 0a4e 3c3e 4c60 073e a789 24be
00000070: 8e16 d3bb 6de9 ce3d 8505 123e 9f44 da3d
00000080: 4ac0 1b3e 4663 6ebc dd7b 36be da33 8abe
00000090: 6691 28bd 033d e1bd f973 1f3e c28d 1f3d
000000a0: faf9 29be fe80 303b cc47 683d 7a35 abbd
000000b0: 296b 58bd c0fb ef3d 9c12 143d 94f6 dfbd
000000c0: 4da9 433d 5009 07be 90ba bebd 13c7 e13d
000000d0: 1114 0ebe f757 463e a871 1e3d 1b6f 603d
000000e0: ded3 2e3c b01f 6a3b 15f8 99bd f86a f5bd
000000f0: a4de adbd fd64 483e 3ea9 12be 966e c5bd
0.06807795 -0.23091857 -0.22008985 -0.17920044 0.13025485 0.024148634 0.15600343 0.09613385
0.0455955 0.16031548 0.23705705 0.15898086 -0.08247731 0.23666745 -0.082596526 -0.10255835
-0.013049289 0.12264314 -0.087433875 0.23106971 0.045019742 0.19230601 0.073490106 0.16547327
0.22522478 0.18389145 0.13220328 -0.16068135 -0.0064418977 0.10103116 0.14259918 0.1065762
0.15210071 -0.014550036 -0.17820688 -0.26992685 -0.041154288 -0.10997965 0.15571584 0.03895355
-0.16599265 0.0026932354 0.056709096 -0.08359809 -0.05283657 0.117179394 0.03615056 -0.10935703
0.04776888 -0.13187146 -0.09312928 0.110242985 -0.13874842 0.19369493 0.03868261 0.05479346
0.01067063 0.0035724454 -0.07518021 -0.11983293 -0.08489731 0.19569774 -0.14322373 -0.09640233

weight f4 [256, 64]
00000000: d8b9 00be 5bf9 163c 372c e8bd ce0c 6ebe
00000010: 9f74 c3bb 26a0 04bd 5b56 10bc b647 58bc
00000020: c988 003e 29cb ba3d 6e5e c2bd de53 f73d
00000030: 6c50 c9bd fa4c dbbd 9780 fe3c 4639 17bd
00000040: a8c7 673d 3df6 39bd 4d12 0cbe b9ca 86bc
00000050: 86b8 babd 22d4 5e3a cb15 e43c 7362 0a3c
00000060: c202 18be ae3d 4fbe b9c7 193e 4594 17be
00000070: 8015 0e3e 597b 4bbe 0cd3 e23c a9b6 95bd
00000080: 42d6 2f3d f149 b63d b6cb 923d 67f8 06bd
00000090: b1fb c83d 3754 71bd da62 57be 252a 01be
000000a0: 1b8f 73bb 565b a4bd eb67 66bd 33c0 d6bd
000000b0: 2d19 133d 9ef0 14be e0b8 bd3c 427b 583d
000000c0: 28d5 5dbe bcd4 fc3d 28bd 8bbd f159 0dbe
000000d0: 91a8 f83d 587d 333d 1540 9b3d 21dc 603d
000000e0: 1d95 bb3d 6958 89bd e6a1 423e e9fe 903c
000000f0: f980 473d dfbf 2c3d 101e 143e d10f 23be
00000100: e713 3dbc 44c0 f23d ce2d d1bd 533d 2cbe
00000110: df65 5cbb 2fa1 a53d 81c3 9cbb 0abf 043e
00000120: 0543 f53d 11c3 163d 9b24 32bb ce10 abbc
00000130: a4bc b63d 8d13 cb3b d946 983d 4f51 a7bd
00000140: db72 0e3e a034 dabd d2e8 b0bc c734 64bd
00000150: 7df7 b43b 42d8 dd3d 6bc7 433e 9c81 903d
00000160: b66a f7bb 5bcd 26bc 8e3e 6dbc 55e7 6e3d
00000170: 660b fb3d 7f72 81bd 5cb6 003b 0882 893d
00000180: 8d15 b2bd 4ebe 58bd 4142 bdbd 384d c43d
00000190: 2f5e 983c 77c2 203e 0ed5 cd3d 1b5a 2ebd
000001a0: bf9b eb3d 9913 70bd a970 fa3d 9a33 dc3c
000001b0: c94d a33c 7dd5 e73d 1320 6a3d 4542 af3c
000001c0: b198 2dbe 1c24 02bc b14f 50be 8dc8 43bd
000001d0: 1626 d93d ae0d 89bd 21c9 edbd c05a b63d
000001e0: f60e f23d 5efd 913d 81c0 06be ae81 e23d
000001f0: e44f 89bd 70fc 0b3d 6814 c1bc 2d0a e33d
00000200: f0c9 03be c4df f2bd 4636 793d 6042 913d
00000210: acd2 e9bd a55a 9cbd ffc7 33bb 84bb 4dbd
00000220: 1605 c9bd d2f7 173d d74c 343d 267e 683d
00000230: 189c 36bd 60a6 04bc 3bd9 00bd 9c86 2ebd
00000240: d5c1 f7bd 18ba 923c 8125 a93c 9e0e f0bd
00000250: 2141 823d 00f3 8abb 7549 2d3c 589d 27bd
00000260: 8fb6 483c 67e4 b1bd 9079 853d 403c a33c
00000270: 2802 94bc 800e 383d 0457 ecbd 4f04 783d
00000280: f768 07be 1116 763c ea08 75bd 0586 b4bc
00000290: 868b 483d 8b57 04be 58e4 ff3c c851 b1bd
000002a0: 5c08 81bd c1d2 cf3c 228f 2fbd 0e22 01be
000002b0: b4f9 653d 48b6 c7bc 5c1e d8bd f60c 083c
000002c0: c684 263d acf9 9d3d 7e1f 073d 0c70 28bc
000002d0: 6361 95bd 7dcc c1bd df96 fabc c8c1 c5bc
000002e0: f47a 8ebd bcf7 ebbc 80b0 723b 96d5 acbd
000002f0: 4845 cfbd ccc1 d8bd 1066 733d 8020 c53b
00000300: 3098 d33d 1a8b c9bc 272c b93d 91ae a83d
00000310: bdb7 30bd 2a13 ecbd d846 8a3d 6c15 033c
00000320: 50bd 55be 3c1a ab3d d5f3 c83d cbbc d9bd
00000330: 4e3c 893d 74f9 8bbb 2d81 6f3d 0f67 ce3d
00000340: 2b36 f83d 8a50 403d 4a36 fa3d 6079 06be
00000350: d194 8b3d ec0c 7cbd 5c72 303d 7164 e7bd
00000360: 0fb6 aa3a 35a6 923d 3b78 efbd 1012 213d
00000370: 46a9 4f3d 0c6b 2abd d901 023e c367 c03d
00000380: ffe4 27be aa78 04bd 49b5 003e acad 053d
00000390: 20fb c53d 109b ddbc c9d9 5dbd f5ff 6dbe
000003a0: d189 8dbd 72d8 903c fd40 07bd 1ad5 803c
000003b0: 28e9 ffbd d04d 9c3d cf9f 40bd 4250 d93d
000003c0: bce2 38be 1ba6 0bbe 2587 483d 61c1 773d
000003d0: b9d6 2e3d 0329 293d cb34 c3bb 126d 92bd
000003e0: b2db ecbd fb0a f83c 1641 46be 88d7 69bd
000003f0: 69f0 e0b9 1ba6 55be dbf3 57bd 6284 dcbd
-0.12570894 0.009214724 -0.11336558 -0.23247072 -0.00596483 -0.032379292 -0.008809651 -0.013200691
0.1255218 0.09120781 -0.09490667 0.12076543 -0.098297924 -0.107080415 0.031067176 -0.036919855
0.05658689 -0.045400847 -0.13678856 -0.016454088 -0.09117226 0.0008500238 0.027842423 0.008446324
-0.14844802 -0.20238373 0.15017594 -0.14802654 0.13875389 -0.19871272 0.027688526 -0.0731023
0.04292894 0.08900822 0.07167761 -0.03295174 0.09813631 -0.058918204 -0.21033803 -0.12613733
-0.0037164155 -0.080252334 -0.056251448 -0.10485878 0.03591268 -0.14544913 0.023159444 0.052851923
-0.21663344 0.12345263 -0.06823188 -0.13803841 0.121415265 0.04382071 0.07580582 0.05489743
0.091593005 -0.06706316 0.19007072 0.017699676 0.048706982 0.04217517 0.14464593 -0.15924002
-0.01154039 0.11853078 -0.10213815 -0.16820268 -0.0033630056 0.08087384 -0.004784048 0.129635
0.119756736 0.036807124 -0.0027182463 -0.020882037 0.08922699 0.006197399 0.07435388 -0.08169805
0.13911001 -0.10654569 -0.021595392 -0.055714395 0.005522667 0.108322635 0.1911904 0.07055971
-0.0075505627 -0.0101807965 -0.014480246 0.058326084 0.122580335 -0.063206665 0.0019639945 0.067142546
-0.08695517 -0.052915864 -0.092411526 0.09585041 0.018599598 0.15699182 0.100504026 -0.0425664
0.115043156 -0.05861244 0.122285195 0.026880074 0.019934552 0.113200165 0.057159495 0.021393904
-0.16952778 -0.007943179 -0.203429 -0.047798682 0.106029674 -0.06692062 -0.11610628 0.08904028
0.1181926 0.07128404 -0.13159372 0.11059891 -0.06704691 0.03417629 -0.0235693 0.11085925
-0.12870002 -0.11859086 0.060842775 0.07092738 -0.114171356 -0.076344766 -0.002743244 -0.050227657
-0.09815423 0.037101574 0.044018593 0.05676093 -0.044582456 -0.0080963075 -0.031457167 -0.042608842
-0.120975174 0.017911002 0.020647766 -0.11721538 0.063600786 -0.0042403936 0.010576596 -0.04092154
0.012250557 -0.086861424 0.06517327 0.01992619 -0.018067434 0.044935703 -0.115400344 0.060550984
-0.13223635 0.0150199095 -0.059822954 -0.022036562 0.048961185 -0.1292402 0.031236812 -0.08658177
-0.063004225 0.02536905 -0.04286111 -0.12610647 0.05614634 -0.02437891 -0.105526656 0.008303871
0.040653966 0.07713637 0.032989018 -0.01028062 -0.07293966 -0.09462831 -0.030589519 -0.024140254
-0.06957045 -0.028804652 0.0037031472 -0.08439176 -0.10120636 -0.10583839 0.059423506 0.006015837
0.10331762 -0.024602462 0.090416245 0.08236421 -0.043143976 -0.11527093 0.067517936 0.008000713
-0.20872998 0.08354613 0.09812132 -0.106317125 0.06700955 -0.0042716805 0.0584728 0.100782506
0.12119707 0.046951808 0.12217386 -0.13132238 0.06815494 -0.06153576 0.04307781 -0.112984546
0.0013024228 0.07160608 -0.11692854 0.039323866 0.05069854 -0.041605994 0.12696017 0.09394791
-0.16395949 -0.032341637 0.12569155 0.03263633 0.09667039 -0.027051479 -0.054162774 -0.23242171
-0.06911052 0.017681334 -0.033020962 0.015726615 -0.12495643 0.07632029 -0.047027405 0.10611011
-0.18055242 -0.13637583 0.04895701 0.060487155 0.042685244 0.041298877 -0.005957221 -0.0714971
-0.11565341 0.030278673 -0.19360766 -0.057090312 -0.0004290373 -0.20864145 -0.052722793 -0.107674375

bias f4 [256]
00000000: 09a0 663d 3f6b 7fbd e015 a8bd e492 00be
00000010: 5057 893d 631d a9bd a19d e1bd d9be 9f3d
00000020: 2b80 0cbd 83ad bc3d 0738 973c 454b 103d
00000030: 913e 823d b54d 23bc 8d66 003e c8bb 82bd
00000040: 4bf8 2b3c 9dfb 523d 09d3 0e3d 0b1a 003e
00000050: 4e58 b7bd b759 b73d 80a5 95bd ef8a c63c
00000060: dabb 41bd 49f1 a73d c30a e4bd 2416 ef3d
00000070: 8fab 813d 2e69 1bbd 5ec2 eabd 96a7 aabd
00000080: 2009 103b e5fc fb3a d966 9b3d a8b7 523d
00000090: 31ad b53d ac60 8d3d 00bd ef3d 046e cfbd
000000a0: 6f56 73bd 4505 4f3d 4e32 62bd 6cfb 393c
000000b0: 0f83 c43d 4ff0 b53c f2e4 2dbd a114 5cbd
000000c0: 3b13 2a3d e35b 38bd 82ba 533d 6a81 883d
000000d0: d7e6 9dbc 4314 4abc 988c fc3c 7be5 42bd
000000e0: 08bf 063e bd03 ddbc e6e4 9c3d 8a4a 343d
000000f0: 4316 843d 2e0d d5ba f0fe b63d 279b 6db9
00000100: b4d1 a2bd 2230 8dbd 9300 c43d a5b0 20bd
00000110: 43fa 163d 62d4 10be b910 ecbd a57f b8bc
00000120: 492e a33d 3927 633d b2c8 bf3d bcc4 f63d
00000130: 4c49 9abd c51b 4cbd 71a4 503c f36f a43d
00000140: 6083 6e3d 0bfb 203b b6c8 93bd 74e6 bb3c
00000150: 9981 113e f378 ba3d 702a e9bd 037b 6cbd
00000160: 96be bebd 9bb5 e83d fa2f f9bd 0bdc 14be
00000170: 1bc9 5abc de0a 693c 13dc 213e b7b6 903b
00000180: 7ccc e9ba 3919 ab3d ecee a13d adc2 74bd
00000190: f7c9 9cbd f3f1 a0bb f3c1 0dbd e4d0 863d
000001a0: 31c6 c93d 54fb b23d 9aaf e53c 26ef 8cbd
000001b0: 03a4 a43d 3bf7 033e 6614 c3bd 8756 b33d
000001c0: 5713 453d e0b1 a43d 4fc4 003e 0a0a 41bd
000001d0: 67e2 c5bc ddb0 dd3c fe5e e63d 6f76 cbbd
000001e0: 979f e6bd 4ad5 d1bc 5579 153d 3cc7 7fbd
000001f0: c753 dbbd b42c 95bd b4a1 8e3d 59f1 fabc
00000200: f309 cdbd b244 a13b 617d cb3d faf9 663d
00000210: 3167 60bd 57a7 ef3d 9d54 09bc 1df0 1b3c
00000220: 92f8 ba3d 2ce3 d33b 71ae 27bd 12e7 993d
00000230: c33e 0e3d 4495 aa3d 944c df3d 17d4 0fbe
00000240: 3894 c03b ba08 79bd fc41 d3bd 2e70 b83d
00000250: a97b e9bc 0596 cfbd 777d c8bd 5a18 253c
00000260: 42f3 8ebd 28f3 d53d b76b a83c cf94 033e
00000270: ab8a 083c 18ac 18be 2531 a2bd 20c5 a0bd
00000280: 99d7 80bd fedc 3c3d 5635 6dbd f445 9f3d
00000290: 7204 eebd 0d96 7fbd f701 8cbd b7c4 b63d
000002a0: c784 c9bd ca99 41bc ef0b c2bd 0399 d33d
000002b0: 9a4e d6bc 2f9c 973c 13fd ac3d bb2f f13c
000002c0: 07aa eb3c 687a 3fbd 3f31 873d 57a8 c73d
000002d0: 7753 973d 315c cf3d a29f 2abc ad6f fbbd
000002e0: 6001 203d 0282 d2bd ccea 053e e2fc e13d
000002f0: f8e6 00be dcdc f4bd 337b 733d 1872 243e
00000300: b765 9a3d c7b0 f73c bb38 4fbb a646 d03d
00000310: c569 b53c c076 013e efdd c03d 868d 49bd
00000320: 23c6 e33d be9a 6bbc ae92 dabd 6354 28bd
00000330: 8571 d5bb 8c3b 643d e64e f1bd a480 6fbc
00000340: 80ab 44bb 32ec c13b b4bc 3ebd e266 ec3d
00000350: f056 c9bd 1cac 09be 9220 bf3d ce38 633d
00000360: dd10 943d 0dd2 1abc 5574 7a3b a6be 033d
00000370: b18b a8bd c073 08be 3ed8 0b3d 8492 dd3d
00000380: cbb1 98bd 9187 743d 1780 f2bd 8f3b c03d
00000390: b620 16be a4b5 f6bc 870f 86bd 275f 2d3c
000003a0: 832a d93d 25cb fd3d 1d8a a4bd e23b c2bc
000003b0: 9ea7 1abe b93d 573d e2b8 87bc 84e4 7dbd
000003c0: 6220 a7bd 1bd0 8d3c 56ba 36bd 3012 f6ba
000003d0: 78fd b23d 9b75 a6bd b84a c5bd 96b0 89bd
000003e0: eb1d 51bc 6b54 5d3d 29cf c1bc 68fa de3d
000003f0: 2866 753c 30e0 073e 0888 153e 8975 c0bb
0.056304965 -0.062358137 -0.08207297 -0.12556034 0.06706107 -0.08257558 -0.110163935 0.07800073
-0.034301918 0.09212782 0.018459333 0.035228033 0.0635959 -0.009967257 0.1253912 -0.06383473
0.010496209 0.05150949 0.034869228 0.12509935 -0.0895239 0.089526586 -0.07306957 0.02423617
-0.04729829 0.08200318 -0.11134865 0.11674145 0.0633155 -0.037942104 -0.11462854 -0.08332746
0.0021978095 0.0019225149 0.07587976 0.05144468 0.08870924 0.06903204 0.11705971 -0.10128406
-0.0594086 0.050542135 -0.055223756 0.011351448 0.0959531 0.022209315 -0.042454667 -0.05373061
0.041522246 -0.045009505 0.05169154 0.06665309 -0.019275112 -0.012333932 0.03082876 -0.04758213
0.1315881 -0.026979322 0.076608464 0.0440164 0.064495586 -0.0016254538 0.08935344 -0.0002265988
-0.07950154 -0.06893946 0.09570422 -0.03923096 0.036859762 -0.14143518 -0.11526627 -0.022521803
0.079678126 0.055457328 0.093644515 0.12049243 -0.075335115 -0.04983117 0.012734518 0.08029165
0.058230758 0.0024563696 -0.07216017 0.022937037 0.14209594 0.091051005 -0.113850474 -0.0577345
-0.09313695 0.113627635 -0.12167354 -0.14537065 -0.013353611 0.014223782 0.15806608 0.0044163126
-0.001783743 0.0835442 0.07906899 -0.05975597 -0.07655709 -0.004911655 -0.034608793 0.065828115
0.09852255 0.08739343 0.028037835 -0.068815514 0.08039095 0.1288728 -0.09525375 0.08756738
0.048114147 0.080417395 0.12574886 -0.047128715 -0.024155809 0.027061874 0.11248587 -0.09934699
-0.11260908 -0.0256144 0.036492664 -0.062445864 -0.10709339 -0.07283917 0.06964436 -0.030632662
-0.10011663 0.004921519 0.099360235 0.05639074 -0.05478591 0.117018394 -0.00838199 0.009517697
0.09129442 0.00646629 -0.040937845 0.07514776 0.034727823 0.083292514 0.10903278 -0.1404575
0.005877044 -0.060799338 -0.1031532 0.090057716 -0.028501349 -0.10136036 -0.097895555 0.010076607
-0.069799915 0.10446769 0.020559175 0.12849735 0.008333842 -0.14909399 -0.0791953 -0.078500986
-0.06291122 0.046109192 -0.057912193 0.077770144 -0.116219416 -0.06239896 -0.06836312 0.08924239
-0.098397784 -0.011816451 -0.094749324 0.10331919 -0.026160527 0.018507091 0.084467076 0.029441705
0.028767599 -0.046747595 0.0660119 0.09748905 0.073889665 0.10125006 -0.010414036 -0.1227716
0.03906381 -0.10278703 0.13077849 0.11034562 -0.12588108 -0.11956188 0.059443664 0.16059148
0.07538932 0.030235661 -0.0031619507 0.10169725 0.022145161 0.12642956 0.094173305 -0.049207233
0.11121776 -0.014380155 -0.10672508 -0.041096102 -0.0065137767 0.05572085 -0.11782627 -0.014618073
-0.0030009449 0.0059180493 -0.04656668 0.11543061 -0.09831035 -0.13444561 0.09332384 0.055474095
0.07229779 -0.009449494 0.0038216312 0.03216424 -0.08229769 -0.13325405 0.03414177 0.10818961
-0.07455786 0.0596996 -0.118408374 0.0938636 -0.14660916 -0.03011591 -0.0654593 0.010581768
0.106038116 0.12392262 -0.080341555 -0.023710195 -0.15103003 0.052549098 -0.016567651 -0.061985508
-0.081604734 0.017311146 -0.044611298 -0.0018773731 0.087397516 -0.081279 -0.09633392 -0.06723134
-0.012763481 0.054035585 -0.023658352 0.10887605 0.014977969 0.13269114 0.14602673 -0.0058733863

weight f4 [32, 256]
00000000: df5b 3e3e 65ea 8ebd af6e b63c aa43 903b
00000010: 81e7 e5bc 61a8 c3bd a057 7c3d 5c1b b4bd
00000020: ed7e 5e3d 4982 293d 835a 62be baf9 e2bd
00000030: b4b8 25be fbf5 d53c a41d c2bd e458 213e
00000040: 18bc 813d 6a77 ea3b 4a19 a1bd a5c5 96be
00000050: 20b7 5bbd a8fd 2fbd 34e6 613d 3d80 033e
00000060: 6372 44bd 6a36 04bc 50ab 7f3e 403e 5dbd
00000070: 6f9a 3abd b31b 99bd 6c58 663c 2812 ac3d
00000080: 4736 8d3d 23bf 7fbe 74fc d2bd 5c69 12be
00000090: 12fa 83bd cfe9 54bc 3428 2abe d8d7 ee3c
000000a0: 0580 933d 18da a03c 8a63 77bd 809a ec3c
000000b0: 4d1a e13c d4b6 92be 442a 42be c771 a43c
000000c0: a882 88be 5944 b13c ef4f e5bc dc25 98bd
000000d0: f9c4 bd3d 0cd5 52bd 0b2d e4bc e49b ab3d
000000e0: 818f 6bbd ee96 6fbc 96f4 cfbd 486e 013d
000000f0: d10f 2d3d 285c 34be 0f94 c73c cb4f 1fbe
00000100: 5f49 f73c 5ab4 3dbe 06d9 38bd 5496 4cbd
00000110: 1ffa e5bb d060 c93d 385e 5ebd 8381 09be
00000120: a677 773d f86f 4b3d d008 efbd dce7 f5bd
00000130: 661e 5dbc 9324 353d 25be 23bd e61d 99bc
00000140: 71bf 8fbd ec67 b13b f2b6 03be b659 0ebe
00000150: caad e2bd c10f 03bb d4e9 e43d 5957 b33c
00000160: 2108 7ebb 94a7 293d e05c 093b 663d 0fbd
00000170: c01a ffbd 68cb 833d 95b8 43be 7189 e3ba
00000180: f7fe d63b 3ab7 74be 12c1 03bc 7f87 edbd
00000190: 0fcb bebd a549 7d3d 0696 573e 6aed 263d
000001a0: 4f1d 423b 33ff 12bd ee13 b13b 2f61 773d
000001b0: 74f3 babd d22f 9cbd 0ef8 c53d c1bb 5e3c
000001c0: 2253 fe3c 0a23 243d 797d e3bc c632 e93b
000001d0: 638e 6cbd 8ada 02be 1101 c3bd d2da d83b
000001e0: 111c 493b 0151 22bd 857b 27be 8cba 8ebc
000001f0: b975 533e b853 0e3e f10c e0bc 12b9 7dbd
00000200: 4165 0abe a0bc ecbd 2ef9 ff3c 70e8 c6bc
00000210: 3200 8bbe 0c07 47bc 7d25 97bc 3b98 463e
00000220: 53d5 553d bb6e f73c 2cdb efbc b76d 14bc
00000230: e5f3 a0bb 7c3e 69bd 3172 8f3d 5ab5 8e3d
00000240: 2151 41be 54b2 10be 00a3 53bd 869f cabd
00000250: 4f96 ee3c d27d 263d fd35 2dbd 67b7 11bd
00000260: 7b8d 033e 20e4 1fbd 298c 213e eb42 b0bd
00000270: 7842 33bd 91cb f43c bb4f 6dbe bcdb 923e
00000280: 4470 393d 26b6 98bd dfc2 113e 3fd5 41bd
00000290: 2074 c3bd 6a1f afbd 8ee0 52be 4c10 c9bd
000002a0: 5490 843d 845c 043d 7a80 f6bc 9eae 81be
000002b0: 09ad 75bd 62b5 48be 7041 8cbc 79f3 e2bd
000002c0: d573 a6bd 9d38 583e 041d cabd b427 d8bc
000002d0: 8807 23be 34f3 473c 4012 9ebc 1058 1f3e
000002e0: 0722 b0bd fca9 11bd 288b 15be 2dc0 2cbd
000002f0: 8df7 e93c add4 a8bd 31a9 2a3d c7aa 3bbd
00000300: e26b 66bd 0128 00bb 0e2a eebc 4bcb 8f3c
00000310: aee6 afbd 5ff8 c7bd 4515 acbd 666c 993d
00000320: ce39 32be e466 01bd 132f 243d 9b84 c7bc
00000330: e433 e83d 1708 3ebd acbd 203d e64b 68bd
00000340: 9750 3fbc fe75 c33c 7558 cabd d5b3 cebd
00000350: 4178 233d 9f27 0bbc 9ba1 84bd aa70 35be
00000360: 8506 61bb 323c 9b3c 651d 023e 5e4e 27be
00000370: ecd6 a03d 3677 323e 19b0 263d 76d4 91bd
00000380: 6a3c 80bc 98ec 95bd ec9f d23c e6b6 db3d
00000390: 53b9 a73e 9670 b53c b705 43be 327c 53be
000003a0: 45e5 5abd 9b52 68bd c641 77bd 995d 47be
000003b0: b15b 85bc ffe7 203e 4947 223d c72e 8d3d
000003c0: f44b 3b3d 2c15 64bd 0842 33be 9523 053c
000003d0: 016f adbd af8e d63c 70f3 893d 8c19 47be
000003e0: 98fb c23d 18e5 303d 0c47 f9bd 2eaf fcbc
000003f0: 7644 2ebe 0e05 3dbd f182 a1bd 5e17 94be
0.18589734 -0.06978301 0.022269575 0.0044025974 -0.028064491 -0.095536 0.061607003 -0.08794281
0.054320265 0.041384015 -0.2210484 -0.11082788 -0.1618374 0.02611827 -0.0947831 0.15756565
0.06334704 0.0071553485 -0.07866152 -0.29447666 -0.05364144 -0.042966515 0.05515118 0.12841888
-0.04796065 -0.008069614 0.24967694 -0.054014444 -0.045557436 -0.07475986 0.014059167 0.084019005
0.06895118 -0.24975257 -0.10302058 -0.14298004 -0.064441815 -0.012995197 -0.16616899 0.029155657
0.07202152 0.019635245 -0.060397662 0.028882265 0.027478362 -0.28655112 -0.18961436 0.020073785
-0.26662183 0.021639036 -0.027992217 -0.07429096 0.09266085 -0.05147271 -0.02785351 0.08379343
-0.057509903 -0.014623387 -0.10154073 0.031599313 0.04225141 -0.1761328 0.024362592 -0.15557782
0.030186353 -0.1852583 -0.045128845 -0.04994805 -0.007018342 0.09832919 -0.054289073 -0.13428311
0.06041684 0.04966733 -0.11671603 -0.12007114 -0.013496017 0.044224333 -0.039976258 -0.018691014
-0.070189364 0.005414 -0.12862757 -0.1390141 -0.11068304 -0.0019998404 0.11177412 0.021892237
-0.003876217 0.04141958 0.0020959899 -0.034970663 -0.12456274 0.06435281 -0.19113381 -0.0017359686
0.006561156 -0.2389802 -0.008041637 -0.115981095 -0.09316074 0.06183781 0.21053323 0.04075376
0.002961952 -0.03588791 0.005403987 0.060395416 -0.09128466 -0.076263085 0.09666453 0.013594569
0.0310455 0.04007248 -0.027769791 0.0071166484 -0.057752978 -0.12778679 -0.09521688 0.0066178823
0.0030686895 -0.039628033 -0.16355713 -0.017422937 0.20650376 0.13899124 -0.027349921 -0.061944075
-0.13515188 -0.11559415 0.031246748 -0.024280757 -0.27148587 -0.012147676 -0.018450493 0.19394009
0.052205395 0.030204168 -0.029279314 -0.009059361 -0.004911887 -0.056944355 0.07004202 0.06968184
-0.18878604 -0.14130527 -0.05166912 -0.09893708 0.029124407 0.040647335 -0.042287815 -0.035575297
0.1284694 -0.039035916 0.15776123 -0.086065136 -0.04376456 0.029882224 -0.23174946 0.2868327
0.04527308 -0.07456617 0.14234494 -0.047322508 -0.095436335 -0.08550914 -0.20593473 -0.098175615
0.06472841 0.032314792 -0.03009056 -0.25328535 -0.059979472 -0.19600442 -0.017121047 -0.11081595
-0.08127562 0.21115346 -0.098688155 -0.02638612 -0.15920842 0.01220398 -0.019295812 0.15560937
-0.0860024 -0.0355625 -0.14603865 -0.04217546 0.028560424 -0.0824369 0.04166526 -0.045817163
-0.05625523 -0.0019555094 -0.029072788 0.017552992 -0.085889205 -0.0976417 -0.08402494 0.074913785
-0.17404863 -0.031592265 0.040083956 -0.024355223 0.11338022 -0.046394434 0.039243385 -0.056713007
-0.011676929 0.023859974 -0.09880153 -0.10092894 0.039909605 -0.008493333 -0.06476136 -0.17718759
-0.0034336161 0.018949602 0.12706526 -0.16338488 0.07853493 0.17428288 0.040695284 -0.07120602
-0.015653808 -0.07320517 0.025711022 0.107282445 0.3275858 0.022148412 -0.19045149 -0.20652846
-0.053441305 -0.056719404 -0.06036546 -0.19469298 -0.016279073 0.157135 0.039618764 0.06893688
0.04572673 -0.055684254 -0.17505658 0.008126159 -0.08468438 0.026191084 0.06735885 -0.19443339
0.09520644 0.04318723 -0.12171754 -0.030845251 -0.17018303 -0.0461474 -0.07886303 -0.28924078

bias f4 [32]
00000000: dd6a 97bd ad3e 6dbd c367 95bd e05b 8b3b
00000010: c9ef 3ebc ec53 a53c de11 903c 4a03 d53c
00000020: 9924 423d c51f 1ebd ca8e a9bc 68fa 89bd
00000030: db12 81bd de95 81bd c60b c73b 48bf 363d
00000040: e859 393d 7949 153d 5fd3 943c e33c 80bd
00000050: 7874 003d d5d7 65bd 22d6 67bd fa48 003d
00000060: f516 a2bb 1ee6 9ebd cc5f 8d3c b2a3 203d
00000070: d322 60bd 8b68 543d 5e77 503d 3de9 19bd
-0.073934294 -0.0579211 -0.072951816 0.0042528957 -0.011653849 0.020181619 0.017586645 0.026002545
0.047398183 -0.038604517 -0.02069797 -0.06737214 -0.063024245 -0.06327413 0.0060744015 0.044616014
0.045251757 0.036447022 0.018167196 -0.06261613 0.031361073 -0.056114037 -0.056600697 0.031319596
-0.0049465843 -0.07758735 0.017257594 0.039218612 -0.05472071 0.051857512 0.050895087 -0.03757595

weight f4 [1, 32]
00000000: 4d30 de3d b2d7 623e 36a2 143e 0cd5 11be
00000010: 646d dd3d cf77 013e 4ea9 e53d ed46 9d3d
00000020: 60df 78be 5a2d 213e e90c 69be ea4a 263e
00000030: 504d 5fbd 362b 1d3e 1086 cd3e 4d6f 4a3e
00000040: 024a d93e a0e4 c8bd d505 f9bd c7a6 3c3e
00000050: 70dc 03be ca9f b13d fb4c ac3d 5d52 4bbe
00000060: 6fb0 96be 9623 c13d 6731 9a3b c027 90be
00000070: d497 d83d 89f1 17be 177e 17bd 4c4a 313e
0.108490564 0.22152594 0.14515004 -0.14241427 0.1081188 0.1264336 0.11213933 0.07679544
-0.24303961 0.15739956 -0.22758831 0.16239515 -0.05451709 0.15348515 0.40141344 0.1976902
0.42439276 -0.09809232 -0.121593155 0.18422996 -0.12877059 0.086730555 0.0841312 -0.19855638
-0.29431483 0.094306156 0.0047055962 -0.28155327 0.10575834 -0.14838232 -0.036985483 0.17313498

exp_avg f4 [64, 20]
00000000: 5ae7 1235 ce3d 23b8 65c7 50b8 b7f8 18b9
00000010: d271 e5b8 b381 20b5 37f9 91b7 5762 5438
00000020: cfd4 97b5 cce3 b9b6 4bb3 10b9 0f51 7cb8
00000030: 3cf7 12b9 be47 2ab9 a3b0 f8b8 ea0d 07b9
00000040: aedc 8237 1905 98b8 0e68 1db9 6237 edb8
00000050: 584e cfb8 d29b c5b9 ee00 23b8 5fd2 77b9
00000060: 3be3 84b9 8dcb bdb9 e058 0339 1227 d637
00000070: db91 4937 5a61 87b9 683f c9b9 682d 6db9
00000080: fcf8 18b9 78e8 06ba 0413 2c37 d664 abb9
00000090: 063a 9db7 2348 0139 676b 96b9 c84d c7b9
000000a0: 2e54 e0b8 c008 42b9 7d5a 01b8 1d06 6bb9
000000b0: 20f7 78b9 70fe 5cb8 65a2 ffb8 5f43 a438
000000c0: 4d32 15b8 fe9d 23b9 158f 94b9 ac5b b1b8
000000d0: 93f9 79b9 cd7d afb9 81a9 0db8 b8bc 8bb9
000000e0: 7515 edb8 6d2a 7538 16ff 87b9 740b 9bb9
000000f0: 94cd 9638 8b9c 4eb7 3823 bd38 ebab 8238
00000100: 0e9d 9e36 0efb 10b9 4ac0 8439 373c 3339
00000110: fac7 2738 cf41 83b9 3893 f136 2230 5239
00000120: fed9 90b8 22ce efb6 f737 0d38 4d92 6a37
00000130: f7ff 9eb7 b5a5 6838 1ad7 08b8 98a9 f6b7
00000140: b0ea f037 1692 5eb5 d6cf 9937 c6b9 2837
00000150: 6929 09b8 26b0 ecb6 8fc9 32b8 1fc2 95b7
00000160: 22c4 0638 f8db cfb8 60ef 34b8 0b6b 12b7
00000170: 7c71 4b36 af15 1f36 3c59 63b8 5af5 14b8
00000180: 6284 1438 3b41 12b7 6ce1 26b8 8150 3ab7
00000190: a593 68b7 3e6b e5b8 dd83 bdb6 e56b 63b9
000001a0: 5e0d 9fb8 f77e 1eb9 9e43 8db8 d101 f6b6
000001b0: 8aca 7bb7 a995 4db9 86a8 90b8 4301 e7b8
000001c0: f525 7cb8 3fa6 0ab8 8eed ad38 ae99 9ab8
000001d0: f54c 27b8 8027 48b8 f540 6db8 4775 11b8
000001e0: 02d6 10b9 5878 6bb8 2c4a c5b7 662a e838
000001f0: eca5 edb6 c0a2 40b7 f97b efb8 e36a 9938
00000200: 0ba8 1e37 8acb d4b8 6644 ceb7 a1d7 7138
00000210: 031c fab8 452e fbb6 acca 8fb6 9482 92b6
00000220: 7fc8 06b9 ec93 c7b8 cfab 86b8 8aaa 68b8
00000230: 8f02 11b9 71b8 66b8 ad54 3739 8839 9639
00000240: db22 0839 54c1 17b9 a20d 51b9 1ba3 a2b9
00000250: a6d1 2db8 53bc 0639 7499 4e39 b483 0b39
00000260: 4844 7938 c6c0 3839 396c 9936 c455 0f38
00000270: cea8 8238 168f 9eb8 1757 0538 5efb 2f38
00000280: 9801 35b9 eeca df39 a97e 8db9 ee2a 4639
00000290: 4c45 f239 ba4b 8c39 f424 a239 0eb0 e2b9
000002a0: c9dd 07b9 7244 763a 6dfa d239 89fa 6439
000002b0: 1ecc f238 6351 583a a318 d039 c52e 283a
000002c0: bc29 3a3a 2537 47b9 e943 313a c259 033a
000002d0: aee4 5ab8 6615 6137 e298 3236 fc5c 3939
000002e0: 05d9 9f38 6999 0c38 fe48 e832 347d 7e38
000002f0: 0e4b b4b7 7bf2 a4b8 5f18 0f38 1646 e238
00000300: ce9f a9b8 68c3 a436 bc0c 9f37 3675 2438
00000310: 68f9 55b8 330b 91b8 2423 3838 977d 3b38
00000320: 9db6 0339 2eab 2939 4744 2c39 dd72 0bba
00000330: 9fdd 3339 f9a8 1639 02f5 5936 0804 e1b8
00000340: de71 d538 1146 be39 25f0 6439 6c31 e338
00000350: 3817 4d36 1da0 1d39 50d6 f837 b178 0e39
00000360: d866 b7b8 5b6b 0139 00d6 0839 c160 7e39
00000370: ed1a 4d38 040c 5738 812a 67b9 7c38 7039
00000380: b395 6836 3732 ecb9 c76e 9a39 b149 cfb8
00000390: e5ab 4737 c978 90b8 0119 8f38 d88d e438
000003a0: 59f3 1cb8 95b9 3239 9718 bd39 211f 3c36
000003b0: ddf4 7bb8 c78d 76b9 7b65 f138 117a 0039
000003c0: be7e 3939 e3cf 1539 82c8 bd38 ed70 e2b7
000003d0: 6fb9 2e39 b368 0736 744b 3d39 596c 6536
000003e0: aee8 9438 0bfe 6139 a902 7538 9d5d 89b6
000003f0: 4c2d 1039 aa40 0639 9ede 2638 1a66 0b39
5.47259e-07 -3.891979e-05 -4.9776765e-05 -0.00014588503 -0.000109407716 -5.979338e-07 -1.7401397e-05 5.0636325e-05
-1.1312312e-06 -5.5399487e-06 -0.00013799702 -6.0156974e-05 -0.00014015747 -0.0001623919 -0.00011858463 -0.00012879787
1.559997e-05 -7.248874e-05 -0.0001501145 -0.000113113565 -9.885122e-05 -0.00037690863 -3.8863094e-05 -0.00023634125
-0.00025346302 -0.00036200546 0.00012526242 2.5528981e-05 1.2014493e-05 -0.0002582174 -0.0003838495 -0.00022618996
-0.00014588604 -0.0005146335 1.0256426e-05 -0.0003269079 -1.8742878e-05 0.00012329272 -0.0002869025 -0.0003801419
-0.00010696832 -0.00018504541 -3.084027e-05 -0.00022413624 -0.00023743184 -5.268905e-05 -0.00012189596 7.832678e-05
-3.5571215e-05 -0.00015603748 -0.00028335364 -8.457093e-05 -0.00023839464 -0.0003347233 -3.3774882e-05 -0.00026652752
-0.00011305037 5.8452064e-05 -0.0002593926 -0.00029572437 7.190849e-05 -1.2315005e-05 9.018782e-05 6.230905e-05
4.7270505e-06 -0.00013826435 0.00025320268 0.00017093202 4.0002145e-05 -0.00025035298 7.199498e-06 0.00020045092
-6.907059e-05 -7.146752e-06 3.366914e-05 1.398155e-05 -1.895426e-05 5.5467437e-05 -3.2625256e-05 -2.9404458e-05
2.8719514e-05 -8.291403e-07 1.8335802e-05 1.0056834e-05 -3.270191e-05 -7.0538545e-06 -4.2626223e-05 -1.7852579e-05
3.2130753e-05 -9.9115015e-05 -4.313828e-05 -8.727201e-06 3.0315414e-06 2.3705468e-06 -5.4204123e-05 -3.551445e-05
3.540924e-05 -8.717466e-06 -3.9787425e-05 -1.1105208e-05 -1.3862654e-05 -0.00010939546 -5.64799e-06 -0.00021688601
-7.584201e-05 -0.00015115352 -6.7359986e-05 -7.3315828e-06 -1.5007923e-05 -0.00019606076 -6.897845e-05 -0.000110151734
-6.0116832e-05 -3.3056593e-05 8.293531e-05 -7.371917e-05 -3.9887575e-05 -4.7720503e-05 -5.65657e-05 -3.4679917e-05
-0.00013812634 -5.6140445e-05 -2.3518769e-05 0.000110705194 -7.0824663e-06 -1.1481985e-05 -0.000114195 7.315518e-05
9.456659e-06 -0.0001014686 -2.4588964e-05 5.7659698e-05 -0.000119261465 -7.4857694e-06 -4.285326e-06 -4.3663404e-06
-0.00012853926 -9.516612e-05 -6.42162e-05 -5.5471937e-05 -0.00013829231 -5.5008048e-05 0.00017483784 0.00028653094
0.00012982955 -0.00014472503 -0.00019936872 -0.0003102057 -4.1441665e-05 0.00012849392 0.00019702857 0.00013305136
5.9429818e-05 0.00017619421 4.572354e-06 3.4173732e-05 6.2303254e-05 -7.560679e-05 3.179078e-05 4.1957355e-05
-0.00017262099 0.0004268507 -0.00026987985 0.00018898744 0.00046209467 0.00026759302 0.0003092658 -0.0004323725
-0.00012957225 0.00093943544 0.00040240903 0.00021837106 0.00011577479 0.00082518737 0.00039691207 0.00064156606
0.0007101556 -0.00018998662 0.00067621336 0.00050106284 -5.2188225e-05 1.3416027e-05 2.6613056e-06 0.00017677614
7.622134e-05 3.3521475e-05 2.7041548e-08 6.0674924e-05 -2.1492622e-05 -7.865295e-05 3.4116554e-05 0.00010789574
-8.088314e-05 4.910329e-06 1.8960207e-05 3.9209808e-05 -5.1015435e-05 -6.916225e-05 4.3901746e-05 4.470124e-05
0.00012561162 0.00016180865 0.00016428634 -0.0005319545 0.0001715333 0.00014368062 3.2478133e-06 -0.00010729587
0.00010177841 0.00036291828 0.00021833235 0.00010833409 3.0560896e-06 0.00015032334 2.96637e-05 0.00013587136
-8.745276e-05 0.00012342392 0.00013049692 0.00024259371 4.8900885e-05 5.1271185e-05 -0.0002204571 0.00022909226
3.465783e-06 -0.0004505084 0.00029455704 -9.884255e-05 1.1901347e-05 -6.888953e-05 6.823429e-05 0.00010898308
-3.7419934e-05 0.00017044538 0.0003606721 2.8032302e-06 -6.007111e-05 -0.00023513204 0.00011510678 0.00012252505
0.0001769019 0.00014287191 9.04957e-05 -2.6993885e-05 0.00016663013 2.017751e-06 0.00018052553 3.4186726e-06
7.10053e-05 0.0002155231 5.841503e-05 -4.093816e-06 0.00013749785 0.00012803325 3.9784813e-05 0.00013294109

exp_avg_sq f4 [64, 20]
00000000: e531 9c37 205e 1a38 856a b637 89d6 9f37
00000010: 648e 0e38 fc67 2438 e0ba 4238 5239 6d38
00000020: e966 8d37 1265 e037 9d91 2d38 18a3 b337
00000030: 055b a337 ea07 e137 368f a637 88bc d837
00000040: acd1 c637 be9c ab37 367e e637 cc74 0938
00000050: 2301 e337 ad07 5938 08e7 e837 9990 ca37
00000060: 0ed3 5038 8f79 2338 10b5 4338 287e 9638
00000070: 8cbe c637 fbc8 2138 80f5 8638 21fd ee37
00000080: 5ac2 c637 3974 1938 ed8b e337 5e0f 2738
00000090: 621a e237 312e da37 1571 3738 d9ff 4d38
000000a0: 3845 ac37 0728 4438 d9a9 c637 cd5c 9c37
000000b0: c2d4 0438 f849 0538 0095 3038 5fbd 8b38
000000c0: fc76 9e37 1cae 1d38 2ce1 7e38 a75d 9937
000000d0: 3e25 a137 6f7d da37 cfa2 ab37 3739 d537
000000e0: 6dd5 ba37 36cc b437 3863 f237 addc 1138
000000f0: 847c cb35 7be3 6936 898f 1736 9ebf b635
00000100: 017d b236 9949 8d36 4b49 5c36 b42c ee36
00000110: dc00 0036 336f 2f36 f93b ce36 105d e335
00000120: d473 dc35 af94 3836 921f ee35 6b85 5c36
00000130: 3c06 0936 c673 3536 1eb6 6a36 c4aa b636
00000140: ab33 a135 585e 9736 c9f7 b135 d735 8435
00000150: 0a09 2435 277f 1736 54c5 8336 0313 2236
00000160: f614 be35 b0ee 4c36 adb6 ab36 eba2 8835
00000170: 8f0d a435 d4dd 0336 14f1 f735 0b09 0136
00000180: 8539 c835 ef33 fa35 39f3 f935 f0f8 3836
00000190: 329f 4d36 daa4 d236 923e 2436 741b 2536
000001a0: 4a3c a936 b488 af36 5c0d b436 4cd9 f636
000001b0: d228 b735 83af 2836 49bd c236 ba1d 1836
000001c0: 5705 1436 caba 0a36 779a 2336 2f27 2436
000001d0: 0a1d 3836 b7fb 0a36 5430 5b36 431e c536
000001e0: 21f5 4c37 cd66 7f37 506b 4737 43c8 3837
000001f0: b8f5 9f37 c82c 9237 7e83 b637 f743 e437
00000200: ab00 2d37 c7cd 7a37 6d34 a837 2299 5637
00000210: 2e13 4737 4ff2 7837 14f1 4037 6d2c 6537
00000220: 9b4f 5837 a167 5237 38d4 7637 db2d 9c37
00000230: 6fdc ca35 c6ac 5a36 85f3 9935 19da 1436
00000240: 2da0 1436 491a 1736 2a44 2d36 b571 0336
00000250: 871d 0136 adcc 4636 573f 2236 5b14 1c36
00000260: cc2f a835 3bcd 1436 8e5a e235 9e66 3236
00000270: 5b74 1536 66b5 2735 053c 4536 fc10 5536
00000280: 76ac 2e36 c006 5437 d3a0 9e36 0b75 0237
00000290: dfc2 5337 37bd c936 b852 e036 6cd3 b936
000002a0: b8d7 8d36 6b4b e436 c99b 6337 e8e6 a736
000002b0: c5da b336 1fe0 4237 7fdb 0037 3efc 3a37
000002c0: 9d06 aa36 b969 4136 3712 3b37 c9d4 4b37
000002d0: 1046 d936 33a0 2237 d7eb d936 88ee 0237
000002e0: d39c 3e37 87f7 1437 2668 5f37 094d 5837
000002f0: d57d e936 015b ee36 0a78 3537 45c9 f936
00000300: b3a5 c436 2f14 2a37 63e2 f536 10ec ed36
00000310: 32c3 de36 cb0b e136 fc02 ea36 36ae 1e37
00000320: ac3a 1b36 42c3 b036 0af8 3936 1f02 0d36
00000330: 73df ab36 5e8b ad36 c93d 9a36 ddd6 0137
00000340: 4e89 2536 5b7d 6236 a821 b836 4b39 3b36
00000350: 38ca 1e36 da56 7e36 c060 fd35 7268 6636
00000360: d646 fc35 215d 3536 b8ee 9336 de8e a936
00000370: 409e 4537 ef46 9a37 63c0 0a37 90ce 2f37
00000380: c74b 7937 9cb4 3637 8552 7137 1ec8 be37
00000390: 37de 0737 c779 5037 ba46 5737 fba4 1837
000003a0: 6fc3 4537 3a51 4637 676a 0d37 6c4e 6437
000003b0: 9b87 3b37 2689 0f37 140d 4337 f701 3a37
000003c0: c103 2d35 37b2 5635 3df0 e034 c3c7 a934
000003d0: d73a 7c35 5bab 6635 e8d7 6535 72db f535
000003e0: b531 1835 9725 7835 71be f935 5ef4 3335
000003f0: 8e29 2f35 7425 5435 1519 1035 82ca 8135
1.8619883e-05 3.6804122e-05 2.1745693e-05 1.9054178e-05 3.398805e-05 3.919749e-05 4.6427245e-05 5.6558587e-05
1.6856431e-05 2.6749945e-05 4.1382027e-05 2.141441e-05 1.9473498e-05 2.6825775e-05 1.985543e-05 2.5836998e-05
2.3701075e-05 2.0457777e-05 2.7476908e-05 3.277212e-05 2.7061038e-05 5.174398e-05 2.7764137e-05 2.414761e-05
4.9787624e-05 3.897544e-05 4.666025e-05 7.176056e-05 2.369217e-05 3.857257e-05 6.435346e-05 2.8489683e-05
2.3693941e-05 3.6586283e-05 2.7125667e-05 3.9830215e-05 2.6953585e-05 2.6009135e-05 4.3735916e-05 4.9114085e-05
2.053623e-05 4.676732e-05 2.368253e-05 1.8639863e-05 3.16694e-05 3.177856e-05 4.2100437e-05 6.6633096e-05
1.8890474e-05 3.759387e-05 6.0768027e-05 1.8282632e-05 1.9210038e-05 2.6046035e-05 2.0460602e-05 2.5418221e-05
2.2272312e-05 2.1552765e-05 2.889485e-05 3.4776214e-05 1.5160917e-06 3.4852117e-06 2.2584302e-06 1.3615825e-06
5.3193658e-06 4.2106954e-06 3.2825217e-06 7.098157e-06 1.9073987e-06 2.6141759e-06 6.14626e-06 1.6939903e-06
1.6424988e-06 2.7504682e-06 1.774157e-06 3.2860214e-06 2.041822e-06 2.703849e-06 3.4974723e-06 5.4439024e-06
1.2010472e-06 4.5111337e-06 1.3259643e-06 9.850436e-07 6.1107914e-07 2.2574766e-06 3.9270762e-06 2.4150947e-06
1.4162204e-06 3.0537303e-06 5.1174634e-06 1.0180205e-06 1.2222898e-06 1.9649642e-06 1.8473097e-06 1.9227762e-06
1.4917902e-06 1.8641566e-06 1.8622733e-06 2.7563037e-06 3.0640044e-06 6.277679e-06 2.4474325e-06 2.4602896e-06
5.043611e-06 5.2313208e-06 5.3659733e-06 7.356668e-06 1.3646443e-06 2.5136112e-06 5.8036862e-06 2.2667068e-06
2.2056827e-06 2.0672328e-06 2.4378803e-06 2.4460712e-06 2.743504e-06 2.071012e-06 3.2661674e-06 5.8745804e-06
1.2216421e-05 1.522312e-05 1.188631e-05 1.1013882e-05 1.9068699e-05 1.742541e-05 2.1757322e-05 2.7211367e-05
1.0311759e-05 1.49490725e-05 2.0051573e-05 1.2791048e-05 1.186579e-05 1.4838369e-05 1.1500222e-05 1.3659807e-05
1.2893138e-05 1.2541103e-05 1.4712154e-05 1.8618002e-05 1.5114327e-06 3.2585099e-06 1.1470262e-06 2.2180668e-06
2.2146953e-06 2.2516053e-06 2.5818686e-06 1.9586707e-06 1.9239685e-06 2.9623436e-06 2.417675e-06 2.325766e-06
1.2530886e-06 2.2173178e-06 1.6864667e-06 2.6583798e-06 2.2270458e-06 6.247632e-07 2.9390224e-06 3.174936e-06
2.6028406e-06 1.2637756e-05 4.7274893e-06 7.775855e-06 1.2621952e-05 6.0122943e-06 6.68535e-06 5.5380424e-06
4.2272404e-06 6.8037093e-06 1.3566526e-05 5.003869e-06 5.360084e-06 1.1615483e-05 7.6805e-06 1.1145194e-05
5.0671647e-06 2.882078e-06 1.115031e-05 1.2149286e-05 6.4752603e-06 9.693252e-06 6.4945593e-06 7.804141e-06
1.1361396e-05 8.879119e-06 1.3316085e-05 1.2892539e-05 6.95859e-06 7.103547e-06 1.08163895e-05 7.444209e-06
5.860545e-06 1.0137489e-05 7.327924e-06 7.0906317e-06 6.6388393e-06 6.7068954e-06 6.974091e-06 9.4580955e-06
2.3130951e-06 5.2679397e-06 2.7711526e-06 2.1011872e-06 5.12221e-06 5.1720262e-06 4.5967504e-06 7.739026e-06
2.4666838e-06 3.374959e-06 5.4875454e-06 2.789852e-06 2.3661541e-06 3.7899504e-06 1.8878127e-06 3.4333466e-06
1.8796079e-06 2.702531e-06 4.408732e-06 5.0532244e-06 1.17789605e-05 1.8391262e-05 8.2702345e-06 1.0478907e-05
1.48592e-05 1.0890097e-05 1.43839325e-05 2.2742952e-05 8.0983655e-06 1.242612e-05 1.2831466e-05 9.0983185e-06
1.1787618e-05 1.1820632e-05 8.429029e-06 1.3608118e-05 1.1177642e-05 8.555397e-06 1.1625951e-05 1.1086921e-05
6.4452985e-07 7.998055e-07 4.1898048e-07 3.162405e-07 9.396294e-07 8.593103e-07 8.562333e-07 1.831779e-06
5.6696746e-07 9.24419e-07 1.8607371e-06 6.70383e-07 6.525305e-07 7.9030656e-07 5.368068e-07 9.670187e-07

exp_avg f4 [64]
00000000: 1ff9 adb8 2b03 6bb9 a041 68b9 9e6b db36
00000010: 13a2 93b7 8655 9bb8 fcf6 fbb7 681e 1b38
00000020: f09e e139 1e59 4038 8683 d538 262e 0bb7
00000030: c57b 4939 db35 c939 0f33 56b8 43c0 65b8
00000040: e228 89b8 1b76 8f38 b9a0 0ab9 2d52 4939
00000050: e069 c138 3b84 c238 5f8c 1fb9 0e81 8138
00000060: 79eb a7b8 e07e a236 fe6f 21b9 8180 62b8
00000070: a8b1 d7b8 7816 63b9 3daa 8638 3b25 4438
00000080: d061 b139 bbcc ecb7 964b dcb8 e112 2bb9
00000090: 6339 6fb6 b99e 41b8 a37a 8f39 581d 2539
000000a0: 7988 fab8 b4b5 c8b8 6ae4 5db9 25e0 5ab9
000000b0: b2da a238 5f14 03b9 011a 8a37 11e8 42b9
000000c0: b0ed 4038 44c4 9738 8446 9e38 1199 03b9
000000d0: 1753 3db8 a1ea cb38 ea8a a9b9 9d08 78b9
000000e0: e294 3d39 838d 4b38 5f61 a4b8 ca48 1bb9
000000f0: a8a5 c0b7 1b2e af39 0f89 8e38 8cdf 58b9
-8.295685e-05 -0.00022412527 -0.00022149691 6.539237e-06 -1.7599237e-05 -7.406906e-05 -3.0036543e-05 3.6983198e-05
0.00043033762 4.5859364e-05 0.000101811296 -8.29579e-06 0.00019214962 0.00038377833 -5.1069128e-05 -5.4776912e-05
-6.540284e-05 6.84077e-05 -0.0001322058 0.00019199467 9.222678e-05 9.275271e-05 -0.00015215714 6.175238e-05
-8.007041e-05 4.8427464e-06 -0.00015395877 -5.4002277e-05 -0.0001028509 -0.00021656777 6.421327e-05 4.6764715e-05
0.00033832947 -2.8228727e-05 -0.000105044965 -0.00016314864 -3.5647179e-06 -4.6162608e-05 0.00027366457 0.00015746558
-0.00011946349 -9.570588e-05 -0.00021161293 -0.000208736 7.765497e-05 -0.00012500722 1.6462991e-05 -0.00018587733
4.599773e-05 7.2367984e-05 7.547162e-05 -0.00012550155 -4.5138495e-05 9.723497e-05 -0.0003233769 -0.00023654332
0.00018079908 4.8530765e-05 -7.838266e-05 -0.00014809068 -2.2965323e-05 0.00033412952 6.796617e-05 -0.00020682643

exp_avg_sq f4 [64]
00000000: c919 8d38 529c c538 a3ea b038 3802 0137
00000010: 1582 b536 2cd9 1637 59b7 0638 357a 8036
00000020: f700 6a37 832a 8a37 6056 1737 e85a da37
00000030: 4d8b ff35 6119 a037 2966 7a37 692a 8936
00000040: a194 7a38 0cc8 2936 2163 7937 dbcd e037
00000050: 9ec3 0c37 ab96 2436 f244 2637 04a8 8d36
00000060: e546 2339 34c8 0537 4f9a 6c38 ca2c 0938
00000070: ecf5 1036 6455 7f37 5d2d 1637 843b c436
00000080: 44cf 4237 de67 2138 5c37 a138 a296 f736
00000090: f947 a536 93be f636 b739 8d36 b09f 7837
000000a0: 073e 1637 583f c535 eefd a838 d2f3 ed38
000000b0: 86bb a236 3ef9 9837 eac6 2237 88ed 9337
000000c0: 190e 5137 c7b0 cc36 4b03 a437 72dd ff35
000000d0: 1ab8 db36 0851 2437 7895 3138 8429 dc36
000000e0: d5e7 1b36 dfd9 1436 e2d4 6537 cb19 a036
000000f0: 7b71 7236 0506 6e36 da23 1737 4cac ae38
6.728207e-05 9.422809e-05 8.4360385e-05 7.689516e-06 5.409364e-06 8.991261e-06 3.2118845e-05 3.828924e-06
1.39477115e-05 1.6470678e-05 9.020412e-06 2.6029957e-05 1.9039522e-06 1.9085304e-05 1.4924947e-05 4.0878554e-06
5.9743066e-05 2.5299405e-06 1.4864637e-05 2.679874e-05 8.390196e-06 2.4525605e-06 9.910424e-06 4.221687e-06
0.00015571302 7.974031e-06 5.6410496e-05 3.270506e-05 2.1600817e-06 1.5219066e-05 8.951259e-06 5.8481837e-06
1.1611559e-05 3.8482125e-05 7.68739e-05 7.3787096e-06 4.925762e-06 7.353557e-06 4.2088463e-06 1.4819132e-05
8.955139e-06 1.4696079e-06 8.058162e-05 0.00011346456 4.849807e-06 1.8235874e-05 9.702266e-06 1.7634375e-05
1.2460653e-05 6.1002534e-06 1.9551857e-05 1.906343e-06 6.548141e-06 9.794028e-06 4.2339292e-05 6.561344e-06
2.3231744e-06 2.2180536e-06 1.3699029e-05 4.7713743e-06 3.6126864e-06 3.5468267e-06 9.008649e-06 8.329059e-05
