data/L1L2IO-Rand-Tempest-SMU/no_training/weights.npz (npz, 6046 bytes, 5 tensors)

W0 f4 [20, 32]
00000000: 819a 0cbe 1a3f 063e d465 6e38 96ae d7bd
00000010: a820 073e 8057 1abe abe8 49bd 1afe b03d
00000020: 97b0 1937 2541 c7bd 857e 91be d883 32be
00000030: f60b 173e 0987 c23d 83c3 63bb 00ba a9b4
00000040: c423 feba 4a38 fcbb 424f 8739 6cb3 83ba
00000050: 8c12 4d3e d07b f0b9 7890 ce38 ec45 a9bd
00000060: 8ee7 92bb a494 90b9 caa9 daba a54d 9dbe
00000070: 3688 efba 418a a23e a2f4 1db8 9bdb 9ebd
00000080: 85d0 143e 7e50 6abc 25ea 6cb8 b04b f639
00000090: 6ced 32be 20a0 d33d 0725 f6bd d3ee 293d
000000a0: c3a8 1fba dca8 883e 6a2e 053e e78a 1cbe
000000b0: 244f 673d cb85 b7bd 72bf 763e 526a 98b7
000000c0: 74e6 da39 424b 0abe 6074 013b 863f 1aba
000000d0: e3c2 a23d 5ae1 fc3b f398 02be d953 3ebe
000000e0: e4a4 993d 5a33 bab8 d134 80be 959b 6fbd
000000f0: 9b2a 2639 d7f7 6abd 4e86 e0b9 5532 7f3e
00000100: 3ce0 a73d 26e1 b93a fea0 1d3d 6c7a 7db8
00000110: b458 1bbe 5ab8 923d f6d0 76ba 88b7 1ebe
00000120: 8ab7 5239 675b ba39 69ec 77be 8dbf 613e
00000130: e2fd 89be cc47 75be 722c c7bd 5808 8c3d
00000140: a3f7 a2bd fecb ac3d dcb2 7b3d 78b5 49be
00000150: c6d2 a938 8779 4eb9 e1da a33d 68fd e93d
00000160: b81b 97ba 121e ccb8 236b c43d 858a 24ba
00000170: d333 5f3c f07a 7fb7 b01a 5139 b01b 84be
00000180: b616 a538 6a2c e0bb 0781 d4ba 222a 8cb9
00000190: e028 0abe 739c a03d b951 a93d c149 3cbe
000001a0: e31c dab6 a0cd 6f3c 2208 a437 2ddb 053e
000001b0: 1319 a8bc 0307 2139 d61d c2bd fdef fdbd
000001c0: 4115 82ba 0070 493d e15b 88be c70b d1bd
000001d0: d38d 86bd c60c df39 c37e 03be d574 77be
000001e0: a496 263d 3826 04b8 5ade bd38 2260 563e
000001f0: 48ad 463e c1a8 163e 89d0 77b9 2cfe 143e
00000200: b820 493e b7b5 2fbe 8f28 38bd 913a c2b9
00000210: cd9d 923e 2706 613e 90d5 2d3d 8b1d 5a3e
00000220: c54d 7e39 933f 90be 27bf 0abe b8e9 163e
00000230: fbf9 873e e17d 503e e358 69bc ba25 0e3e
00000240: 92d7 79bd b114 593e 04c9 fc3d a936 48bc
00000250: 7b22 b039 8e83 4e3a 085b 4eb8 9cfa 0b3e
00000260: 81c8 1ebd f0f1 4137 e827 b5bd 5e33 30bb
00000270: 4a73 f0bd 3d0c 2cbe eceb 5db8 49c6 993d
00000280: 11d8 aabb e313 503e 90a9 d9ba ee4e 69b9
00000290: 9dab 4fbb 8f8e 423c b26a 453e 584b 713e
000002a0: ba3b 5038 676a c5ba 0b50 553c 4eca af38
000002b0: d041 d63d 5e46 86b8 6069 203e fbd2 9d3d
000002c0: d3f6 e53d e29c e4bd 68aa a13d fbde e7bd
000002d0: 1bd7 843e 1abb a939 616a 7fbd e911 8abe
000002e0: dfd2 6e3d 2b93 4aba d3ef f23d b87d c5bb
000002f0: 1eea a83d e467 813e b23a bc38 653b ff3d
00000300: 2453 c4bc e050 4d3a 20e4 d5b8 4de6 893d
00000310: 4b40 5f3e 3ba3 103e 2001 6f38 02fc 5a3e
00000320: 14f5 68b9 8f6c c9bd 7f8a 8dbe d0ad cf37
00000330: 0357 823e 5926 143c 1e69 8aba bb32 43b8
00000340: 6671 4c3e ff5c eb3d 41f2 b53c d439 363e
00000350: 7b83 43be 9695 3437 90f9 d1bd dd93 eabd
00000360: 5781 9fbb fe39 76b9 22d8 c63d c536 f4bd
00000370: 8c36 8d3d 07bd 4839 4ffa 64b9 dfda 6b39
00000380: 9688 84bd 8586 41be b9c0 0ebd 5e38 c337
00000390: 0156 603e 3d0e d23c 29bc 1cb9 efbc 813e
000003a0: 48a2 c7b5 6c42 9eb9 4b56 f4bc e1f9 91be
000003b0: b5f5 6ebd 9628 06be c40c edb9 24a1 9abd
000003c0: 335f 31bd 9a57 8b3e b845 55b9 d72b 373d
000003d0: b472 78b8 7865 0fb8 5945 2e3e 438c 6fbe
000003e0: 156a c3bb c27a 2039 a047 8a3e c1ab 84bd
000003f0: 150e 2e3e 956d fe3d f42f fdb8 118b cc3d
-0.13730814 0.13110009 5.6838457e-05 -0.105313465 0.13196051 -0.15072441 -0.049294155 0.08642216
9.160626e-06 -0.09729222 -0.2841684 -0.17433107 0.14750656 0.09498412 -0.0034753985 -3.1614036e-07
-0.0019389321 -0.00769714 0.00025808258 -0.0010047979 0.20026606 -0.00045868615 9.849755e-05 -0.0826529
-0.00448317 -0.00027576566 -0.0016682681 -0.307233 -0.0018274847 0.31746104 -3.765955e-05 -0.0775673
0.14532669 -0.014301417 -5.648485e-05 0.00046977168 -0.17473382 0.10333276 -0.12018781 0.041487526
-0.0006090516 0.2669133 0.13005987 -0.15287362 0.05647196 -0.08961066 0.24096468 -1.8169321e-05
0.000417519 -0.13505271 0.0019753203 -0.00058840995 0.07947328 0.0077172937 -0.12753658 -0.18586673
0.075021535 -8.878736e-05 -0.25040296 -0.058497984 0.00015846865 -0.057365265 -0.00042824674 0.24921544
0.08197066 0.0014181479 0.038483612 -6.0433915e-05 -0.15170556 0.071640685 -0.0009415293 -0.15499699
0.00020095534 0.00035544785 -0.24211277 0.22045727 -0.2695151 -0.2395317 -0.09725274 0.06837529
-0.07957389 0.08437346 0.06144987 -0.19698131 8.0978076e-05 -0.00019690963 0.08000732 0.114252865
-0.0011528647 -9.733079e-05 0.09590747 -0.00062767445 0.013623196 -1.5227808e-05 0.00019941735 -0.25802374
7.872043e-05 -0.006841232 -0.001621277 -0.00026734272 -0.13492155 0.0784234 0.082675405 -0.1838751
-6.500269e-06 0.014636427 1.955411e-05 0.1307189 -0.020519769 0.00015356769 -0.09478347 -0.1239929
-0.0009924547 0.049179077 -0.26632598 -0.102073245 -0.065700196 0.00042543391 -0.12841325 -0.24165662
0.040671006 -3.1506846e-05 9.0536385e-05 0.2093511 0.19402039 0.14712812 -0.00023633441 0.14550084
0.19641387 -0.17159162 -0.044960555 -0.000370462 0.28636017 0.21975003 0.042439997 0.21300332
0.00024252299 -0.28173503 -0.13549481 0.14737594 0.26557907 0.20360519 -0.014242384 0.13881579
-0.0609966 0.211993 0.12343028 -0.012220063 0.00033595026 0.00078778795 -4.9199007e-05 0.13669819
-0.038765434 1.1560027e-05 -0.08845502 -0.0026886086 -0.1174074 -0.16801544 -5.2910225e-05 0.07508523
-0.0052137454 0.20320086 -0.001660632 -0.00022250015 -0.0031687983 0.011874809 0.19278982 0.23563898
4.964669e-05 -0.0015061618 0.013019572 8.3823325e-05 0.104617715 -6.402725e-05 0.15665197 0.07706257
0.112287186 -0.111627355 0.078938305 -0.11321827 0.25945362 0.00032373593 -0.06235731 -0.2696679
0.05830657 -0.0007727618 0.11862149 -0.0060269497 0.08247779 0.25274575 8.9754714e-05 0.124625005
-0.023965426 0.00078321807 -0.00010199123 0.067333795 0.2180187 0.14124767 5.6983088e-05 0.21385196
-0.00022216543 -0.09835159 -0.27644727 2.475726e-05 0.2545701 0.009042346 -0.0010559892 -4.653887e-05
0.19965133 0.11492347 0.022210242 0.17795497 -0.19093125 1.0763664e-05 -0.102526784 -0.11453984
-0.0048677134 -0.00023481992 0.09709193 -0.11924509 0.068951696 0.00019143905 -0.00021837022 0.00022492882
-0.06471364 -0.18898971 -0.034851763 2.327206e-05 0.21907808 0.025641555 -0.00014947414 0.25339457
-1.4873885e-06 -0.00030185597 -0.029826304 -0.28510955 -0.058339793 -0.1310142 -0.00045213674 -0.075502664
-0.04330368 0.27215272 -0.00020339235 0.044719543 -5.9234633e-05 -3.4188357e-05 0.17018642 -0.2339335
-0.0059635737 0.0001530452 0.2700777 -0.06478072 0.1699756 0.12423245 -0.00012072912 0.09987462

b0 f4 [32]
00000000: dcbc 993c 54c4 113e 6cdc 173d c50b 0ab9
00000010: 92f1 663d ebbc 163e f294 8cb9 6984 133e
00000020: 840d a1b8 02ee 6f3d 2787 0dbd b099 1a39
00000030: 00c5 61bd fa90 a23c 5641 f23d 0440 1bbd
00000040: a8f7 f23d bba4 73bd c7c3 273e 4f08 a43d
00000050: bb10 123d 1655 6537 9e3a f0bd d233 9e3d
00000060: 20cb e73d beb8 29b9 752c c93d b27d ed3d
00000070: 60dd e33d 8fdf 27bd f022 4037 65e0 7c3d
0.018766813 0.1423505 0.037075445 -0.0001316509 0.056382723 0.14720504 -0.00026813854 0.14405979
-7.679596e-05 0.05857659 -0.03455272 0.00014743838 -0.055119514 0.01984452 0.11828868 -0.037902847
0.11863643 -0.05948327 0.16383277 0.08009397 0.035660487 1.3669274e-05 -0.1172993 0.07724728
0.1131804 -0.00016185918 0.09822933 0.1159624 0.11126208 -0.040984686 1.1452226e-05 0.061737437

W1 f4 [32, 16]
00000000: 8cb0 ae39 d05c 33b8 8996 5d3a 07be ce3d
00000010: aee6 babd bc97 1a3c f935 7e3e 3312 653d
00000020: 9696 a939 f27b 52be d837 f236 903d 9339
00000030: 3536 913c b28e 8f3e f505 aa3e 2f90 4a3c
00000040: 88dc 9139 7adc 2539 c003 2137 bc2b c83d
00000050: 1f9d 883e 64a0 8d3d 1e72 27be c48b ba39
00000060: 7a5f 843b bdd8 4039 2ba0 27ba 30ea 093a
00000070: 1b0b 71be 6c22 02be 9204 843e 2fcc cf3e
00000080: 0e72 75b9 69a7 2639 ff8c 6b39 3796 2239
00000090: 9474 e038 93a4 a939 b0bb 86b8 6863 8938
000000a0: c7f6 763d e00b b536 7b9c cc38 00e7 8d35
000000b0: 70bf 0bb7 8c47 70b9 8324 fc3d 82c8 3b3c
000000c0: 77fe 9439 332f 25b8 bcda 8038 2eca 5d39
000000d0: 5dff 5bbd 3cea 8cbe b0c5 143e 8637 0239
000000e0: e472 f038 4e39 cbbd 0481 ceb8 060f ae39
000000f0: 2fb5 8bbc 5223 433e 8aec e7bd 26bb 61b9
00000100: c065 8237 76ea 08b9 1342 8db9 5923 9bb9
00000110: 146b d33d 661d ddbd 87e5 3bbe 9c70 1db9
00000120: c537 903e d991 d93d 1610 e2b8 2279 a3b9
00000130: bf71 22be 5787 c23d 7480 823d 654a 03be
00000140: a800 4238 4b48 29b9 2c71 8539 9876 a9bd
00000150: 6425 8e3e b784 6d3e 7065 c9bc e7e2 c538
00000160: d58a 0abd 060b 553d 2992 b7bd 8cea 01b9
00000170: fb23 cdb8 c5ff 8c3e d74e ec3c 97c6 1e3e
00000180: b4b3 3738 64b5 ffb8 b430 08bb 8b48 1ebb
00000190: e2dd 1abe c500 643e 5e04 bab7 4c47 62b7
000001a0: c91c 8a3e 0a4b bbb9 a62c 29b9 38e0 3bb9
000001b0: 7a48 22be 2183 983c c979 abba 792f 5bbe
000001c0: f781 b438 53f9 9bb9 a3d5 aabd a3a8 01be
000001d0: d030 283e 0a7d 333e d7cc 4bbe a70b c23a
000001e0: 1b80 a53e c8d9 663e 0739 78bd b9e1 ef3d
000001f0: 637d 063e 191b b03e fab6 943d 6253 8c3e
00000200: 98aa 11b9 c782 13b9 5359 7f39 9b4a 80b9
00000210: 286a 88b7 9807 4cb8 f5da ce39 df95 c0b8
00000220: ce15 85ba b095 d539 b001 b336 b0e8 c036
00000230: 3da0 3438 1222 7b3a caf9 c5b7 38db aeb7
00000240: 33b7 f938 b89a c1b7 0e15 7a3a b55e 133a
00000250: 72d9 11be 9e42 6439 cd52 4fbe be4f 6db9
00000260: 9548 903d 16ad 10be 2b46 7a39 58cc 83b7
00000270: 72f2 e9bd 0cfc 013e 5575 5d3e 7ff5 073c
00000280: 3ec2 3939 688e a237 8d9c 06bc 884e b03a
00000290: 2fd3 8cbd 0495 613e a1c1 1f3e d028 cd3d
000002a0: f725 8d3e 6663 a2be 7f64 7eb8 ec26 a33d
000002b0: 268c 563e 64f8 fcbd cf99 a73e 0c18 24be
000002c0: a501 a9b9 7ee7 10bb 7481 a93a c554 8e3d
000002d0: a745 953e 5486 93be b5ef d83d 80c3 2b38
000002e0: 054c 52be ae26 183e 282b 683e 5f18 1bba
000002f0: d488 133e 836e 4b3e a4d4 7bbe 26e7 293d
00000300: ade3 c538 805e a1b5 0636 f9b8 2b8c 7db9
00000310: 5fd0 7cbe 2f08 403e 6ea7 6b3e 49f7 c839
00000320: 3684 df3d c13a 2e3e 64a8 86be a0e9 ecb9
00000330: b224 95bd 9ef4 c03e 836c 6ebe 0d40 6bbe
00000340: 2251 0239 2286 a5b9 dc7e 043e ce78 753e
00000350: 81c4 0e38 955b 633e 5eb5 85be 8c28 2eb9
00000360: 0d56 aebd a9ca 94be 0a74 85bd f85c f738
00000370: 67aa 523e 9f01 0237 9613 5d3e f6ce 013d
00000380: d91c 22b9 60f3 3c37 c50c b4bc b088 24b9
00000390: 8d8f 503e 80a6 65be 92d7 1c3e ea00 fcb8
000003a0: 4368 07bd 5e1e 78bd 1148 94b8 faee 8d38
000003b0: 12d3 c13d 698b 1b3e 2408 71bd cb0d 733e
000003c0: bea6 90b7 d656 b838 1814 f438 54fd b139
000003d0: 360a 3038 0252 f83a 0060 1a36 b22a 9439
000003e0: a013 193d 64ce 7ebc 41f5 7939 2213 f238
000003f0: 810c 833d 6414 8438 d6f6 8dbd 566b 29bc
0.00033319404 -4.2763364e-05 0.00084529124 0.100948386 -0.0912603 0.00943559 0.24825276 0.05592556
0.00032346387 -0.20555094 7.218663e-06 0.00028083893 0.017726043 0.28038555 0.3320767 0.012363478
0.00027820864 0.0001581776 9.597221e-06 0.09773967 0.26682374 0.06915358 -0.16352126 0.00035580818
0.004039702 0.00018391288 -0.00063944113 0.0005261032 -0.23539393 -0.12708443 0.25784737 0.40585467
-0.0002340751 0.00015893359 0.00022463872 0.00015505483 0.00010702867 0.0003235681 -6.4245774e-05 6.551185e-05
0.06029394 5.395603e-06 9.756625e-05 1.0572548e-06 -8.329618e-06 -0.00022914837 0.123116516 0.011461379
0.0002841835 -3.9383023e-05 6.144258e-05 0.0002115152 -0.05371033 -0.27522457 0.14528537 0.0001241845
0.00011465492 -0.099230394 -9.8468765e-05 0.0003319906 -0.017054169 0.19056442 -0.11324413 -0.0002152739
1.5544589e-05 -0.00013057314 -0.00026942845 -0.0002959024 0.10323158 -0.10796623 -0.18349276 -0.00015014637
0.2816755 0.10623521 -0.00010779516 -0.00031180034 -0.15863703 0.0949847 0.06372157 -0.12821348
4.6253816e-05 -0.00016144027 0.00025452056 -0.08274573 0.27762902 0.23195158 -0.024584502 9.435956e-05
-0.033823807 0.052012466 -0.08963425 -0.00012389774 -9.7818636e-05 0.27538887 0.028846188 0.15505444
4.379796e-05 -0.00012193134 -0.0020780982 -0.0024152126 -0.15123704 0.22265919 -2.2174961e-05 -1.348725e-05
0.26975086 -0.00035723328 -0.00016133729 -0.00017917238 -0.1584796 0.018617215 -0.001308256 -0.21404828
8.607277e-05 -0.00029749665 -0.08341529 -0.12661986 0.1642487 0.17528167 -0.19902359 0.0014804498
0.323243 0.22544014 -0.06060126 0.11712975 0.13133769 0.34395674 0.072614625 0.27407366
-0.00013891829 -0.00014067731 0.00024351971 -0.00024469648 -1.6261896e-05 -4.8644462e-05 0.00039454518 -9.183189e-05
-0.0010153593 0.00040738052 5.334812e-06 5.7491343e-06 4.3064578e-05 0.0009579967 -2.3600547e-05 -2.0844498e-05
0.00011907369 -2.307944e-05 0.00095398806 0.00056217174 -0.14243105 0.00021768591 -0.2024643 -0.00022631788
0.07045094 -0.14128527 0.00023867998 -1.5711572e-05 -0.11423196 0.12693805 0.2162679 0.008298277
0.00017715336 1.9378218e-05 -0.008216036 0.0013451139 -0.068762176 0.22029501 0.15601207 0.1001755
0.27568027 -0.3171646 -6.0651913e-05 0.07966408 0.209519 -0.12352064 0.32734534 -0.16024798
-0.00032235417 -0.0022110636 0.0012932257 0.06949762 0.29154703 -0.28813422 0.105925955 4.095165e-05
-0.20536812 0.14858505 0.22672713 -0.00059164123 0.14407665 0.19866376 -0.24592835 0.041480206
9.4361e-05 -1.2022938e-06 -0.00011883308 -0.00024180177 -0.24688862 0.18753122 0.23013088 0.00038331214
0.10913889 0.170146 -0.26300347 -0.00045187492 -0.0728239 0.37686628 -0.23283581 -0.22973652
0.0001242799 -0.0003157119 0.12939018 0.23971865 3.4038447e-05 0.22202905 -0.26114935 -0.00016609038
-0.08512507 -0.29060867 -0.06516273 0.000117951946 0.20572816 7.748981e-06 0.21589503 0.031691514
-0.0001546027 1.1262338e-05 -0.021978745 -0.00015691179 0.2036726 -0.22426796 0.15316609 -0.00012016467
-0.033058416 -0.060575835 -7.070613e-05 6.767917e-05 0.094640866 0.151899 -0.058845654 0.2373573
-1.7243783e-05 8.789978e-05 0.000116385694 0.00033948815 4.197118e-05 0.0018945339 2.3003668e-06 0.0002826057
0.03737223 -0.015552137 0.00023837855 0.00011543023 0.06398869 6.2980485e-05 -0.06931846 -0.010340532

b1 f4 [16]
00000000: 2cdc 38b7 fa2b ac38 ca41 423e 54e2 473e
00000010: 704b d23d 4414 09bd 4f9a 50bd 7018 d036
00000020: d718 1d3e e55c 2fbd d9cf 8abc 9232 8339
00000030: fcd3 07bd 6258 c93d a19a e93d 7dc3 473e
-1.1018517e-05 8.2097904e-05 0.18970409 0.19519931 0.10268295 -0.033466592 -0.05092841 6.201728e-06
0.15341507 -0.0428132 -0.016944813 0.00025023945 -0.03316115 0.09831311 0.11406446 0.19508167

W2 f4 [16, 1]
00000000: e576 bfb9 95ec 9137 c35c 9e3e ae60 a93e
00000010: 6b40 ca3e e919 d2be 691d c7be 4bb0 dc39
00000020: 7143 c13e 37f8 17be fa23 22be 4f08 553d
00000030: ee26 0fbf c3d8 da3e c598 c53e 20b0 273f
-0.00036518942 1.7395514e-05 0.30930147 0.33081573 0.39502272 -0.41035393 -0.38889626 0.00042093018
0.37746766 -0.1484078 -0.15834036 0.052009877 -0.55918777 0.427435 0.38593116 0.6550312
