published_data/SSA aerobic full CDM (TL)/final_models/bag_model_24.pkl (torch, 339431 bytes, 21 tensors)

weight f4 [64, 39]
-0.042161558 0.103471555 0.024317162 -0.035702165 0.23816586 0.015315648 0.00030685824 -0.097301774
0.041566245 0.17961012 -0.011252764 0.029572291 -0.034717847 -0.120363615 -0.064898126 -0.06049231
0.04541074 0.15607244 0.16959414 -0.09931326 -0.031994086 0.009637949 -0.09592559 -0.112550154
-0.04632966 0.13556379 -0.05908157 0.14455128 0.09163284 -0.067329966 -0.016626146 -0.08851514
0.063329 -0.010553211 -0.13186236 -0.038513068 0.1024698 -0.15131615 0.044766396 -0.089752264
-0.059669435 -0.039534073 -0.19230802 0.0747505 -0.02195075 0.13122353 0.099609345 0.07120412
-0.14710337 -0.05511508 -0.049086384 0.05536929 0.055475235 -0.054738775 0.13058698 0.05306503
0.1654959 -0.13039303 -0.06329669 0.103208035 -0.15974092 0.0119889565 0.06244826 0.03153841
-0.018312782 0.040677007 0.050061814 0.0133861685 -0.06460659 0.14233871 -0.11840311 -0.04497967
0.032018516 0.12626691 -0.078467935 0.08023378 0.00011952703 0.07702846 0.10058082 -0.00938889
0.0010510532 0.07293014 -0.14952761 0.105027154 -0.11903128 -0.12419486 -0.09934652 0.20273069
-0.061393447 0.033796743 0.042313226 -0.19188687 -0.033111192 -0.08884281 0.0012365902 -0.14208177
0.15893035 0.12575848 -0.020166432 0.038766667 0.08454423 -0.049825594 -0.18019065 -0.12594368
0.14020336 0.13067444 -0.09229576 0.0506017 -0.07807247 -0.09314913 0.12394004 0.015464607
-0.077281274 -0.11963609 0.05754892 0.04408561 0.17628296 -0.122738056 0.0044632754 0.070977755
0.157303 0.08339736 -0.0888936 0.12905371 0.070320345 0.022909358 0.1522508 -0.17293306
0.019625336 -0.06322637 -0.16003878 0.02869912 0.14167342 -0.13760495 -0.18228398 0.14359841
0.080048464 -0.031101003 0.054136373 -0.012205962 -0.13636485 0.03520418 0.081971206 -0.10259731
-0.050194796 0.06822081 -0.07866909 0.16341034 0.1063574 0.056817643 -0.12182798 0.01434609
0.015863411 -0.13330616 0.0215623 0.08803055 0.040551376 0.038788307 0.035433214 -0.01792808
-0.13796364 0.0314593 0.11764733 0.009930149 -0.100182846 -0.15153073 -0.07255608 0.022816874
0.06251789 -0.017895006 -0.034892272 -0.0022001404 0.17279002 -0.08202079 0.14798729 -0.16437663
0.07335459 -0.008499508 -0.149199 0.17362872 -0.050512433 -0.02924765 0.09298597 0.10878339
0.17285521 0.0043831333 -0.039203625 -0.13421397 -0.092754595 0.011449478 -0.10487592 0.103916645
-0.08019645 -0.0710953 0.10952585 -0.06406757 0.11073821 0.034530595 -0.07495598 0.026234364
0.047959078 -0.033942893 -0.016132569 -0.09835626 -0.03138588 0.16315728 -0.10514831 0.09255024
-0.01826385 -0.0927038 0.047330357 0.039031796 0.043602023 -0.0045602764 -0.12012028 0.0026465722
-0.14714725 0.11695224 -0.082922615 -0.053311087 -0.044781573 0.020628506 -0.01709381 -0.1858596
-0.14712182 -0.09382071 -0.23794079 0.11024588 0.12303006 0.17780529 -0.123320706 0.11872595
0.08615363 0.15276673 -0.098192535 -0.046063043 0.03217083 0.08972736 -0.074335076 -0.17545363
-0.29915473 0.13122042 -0.010504455 0.02092892 0.0396838 -0.02684957 -0.05582472 -0.031125028
0.030482017 0.12111299 -0.06610864 -0.025057025 0.1010655 0.086091064 0.047312636 -0.01013147
00000000: 99b1 2cbd e5e8 d33d c934 c73c 6f3c 12bd
00000010: c0e1 733e 7cee 7a3c d1e1 a039 2746 c7bd
00000020: 5e41 2a3d b7eb 373e 835d 38bc 9741 f23c
00000030: 4d34 0ebd 3381 f6bd 4fe9 84bd c9c6 77bd
00000040: 9d00 3a3d 74d1 1f3e 16aa 2d3e c064 cbbd
00000050: 3b0c 03bd 7de8 1d3c a374 c4bd b280 e6bd
00000060: 2bc4 3dbd 3cd1 0a3e 84ff 71bd 4005 143e
00000070: 00aa bb3d 4be4 89bd 8e33 88bc 6d47 b5bd
00000080: a2b2 813d 60e7 2cbc ed06 07be e1bf 1dbd
00000090: b0db d13d 9ff2 1abe f85c 373d 09d0 b7bd
000000a0: f067 74bd 7bee 21bd 65ec 44be ca16 993d
000000b0: 0fd2 b3bc 765f 063e fcff cb3d 77d3 913d
000000c0: 44a2 16be 5ac0 61bd ce0e 49bd e9ca 623d
000000d0: 003a 633d c435 60bd 98b8 053e b85a 593d
000000e0: c277 293e c085 05be b2a1 81bd bc5e d33d
000000f0: 2093 23be 546d 443c bfc9 7f3d 6b2e 013d
00000100: b004 96bc ef9c 263d 9e0d 4d3d a951 5b3c
00000110: 7650 84bd 3dc1 113e 547d f2bd 9a3c 38bd
00000120: d925 033d 1d4c 013e ccb3 a0bd 9c51 a43d
00000130: 96aa fa38 19c1 9d3d 51fd cd3d dcd3 19bc
00000140: 7ec3 893a 665c 953d c41d 19be 7a18 d73d
00000150: acc6 f3bd e059 febd 3076 cbbd a298 4f3e
00000160: b277 7bbd 746e 0a3d a250 2d3d fe7d 44be
00000170: 9a9f 07bd 38f3 b5bd 1515 a23a e27d 11be
00000180: a3be 223e d5c6 003e 1334 a5bc ccc9 1e3d
00000190: 8625 ad3d ec15 4cbd e683 38be 61f7 00be
000001a0: 7891 0f3e 85cf 053e 8f05 bdbd ba43 4f3d
000001b0: 76e4 9fbd f9c4 bebd 47d4 fd3d 435f 7d3c
000001c0: a545 9ebd c403 f5bd 6bb8 6b3d 1d93 343d
000001d0: 8583 343e 175e fbbd ab40 923b c95c 913d
000001e0: 0a14 213e 3ccc aa3d d90d b6bd a826 043e
000001f0: 1d04 903d 68ac bb3c a2e7 1b3e 5d15 31be
00000200: 50c5 a03c d47c 81bd 35e1 23be 6b1a eb3c
00000210: d612 113e 50e8 0cbe a7a8 3abe 760b 133e
00000220: 73f0 a33d 88c7 febc 1abe 5d3d 84fb 47bc
00000230: 3aa3 0bbe 4232 103d 85e0 a73d 8a1e d2bd
00000240: 0f99 4dbd 5ab7 8b3d 431d a1bd 0a55 273e
00000250: e9d1 d93d 9eb9 683d f380 f9bd dd0b 6b3c
00000260: fcf3 813c 6981 08be 6ca3 b03c 5c49 b43d
00000270: 3319 263d 7de0 1e3d 6b22 113d e9dd 92bc
00000280: 5746 0dbe 78db 003d 15f1 f03d 10b2 223c
00000290: aa2c cdbd df2a 1bbe 4898 94bd 74ea ba3c
000002a0: 6109 803d 8c98 92bc 33eb 0ebd 3b30 10bb
000002b0: deef 303e 84fa a7bd fb89 173e 5952 28be
000002c0: ee3a 963d 8541 0bbc 9fc7 18be bacb 313e
000002d0: 20e6 4ebd c598 efbc 6e6f be3d d3c9 de3d
000002e0: f500 313e 63a0 8f3b fb93 20bd 636f 09be
000002f0: 1ff6 bdbd 9796 3b3c 30c9 d6bd 40d2 d43d
00000300: 093e a4bd 6a9a 91bd 174f e03d dc35 83bd
00000310: b7ca e23d f46f 0d3d 8582 99bd 73e9 d63c
00000320: bd70 443d b407 0bbd 7328 84bc 026f c9bd
00000330: 7b8e 00bd b412 273e ff57 d7bd fb8a bd3d
00000340: 129e 95bc 7ddb bdbd 7add 413d cedf 1f3d
00000350: 0998 323d 5f6e 95bb 9f01 f6bd 1d72 2d3b
00000360: c5ad 16be a884 ef3d 55d3 a9bd ba5c 5abd
00000370: e26c 37bd 1dfd a83c 5108 8cbc fb51 3ebe
00000380: 1aa7 16be 1325 c0bd c0a6 73be 98c8 e13d
00000390: 2ff7 fb3d 9712 363e 918f fcbd 9726 f33d
000003a0: 5071 b03d e26e 1c3e 2b19 c9bd 9aac 3cbd
000003b0: 8fc5 033d fac2 b73d fd3c 98bd 1eaa 33be
000003c0: cf2a 99be a55e 063e e11a 2cbc 2073 ab3c
000003d0: 7b8b 223d a1f3 dbbc 76a8 64bd eaf9 febc
000003e0: 6cb5 f93c 160a f83d f763 87bd 6444 cdbc
000003f0: 6efb ce3d 8350 b03d e5ca 413d 77fe 25bc

bias f4 [64]
-0.017181078 0.09387358 -0.028828561 -0.16943097 3.0015468e-05 -0.0015775731 0.005842709 -0.015175583
-0.033048052 0.061854333 0.16244668 -0.12604386 0.04589324 -0.07235663 0.11206378 -0.039552364
-0.03371406 0.09873683 0.0062234798 0.10570803 0.08116364 -0.07888455 -0.070885904 -0.1297907
0.004279593 -0.0059424946 0.056420192 -0.055637904 0.03790185 0.10599976 -0.15879641 0.08636218
-0.053630978 -0.15898092 0.16215253 0.019897744 -0.024411414 -0.12688574 -0.0015668557 -0.1450046
-0.10046066 0.14190912 -0.0895316 -0.0019548433 -0.06429427 0.04404086 -0.093325615 0.047613695
-0.12735577 -0.12674978 0.0389948 -0.046768937 -0.13657638 0.09786123 -0.05024191 -0.03336344
-0.10066138 0.0017555536 -0.10270951 0.08003146 0.0056437175 -0.07628462 -0.018670814 -0.08104202
00000000: 55bf 8cbc cb40 c03d e029 ecbc 507f 2dbe
00000010: bac9 fb37 92c6 ceba 3274 bf3b 02a3 78bc
00000020: 655d 07bd f85a 7d3d 6c58 263e a411 01be
00000030: 8dfa 3b3d b62f 94bd b281 e53d a901 22bd
00000040: c117 0abd 8936 ca3d 55ee cb3b 747d d83d
00000050: 1f39 a63d 398e a1bd a12c 91bd dae7 04be
00000060: d43b 8c3b 42b9 c2bb dc18 673d 92e4 63bd
00000070: f83e 1b3d 6716 d93d 879b 22be a8de b03d
00000080: 28ac 5bbd e5cb 22be 500b 263e 9800 a33c
00000090: 72fa c7bc 56ee 01be f45e cdba 167c 14be
000000a0: 52be cdbd a050 113e 585c b7bd d41c 00bb
000000b0: b7ac 83bd 3064 343d 8021 bfbd 9406 433d
000000c0: 8d69 02be b2ca 01be 03b9 1f3d c990 3fbd
000000d0: aeda 0bbe 786b c83d 76ca 4dbd 1aa8 08bd
000000e0: 8e27 cebd 9b1a e63a 5d59 d2bd 89e7 a33d
000000f0: efee b83b 1c3b 9cbd 89f3 98bc 5cf9 a5bd

weight f4 [256, 64]
-0.21046148 0.011341646 -0.1495417 -0.06292071 -0.08125091 -0.12409942 0.012126763 -0.17906523
-0.023376279 -0.17591313 0.11798578 -0.012880789 -0.0068446808 0.29096106 -0.10996651 0.12515162
-0.05862187 -0.19063802 0.055759754 -0.004061985 -0.11338254 0.0143007925 0.15930913 -0.042958517
0.22157504 0.06045843 -0.12585066 0.059949692 0.0786323 0.19907776 0.0031331123 -0.08453467
0.17306751 -0.090562634 0.09572251 -0.04341321 0.11224519 -0.0103761135 -0.07974389 -0.009669064
0.061381005 0.1344579 0.041260503 0.12049842 -0.024318196 0.13040365 0.04733487 0.0020431965
0.107945696 -0.048912447 0.062252358 -0.052078627 -0.18952225 -0.15611361 0.11840888 0.09037548
0.0534388 0.24498689 0.09901595 0.08284875 -0.017652426 -0.15871327 -0.029471 -0.117164195
-0.04868704 0.034118447 0.051317763 0.12068234 -0.10445888 -0.01952073 -0.11154635 0.1380779
0.06485554 -0.069030985 0.016456861 0.07102423 -0.014620146 -0.10701617 0.06854995 -0.0797207
0.08946291 0.05083759 0.11838689 0.08307654 -0.010259327 -0.06326068 -0.14251183 0.0023673149
-0.048226453 0.110339805 -0.0557523 -0.08877704 -0.036984283 -0.010249368 -0.025179138 -0.17437683
0.092634454 0.088448144 0.03552919 -0.076692335 -0.084087245 -0.060640693 -0.055337068 -0.04134951
0.11972391 -0.051228788 -0.046922512 -0.10008361 0.065099366 -0.012268322 0.029696783 -0.13243765
-0.062461212 0.05510245 -0.07354036 -0.015848426 0.061850615 0.028287025 0.0023786388 0.0342175
0.05956564 0.0031060362 -0.0655022 0.10047965 -0.100634135 0.11430425 -0.00015686828 0.05079317
-0.038228456 0.0134530775 0.11819225 0.13665485 -0.13025354 0.14565797 0.011657897 0.026825378
-0.018675083 -0.15798792 0.042700518 0.10249285 -0.06736887 0.17082292 0.0059859604 0.0011892652
-0.051796116 0.14700255 0.015789304 0.094828025 -0.14075315 -0.06735941 0.033629227 0.030599318
-0.0010189255 0.030327749 0.12295575 -0.04345478 0.0018542612 -0.036040045 -0.02062645 0.17010882
0.19565022 0.0108443275 0.12220591 -0.15595274 0.100986324 0.096538864 -0.08972276 0.15432608
-0.040545132 0.094557054 0.02130348 -0.008063559 0.0994356 0.061176624 -0.059602156 -0.11061641
0.024494579 -0.08318033 0.03497202 -0.06764716 -0.060643367 -0.087332666 -0.15948792 -0.12798099
-0.08420172 0.06690018 0.033708625 0.071868695 -0.08710211 0.0751375 -0.016349142 -0.042470843
-0.03279249 0.079279944 -0.13085273 0.0071088946 0.1491132 0.07748889 0.19567278 -0.0098796375
0.16916513 0.12931204 0.18300836 -0.11375825 0.07858693 0.06564579 0.087280475 -0.08388737
0.057399195 -0.16031146 0.06180641 -0.11485223 0.0037785403 0.02826366 -0.022611327 0.070310004
0.09849131 -0.15898445 0.032914165 0.003425457 0.14950839 0.06028861 -0.03235463 -0.039997425
-0.050345954 0.07575777 -0.036573343 0.02754267 -0.019231264 0.32233745 0.033290993 -0.017835852
-0.1091481 -0.040661633 0.035463702 -0.041117314 -0.033267517 0.06954435 -0.28463387 -0.026184632
0.048103996 0.053483814 0.13004774 0.10367849 -0.06537947 -0.044422697 0.07133247 -0.024030661
0.030653981 0.032487378 -0.110985585 -0.12528309 0.042708784 0.05376859 0.13263565 0.15727635
00000000: 3783 57be 50d2 393c 7621 19be 93dc 80bd
00000010: e166 a6bd d627 febd 55af 463c e05c 37be
00000020: 9c7f bfbc 9222 34be 87a2 f13d f209 53bc
00000030: 5849 e0bb d9f8 943e 1f36 e1bd bf27 003e
00000040: 7c1d 70bd 9d36 43be 5764 643d 661a 85bb
00000050: 1b35 e8bd df4d 6a3c ef21 233e 45f5 2fbd
00000060: 91e4 623e 42a3 773d ffde 00be cf8d 753d
00000070: f909 a13d 0adb 4b3e e754 4d3b 8320 adbd
00000080: 9c38 313e e778 b9bd 2a0a c43d 0dd2 31bd
00000090: cee0 e53d 9300 2abc c450 a3bd fe6a 1ebc
000000a0: a66a 7b3d 55af 093e c600 293d e0c7 f63d
000000b0: f436 c7bc 8988 053e 35e2 413d 26e7 053b
000000c0: a212 dd3d 6b58 48bd 54fc 7e3d 6650 55bd
000000d0: 1f12 42be 3fdc 1fbe 5b80 f23d c816 b93d
000000e0: a5e2 5a3d d8dd 7a3e e0c8 ca3d 9bac a93d
000000f0: d29b 90bc bb85 22be 2b6d f1bc c8f3 efbd
00000100: 106c 47bd c9bf 0b3d 9332 523d 4d28 f73d
00000110: 8aee d5bd f0e9 9fbc 6a72 e4bd 4b64 0d3e
00000120: fbd2 843d 1e60 8dbd 8ad0 863c 2775 913d
00000130: 5689 6fbc 4b2b dbbd eb63 8c3d 9b44 a3bd
00000140: 5538 b73d 143b 503d d374 f23d 0824 aa3d
00000150: bc16 28bc d18e 81bd 9fee 11be f424 1b3b
00000160: 1a89 45bd d6f9 e13d 865c 64bd bdd0 b5bd
00000170: d57c 17bd f7ec 27bc 7b44 cebc d78f 32be
00000180: 22b7 bd3d 4d24 b53d 0e87 113d df10 9dbd
00000190: ef35 acbd 6062 78bd 1fa9 62bd 1b5e 29bd
000001a0: cf31 f53d 47d5 51bd d231 40bd a3f8 ccbd
000001b0: d152 853d 1201 49bc ab46 f33c bc9d 07be
000001c0: 54d7 7fbd 1bb3 613d 549c 96bd 8fd4 81bc
000001d0: 1257 7d3d 31ba e73c f0e2 1b3b a627 0c3d
000001e0: 1afb 733d a48e 4b3b 0426 86bd 46c8 cd3d
000001f0: 4519 cebd 5918 ea3d 027d 24b9 800c 503d
00000200: 7195 1cbd 4c6a 5c3c c70e f23d 40ef 0b3e
00000210: 2f61 05be 5d27 153e c400 3f3c e5c0 db3c
00000220: 7dfc 98bc 96c7 21be bde6 2e3d c5e7 d13d
00000230: b1f8 89bd 34ec 2e3e e025 c43b 1ee1 9b3a
00000240: 2a28 54bd d687 163e 9258 813c 3235 c23d
00000250: 9821 10be bbf3 89bd cdbe 093d 6cab fa3c
00000260: 778d 85ba e671 f83c 39d0 fb3d a4fd 31bd
00000270: ae0a f33a ba9e 13bd cdf8 a8bc 0231 2e3e
00000280: 8858 483e 68ac 313c 1847 fa3d 13b2 1fbe
00000290: ebd1 ce3d 2bb6 c53d 91c0 b7bd a807 1e3e
000002a0: a712 26bd 21a7 c13d a384 ae3c 051d 04bc
000002b0: e4a4 cb3d 5794 7a3d 6421 74bd db8a e2bd
000002c0: dba8 c83c 735a aabd d23e 0f3d 988a 8abd
000002d0: 2e65 78bd 78db b2bd cd50 23be 730d 03be
000002e0: f471 acbd f602 893d 0e12 0a3d e52f 933d
000002f0: 9762 b2bd b1e1 993d a3ee 85bc e8f5 2dbd
00000300: 6b51 06bd 865d a23d 42fe 05be bbf1 e83b
00000310: 21b1 183e 7fb2 9e3d 725e 483e 34de 21bc
00000320: a039 2d3e 606a 043e 8b66 3b3e 16fa e8bd
00000330: 2ff2 a03d 4d71 863d 1bc0 b23d 24cd abbd
00000340: 6b1b 6b3d b028 24be b828 7d3d a537 ebbd
00000350: 63a1 773b 3189 e73c 643b b9bc b1fe 8f3d
00000360: d0b5 c93d d2cc 22be 01d1 063d a27d 603b
00000370: ba18 193e 31f1 763d 4a86 04bd 57d4 23bd
00000380: 8f37 4ebd e426 9b3d eecd 15bd 2aa1 e13c
00000390: e28a 9dbc 6a09 a53e 235c 083d 7e1c 92bc
000003a0: 0a89 dfbd d08c 26bd 6342 113d a16a 28bd
000003b0: 8543 08bd 456d 8e3d 88bb 91be 2781 d6bc
000003c0: b208 453d d811 5b3d 3c2b 053e 6355 d43d
000003d0: ace5 85bd 93f4 35bd c216 923d f3db c4bc
000003e0: 0f1e fb3c 7c11 053d 694c e3bd 364a 00be
000003f0: 68ef 2e3d 743c 5c3d a4d1 073e 0d0d 213e

bias f4 [256]
0.03879775 0.08044528 -0.019963784 -0.095627904 0.022438737 0.02143219 0.0844623 0.0249471
0.085117996 0.06158261 0.10315504 -0.054240394 0.1282238 0.037720583 0.088452 -0.0358177
0.078893155 -0.033880584 0.027537335 -0.1326666 0.09320326 -0.05612266 -0.08938653 -0.039828934
-0.011265116 0.07347565 -0.08131381 -0.078519315 -0.07326383 0.015862074 0.12569371 0.10281487
0.018179858 0.12606436 0.08801109 0.03697165 0.06698326 0.114661366 0.08407828 0.057030603
0.09838177 -0.027201703 -0.07206534 0.08962901 0.09360152 -0.05464586 0.06508588 -0.11343278
0.16076788 0.041516967 0.0448494 0.06217585 0.097604595 -0.071137324 0.0019398382 -0.07033856
-0.014881771 0.112127595 -0.061221413 0.11153716 0.0056431605 0.14621328 -0.0011899787 0.010935077
0.10340464 -0.031711515 0.051982637 -0.031739317 -0.13321133 -0.08513061 0.13422684 -0.06386032
-0.073734514 0.011324338 0.08571165 0.01251191 -0.11952033 0.04820566 0.0658521 -0.093463235
-0.041986223 0.037111435 0.025024958 -0.054985534 -0.0034764463 -0.0541268 0.103773475 0.08366665
-0.08072404 0.022770299 0.054485038 -0.010596693 -0.11133568 -0.04216482 0.062390313 0.11684024
-0.110713065 0.008024 -0.0068698144 -0.09731146 0.08851014 0.14528589 -0.09124057 -0.03045177
-0.085638 -0.064863324 -0.07286817 0.054633956 -0.09213991 -0.039583836 0.035357393 0.05725281
-0.0058328365 -0.08419598 0.057576556 -0.019604607 -0.00011187527 -0.08601955 -0.033651788 -0.10279866
0.09212125 0.09547942 -0.07587692 0.13766994 -0.029045232 0.10425159 -0.13125624 -0.02623749
-0.1291271 -0.017050607 -0.03908766 -0.06948224 -0.01799063 -0.029615074 0.020457558 0.048085026
-0.12557918 -0.07435865 0.024554258 -0.075524926 -0.10798735 -0.11286369 -0.098620825 0.1148006
-0.09933028 0.08032396 0.07657372 0.06437699 -0.112562284 0.14280713 0.061202604 -0.036042932
0.06357829 -0.042352043 0.05997169 0.0736166 -0.036146287 0.14335614 0.082523525 -0.05804155
0.058469802 0.06691981 -0.10217668 0.087314755 -0.011173678 0.10816382 0.08849112 -0.11074562
-0.028117029 0.0048944214 0.095717385 -0.122244865 -0.033030044 -0.012409242 -0.08985607 -0.10666369
0.097086854 -0.045903623 0.0938592 -0.08547867 -0.025288487 -0.05236789 -0.0941364 0.0659282
0.056275737 0.008628229 -0.009437721 -0.09097144 -0.07418149 -0.045827728 0.08706866 -0.0056965053
-0.041059364 0.021380093 0.104983635 -0.10110723 -0.07722662 -0.032309804 -0.0116578 -0.12749745
0.00096292957 -0.100823656 0.030429512 -0.084361956 0.09868946 0.061259322 -0.026444994 -0.003922766
-0.069405936 0.07331981 0.0058291405 0.11885713 0.016695412 0.13690625 0.113860816 0.05189384
0.03033762 0.038336977 -0.07565664 0.05673271 -0.06455327 -0.01279374 -0.09564718 -0.088031396
-0.11032289 0.048282526 0.08205679 0.020631872 0.049397495 0.10376838 0.05061289 -0.07704406
0.11837349 -0.020158652 0.024329016 -0.03820078 0.090969734 -0.039341226 0.024483362 0.023431674
0.022132482 0.11712391 0.06841854 0.050652064 0.112982385 -0.037333116 0.06522854 -0.06250418
-0.045083284 0.05179317 -0.0035199814 -0.027934296 -0.068849154 0.09540996 0.050009396 0.118749775
00000000: 64ea 1e3d 7fc0 a43d 178b a3bc 90d8 c3bd
00000010: 71d1 b73c 8f92 af3c 92fa ac3d dc5d cc3c
00000020: 5852 ae3d 0c3e 7c3d f342 d33d 2d2b 5ebd
00000030: 1a4d 033e e680 1a3d 5226 b53d 95b5 12bd
00000040: bc92 a13d 5ec6 0abd fa95 e13c c1d9 07be
00000050: 5ae1 be3d e0e0 65bd 4910 b7bd aa23 23bd
00000060: 5291 38bc 677a 963d db87 a6bd bcce a0bd
00000070: 590b 96bd 2ef1 813c dab5 003e 9a90 d23d
00000080: eded 943c 0417 013e 293f b43d 966f 173d
00000090: 852e 893d 94d3 ea3d 3c31 ac3d ec98 693d
000000a0: 627c c93d 1bd6 debc fe96 93bd 6a8f b73d
000000b0: 27b2 bf3d 56d4 5fbd bf4b 853d 724f e8bd
000000c0: 56a0 243e b20d 2a3d 01b4 373d 1bac 7e3d
000000d0: ebe4 c73d 72b0 91bd 2b42 fe3a aa0d 90bd
000000e0: acd2 73bc 27a3 e53d 4ec3 7abd 986d e43d
000000f0: 43ea b83b efb8 153e 0ff9 9bba 0a29 333c
00000100: d0c5 d33d efe3 01bd bfeb 543d 1601 02bd
00000110: 8d68 08be f558 aebd c372 093e 33c9 82bd
00000120: 1f02 97bd b789 393c 9789 af3d c1fe 4c3c
00000130: 13c7 f4bd 4c73 453d 77dd 863d a769 bfbd
00000140: bff9 2bbd 2902 183d 2401 cd3c 8338 61bd
00000150: 17d5 63bb 10b4 5dbd 3087 d43d 6c59 ab3d
00000160: a552 a5bd c788 ba3c b42b 5f3d c09d 2dbc
00000170: f603 e4bd 05b5 2cbd fc8c 7f3d f049 ef3d
00000180: 88bd e2bd 1877 033c 2e1c e1bb 3b4b c7bd
00000190: ce44 b53d d3c5 143e 56dc babd fe75 f9bc
000001a0: fa62 afbd 10d7 84bd e83b 95bd dbc7 5f3d
000001b0: d9b3 bcbd a922 22bd ead2 103d ec81 6a3d
000001c0: 6121 bfbb f16e acbd 65d5 6b3d d799 a0bc
000001d0: 949e eab8 052b b0bd 75d6 09bd 1b88 d2bd
000001e0: 11aa bc3d b78a c33d 5c65 9bbd 59f9 0c3e
000001f0: 44f0 edbc dc81 d53d 0968 06be 01f0 d6bc
00000200: e539 04be b7ad 8bbc 621a 20bd b44c 8ebd
00000210: 1661 93bc 509b f2bc 9c96 a73c cef4 443d
00000220: d497 00be 5949 98bd 0326 c93c d0ac 9abd
00000230: 7928 ddbd 1425 e7bd b7f9 c9bd 941c eb3d
00000240: ad6d cbbd e380 a43d afd2 9c3d 15d8 833d
00000250: 0e87 e6bd 083c 123e 95af 7a3d c1a1 13bd
00000260: 5635 823d 5679 2dbd e0a4 753d 4dc4 963d
00000270: 210e 14bd f4cb 123e 1802 a93d fabc 6dbd
00000280: 087e 6f3d 410d 893d 0242 d1bd 14d2 b23d
00000290: cd11 37bc fe84 dd3d d53a b53d 9ace e2bd
000002a0: af55 e6bc 6261 a03b 7a07 c43d 845b fabd
000002b0: 834a 07bd 2250 4bbc 7606 b8bd 7e72 dabd
000002c0: 79d5 c63d 7005 3cbd 4139 c03d 710f afbd
000002d0: cd29 cfbc b67f 56bd 96ca c0bd 5d05 873d
000002e0: 6381 663d 6a5d 0d3c aca0 1abc 3c4f babd
000002f0: 77ec 97bd dbb5 3bbd 0e51 b23d c0a9 babb
00000300: dd2d 28bd 4e25 af3c a901 d73d 4f11 cfbd
00000310: fd28 9ebd 4957 04bd 5b00 3fbc b18e 02be
00000320: 1c6d 7c3a a27c cebd 5047 f93c f6c5 acbd
00000330: b31d ca3d 0eeb 7a3d 2ca3 d8bc 8c8a 80bb
00000340: b324 8ebd b228 963d 6002 bf3b 5e6b f33d
00000350: d1c4 883c 2731 0c3e dc2f e93d a38e 543d
00000360: 9a86 f83c 3c07 1d3d def1 9abd 8f60 683d
00000370: 8134 84bd d69c 51bc abe2 c3bd ce49 b4bd
00000380: f8f0 e1bd e6c3 453d 640d a83d 2c04 a93c
00000390: 0755 4a3d 8484 d43d 764f 4f3d 47c9 9dbd
000003a0: cd6d f23d c223 a5bc a54d c73c 6c78 1cbd
000003b0: 574e ba3d 4424 21bd 5591 c83c c8f3 bf3c
000003c0: 2e4f b53c a9de ef3d 051f 8c3d 8a78 4f3d
000003d0: 4f63 e73d 9cea 18bd 8a96 853d 3102 80bd
000003e0: 40a9 38bd 1325 543d 7daf 66bb 77d6 e4bc
000003f0: c900 8dbd 4c66 c33d a7d6 4c3d 1533 f33d

weight f4 [32, 256]
-0.032903153 -0.055985853 0.11896968 0.14140846 -0.05695257 -0.037260443 -0.034106355 -0.070149675
-0.007019759 0.0048879795 0.047715902 -0.037900586 0.09031268 0.08987112 -0.03932766 0.10189867
-0.041837547 0.037056096 -0.09393808 -0.010230245 0.0938635 -0.03147911 0.09860423 0.044737384
-0.027092678 0.02411515 -0.0015053503 0.03393818 -0.057819087 0.11281699 -0.011561328 0.023063542
0.05569482 0.01372231 0.053423755 -0.080428325 0.03761545 0.012307327 -0.018978272 -0.0049240245
0.057788562 0.0433873 -0.033736497 -0.18405868 0.05768775 -0.015597768 0.028959235 0.06345278
-0.17735355 0.09075384 0.028231414 -0.028559288 0.050173435 0.046826974 0.13796945 -0.047447793
0.030686714 0.055139404 0.0075173886 -0.086692326 0.0910498 0.057753883 -0.072028406 0.06721912
-0.0286803 0.030773453 -0.01433226 0.04861622 -0.11098348 0.03746275 -0.0009707309 -0.055217396
-0.019848801 0.047456224 0.025839204 0.09090384 -0.022036789 0.07707968 0.06694022 -0.02412232
0.010993306 0.07146446 -0.009745588 0.04211508 -0.0677397 -0.04700742 -0.015176084 0.02975833
-0.029893443 -0.05363555 -0.001980264 -0.011718244 0.0026893879 0.037131734 -0.04023963 -0.017133472
0.033807162 0.032854404 -0.039412197 -0.02075136 0.06747257 0.013675788 0.024519145 -0.0047843866
0.0041059246 -0.059529305 -0.14205821 0.008723988 -0.033517588 0.024027793 0.047442645 -0.0252074
-0.021154037 -0.21226509 0.06708305 -0.04375674 -0.07157317 0.0095775295 0.041401263 -0.12805884
0.070124686 0.014068156 0.032954052 0.067232005 0.06822813 -0.003878853 0.0011935076 -0.07818421
0.01948123 0.0237583 -0.022945525 0.06693493 0.011169269 -0.036672574 -0.028586604 0.028780142
-0.053061854 -0.011206985 0.067301825 0.039707564 -0.03276929 0.050952256 0.04646887 0.0650776
0.071785145 0.0073688845 -0.008710079 -0.0111905355 -0.021942595 0.07710592 0.101910286 0.01609792
0.06557005 0.068400465 0.0012245297 -0.041390274 0.035333775 0.020273464 0.08286122 -0.018003719
0.04531572 -0.033442866 0.02063785 -0.03274394 0.03319501 0.048971362 0.049289633 -0.026372094
0.107758164 0.07995967 -0.041586507 0.034714386 0.013285531 0.019821692 -0.001354022 0.06357159
-0.0008078696 0.0033267145 0.033052444 0.038125433 0.017871734 0.071682066 0.01947547 0.013939278
0.031822894 0.20099992 0.03419217 -0.0871443 0.0007498815 -0.009882581 0.038683444 -0.013643272
-0.081889816 -0.02820748 0.07388611 0.0042552818 -0.047197502 -0.16581202 0.10719949 -0.016434511
-0.057955813 0.08505329 0.038675584 0.07653801 -0.043331206 0.028962852 0.033111315 -0.037367094
-0.17892276 0.039053537 -0.056838356 0.1301988 -0.013713858 0.03380853 0.061557 -0.033064157
0.02979799 -0.0077839955 0.07905495 -0.00991284 -0.03370999 -0.047963988 0.02660699 -0.032926258
-0.03282799 -0.008511814 -0.0069116927 0.087962426 -0.030892814 0.06682714 0.024418982 0.05061054
0.0044859904 0.15069441 0.040481452 0.037391625 0.046939403 -0.053768933 -0.03666143 -0.019622538
0.013301278 0.0425203 0.0056342618 -0.012616861 6.743286e-05 0.06252855 0.04298735 0.02881743
-0.03757439 -0.040757313 -0.037300687 0.0331081 -0.13145183 -0.021572396 -0.0051827687 0.044951133
00000000: 75c5 06bd 6c51 65bd 60a6 f33d 61cd 103e
00000010: 1947 69bd 689e 18bd 1bb3 0bbd a2aa 8fbd
00000020: 0206 e6bb 582b a03b c071 433d a53d 1bbd
00000030: dbf5 b83d 5a0e b83d 0a16 21bd 40b0 d03d
00000040: d95d 2bbd 22c8 173d 9c62 c0bd c29c 27bc
00000050: 823b c03d 3df0 00bd 04f1 c93d 8c3e 373d
00000060: 77f1 ddbc 238d c53c 2d4f c5ba c302 0b3d
00000070: b5d3 6cbd 980c e73d b96b 3dbc c1ef bc3c
00000080: 4020 643d 8ad3 603c ded2 5a3d 9bb7 a4bd
00000090: a812 1a3d aca4 493c 5278 9bbc b659 a1bb
000000a0: b3b3 6c3d e2b6 313d 482f 0abd e179 3cbe
000000b0: fd49 6c3d c88d 7fbc eb3b ed3c 88f3 813d
000000c0: 2b9c 35be 26dd b93d 9145 e73c 2bf5 e9bc
000000d0: a982 4d3d a4cd 3f3d dd47 0d3e 9e58 42bd
000000e0: b462 fb3c dbd9 613d 6d54 f63b bf8b b1bd
000000f0: 5178 ba3d 568f 6c3d a183 93bd 2eaa 893d
00000100: f3f2 eabc 9c18 fc3c dbd1 6abc cd21 473d
00000110: 4f4b e3bd 8a72 193d a678 7eba a32b 62bd
00000120: f499 a2bc 7561 423d bdac d33c cb2b ba3d
00000130: 7f86 b4bc f4db 9d3d f417 893d 2c9c c5bc
00000140: 441d 343c f55b 923d f5ab 1fbc dd80 2c3d
00000150: 1dbb 8abd da8a 40bd 1ca5 78bc bec7 f33c
00000160: 18e3 f4bc f3b0 5bbd 51c7 01bb e1fd 3fbc
00000170: 7140 303b 7217 183d 4fd2 24bd 7f5b 8cbc
00000180: 6179 0a3d 5792 063d af6e 21bd c2fe a9bc
00000190: 0f2f 8a3d 6a10 603c 60dc c83c 58c6 9cbb
000001a0: fe8a 863b 00d5 73bd b577 11be 0fef 0e3c
000001b0: bd49 09bd efd5 c43c 3853 423d c07f cebc
000001c0: 3b4b adbc 055c 59be d762 893d 443a 33bd
000001d0: f494 92bd 12eb 1c3c 5f94 293d db21 03be
000001e0: 889d 8f3d 1f7e 663c d4fa 063d efb0 893d
000001f0: 31bb 8b3d 5b34 7ebb 786f 9c3a 0b1f a0bd
00000200: 1a97 9f3c c4a0 c23c 41f8 bbbc 2e15 893d
00000210: 4fff 363c fb35 16bd 742e eabc 55c4 eb3c
00000220: 6357 59bd 819d 37bc 8ad5 893d 66a4 223d
00000230: 1739 06bd 50b3 503d 2456 3e3d 6847 853d
00000240: 1704 933d af76 f13b b8b4 0ebc 8258 37bc
00000250: f5c0 b3bc b5e9 9d3d 57b6 d03d c9df 833c
00000260: 9749 863d 8b15 8c3d 6680 a03a d988 29bd
00000270: 26ba 103d 8914 a63c 25b3 a93d 897c 93bc
00000280: fa9c 393d 63fb 08bd b510 a93c 821e 06bd
00000290: 7ef7 073d 3296 483d ede3 493d 4a0a d8bc
000002a0: 50b0 dc3d e5c1 a33d 9d56 2abd ac30 0e3d
000002b0: 8eab 593c 1a61 a23c 7079 b1ba d231 823d
000002c0: 36c7 53ba 0205 5a3b 0062 073d 6a29 1c3d
000002d0: be67 923c 0cce 923d 058b 9f3c 9261 643c
000002e0: b958 023d ecd2 4d3e 170d 0c3d b678 b2bd
000002f0: b293 443a 8dea 21bc 8872 1e3d 0888 5fbc
00000300: d9b5 a7bd 6013 e7bc 9a51 973d e46f 8b3b
00000310: 2b52 41bd a0ca 29be 688b db3d aba1 86bc
00000320: 1363 6dbd 6b30 ae3d 4a6a 1e3d f6bf 9c3d
00000330: 107c 31bd 8143 ed3c bb9f 073d 3d0e 19bd
00000340: 8737 37be 9af6 1f3d 56cf 68bd d652 053e
00000350: 17b0 60bc d07a 0a3d 3123 7c3d 486e 07bd
00000360: ea1a f43c e310 ffbb 90e7 a13d 7769 22bc
00000370: 7d13 0abd e375 44bd e7f6 d93c afdd 06bd
00000380: a476 06bd 2375 0bbc 7b7b e2bb a525 b43d
00000390: ed12 fdbc abdc 883d 510a c83c ff4c 4f3d
000003a0: 37ff 923b a34f 1a3e e1cf 253d f627 193d
000003b0: 8843 403d d03c 5cbd 4c2a 16bd 72bf a0bc
000003c0: 9bed 593c c429 2e3d 9d9f b83b f3b6 4ebc
000003d0: be6a 8d38 f80e 803d 8113 303d 8812 ec3c
000003e0: 9be7 19bd 24f1 26bd 9bc8 18bd 5c9c 073d
000003f0: 4f9b 06be 98b8 b0bc 37d4 a9bb ae1e 383d

bias f4 [32]
0.03290782 -0.058489937 0.0012982717 0.06523097 0.018754631 -0.056537647 -0.013550178 0.055190224
-0.002496889 -0.032323893 0.022894641 0.043434594 0.021738412 0.053120315 -0.021754323 -0.05352075
-0.011357139 -0.06312319 -0.041553702 -0.06216762 0.034305003 0.026873572 -0.04099625 -0.06093009
0.005657231 -0.03636766 0.051679555 -0.048586022 0.03957688 0.053107064 -0.057329148 0.006697043
00000000: 5aca 063d 2593 6fbd c52a aa3a d197 853d
00000010: 50a3 993c 0594 67bd 9101 5ebc 250f 623d
00000020: d9a2 23bb 0f66 04bd 8b8d bb3c 79e8 313d
00000030: c114 b23c b094 593d 1f36 b2bc 9338 5bbd
00000040: 4b13 3abc bb46 81bd 3734 2abd 79a3 7ebd
00000050: 6783 0c3d f725 dc3c afeb 27bd d491 79bd
00000060: 4b60 b93b 41f6 14bd f1ad 533d 2302 47bd
00000070: 5e1b 223d cb86 593d f8d1 6abd de72 db3b

weight f4 [1, 32]
-0.105186105 -0.0111610815 0.0072949417 -0.21111901 0.21669838 0.31807995 0.035528746 0.21028791
0.027187992 0.2130557 0.2653521 -0.07157172 0.23805459 0.17358981 -0.009093152 -0.14338562
0.22413512 -0.123709224 0.25261238 -0.165204 0.018730562 -0.1979272 0.16893752 0.31277236
-0.16747986 -0.107159786 0.20025894 0.18845958 0.19100687 -0.14191489 -0.04787549 0.2835858
00000000: d06b d7bd f8dc 36bc 680a ef3b 952f 58be
00000010: 2ee6 5d3e 60db a23e 9786 113d b755 573e
00000020: 5ab9 de3c 462b 5a3e 3bdc 873e 3294 92bd
00000030: 95c4 733e 87c1 313e 72fb 14bc aed3 12be
00000040: ad83 653e 435b fdbd 6956 813e 3d2b 29be
00000050: d670 993c 6ead 4abe f5fd 2c3e b323 a03e
00000060: d77f 2bbe 9776 dbbd ae10 4d3e 8cfb 403e
00000070: 4e97 433e 2352 11be 1719 44bd 2832 913e

exp_avg f4 [64, 39]
0.001104209 0.00060940156 0.0010131709 0.00093891594 0.0013899533 0.001166502 0.0016399848 0.0012271899
0.00092600065 0.00090773817 0.00081702275 0.0009478037 0.0010231864 0.001077222 0.0011430685 0.0012403278
0.0013943888 0.0010414068 0.001151777 0.0007945306 0.0014390543 0.0011330821 0.0013861567 0.00083955505
0.0011971468 0.0013099307 0.001376661 0.0015029097 0.0011425792 0.0011418177 0.0011927019 0.0013988045
0.0013405744 0.0011018026 0.0013904374 0.0014288175 0.001282445 0.0009726489 0.001091482 0.00035015674
0.00017301571 0.0002838045 0.00020268786 0.00029396292 0.000373658 0.00024357045 0.00025934013 0.00023809572
0.00020472269 0.00028187872 0.00022847734 0.00042183703 0.00020686048 0.00034870065 0.00027362388 0.0003406736
0.00037321963 0.00023060267 0.0002941936 0.00029345672 0.00022370176 0.00029159238 0.00021996754 0.00018224042
0.00032975836 0.00029588115 0.0003601342 0.00026830786 0.0001940999 0.00025767362 0.0002980931 0.0002985987
7.151938e-05 0.00028869804 0.00029818199 0.00026654048 0.00021509391 0.00023726863 0.00046182107 0.00041416494
0.0003287934 0.00045095987 0.00062856777 0.00045743588 0.0006985541 0.00090344384 0.00031293253 0.0006044785
0.00062178675 0.00048763005 0.000291811 0.00021590873 0.00039400806 0.00039289886 0.00034996853 0.00042222455
0.00066205853 0.00074745575 0.0007828429 0.00066165585 0.0007904162 0.00042538624 0.00046912752 0.00058945065
0.0007890319 0.00074276526 0.0005569069 0.0007438832 0.0005989025 0.00080327044 0.00077536236 0.00060733047
0.0007895551 0.0008562428 0.0007873157 0.0006496961 0.0007406868 -0.00021837631 -0.0001393237 -9.435703e-05
-0.0003306238 -0.00031751735 -0.00019266075 -0.00037262012 -0.00021158242 -0.0004031278 -0.00012125993 -0.00022559371
-0.00016676814 -0.00029712953 -0.00030421355 -0.0003104406 -0.00020263427 -0.00024024321 -0.00019279277 -0.0002448866
-0.00029231663 -0.0003306943 -0.00026456662 -0.0003385131 -0.00014753136 -0.0003624474 -0.0003283422 -0.000318739
-0.00025275015 -0.00034266026 -0.00031853904 -0.00031382433 -0.0003409258 -0.00035487875 -0.0002823325 -0.00032916537
-0.00027928737 -0.00029318096 -0.00021713944 -0.00031423717 0.0006891001 0.0006089094 0.0006954688 0.0005866188
0.0011071819 0.00050777267 0.00083196245 0.0009669614 0.0002532206 0.00036377937 0.00039091753 0.00061787205
0.00036722686 0.0003460122 0.0006534984 0.0006476672 0.0010390261 0.00048440468 0.00074912363 0.0006731643
0.0009677326 0.0008783214 0.0009784836 0.0007768002 0.00094560964 0.0011376374 0.00096382597 0.0010372613
0.0009148602 0.00079211284 0.00082949526 0.0009797115 0.0008834533 0.0007332117 0.0009708096 0.0009629668
0.0010191001 0.0006513401 0.00087669026 0.00030750505 0.00022933853 0.00037598785 0.00028021398 0.00039776252
0.00015086187 9.226674e-05 0.00011200402 0.000600586 0.00029072107 0.00013754156 0.00038128914 0.00042426732
0.0002846267 0.00048942846 0.0005899781 0.00054668006 0.00033127534 0.00039351112 0.0001539886 0.0001719244
0.00030855605 0.00015809531 -9.4125106e-05 0.00024352371 0.00023786606 0.00015955148 0.0003053414 0.00020460157
4.8408332e-05 0.0002294242 0.00017595974 0.00029950845 0.00013958123 0.0001505858 1.4588463e-05 0.00029048428
0.00022801536 0.0002981202 -0.00027586895 -0.00042465798 -0.0001960678 -0.00030384804 -7.177464e-05 -0.00025345394
0.00012573467 -0.00016646851 2.3608332e-05 0.00017791335 -3.888647e-05 -0.00040914025 -2.8096325e-05 -0.00011026145
-2.5657966e-05 -2.1197964e-05 8.8770794e-05 -0.00023957388 1.8597819e-05 -0.00017020619 -0.00011609378 -1.3988933e-05
00000000: 1bbb 903a 3fc0 1f3a 60cc 843a 9521 763a
00000010: 182f b63a 50e5 983a c2f4 d63a a9d9 a03a
00000020: dabe 723a 47f5 6d3a 782d 563a 0876 783a
00000030: 701c 863a 9331 8d3a 04d3 953a 7f92 a23a
00000040: edc3 b63a d07f 883a 39f7 963a 0c48 503a
00000050: a69e bc3a ed83 943a b3af b53a 9615 5c3a
00000060: 95e9 9c3a fbb1 ab3a 1471 b43a 48fd c43a
00000070: 99c2 953a 0ba9 953a 6f54 9c3a 1758 b73a
00000080: 36b6 af3a 5c6a 903a 563f b63a 2947 bb3a
00000090: b717 a83a 5df9 7e3a 0f10 8f3a 3e95 b739
000000a0: 8d6b 3539 98cb 9439 9c88 5439 091f 9a39
000000b0: 87e7 c339 f266 7f39 0bf8 8739 55a9 7939
000000c0: d4aa 5639 1fc9 9339 6b93 6f39 022a dd39
000000d0: b0e8 5839 cfd1 b639 2d75 8f39 709c b239
000000e0: b1ac c339 efcd 7139 ff3d 9a39 18db 9939
000000f0: 7c91 6a39 dee0 9839 16a7 6639 ca17 3f39
00000100: 6be3 ac39 7f20 9b39 65d0 bc39 acab 8c39
00000110: 4c87 4b39 5e18 8739 6149 9c39 3d8d 9c39
00000120: adfc 9538 655c 9739 4f55 9c39 75be 8b39
00000130: d58a 6139 50cb 7839 9320 f239 4724 d939
00000140: e761 ac39 cf6e ec39 78c6 243a 01d4 ef39
00000150: 2c1f 373a 17d5 6c3a 1811 a439 de75 1e3a
00000160: 67ff 223a 99a8 ff39 36fe 9839 8f65 6239
00000170: de92 ce39 fefd cd39 fb7b b739 055e dd39
00000180: ff8d 2d3a e8f0 433a b337 4d3a f972 2d3a
00000190: ef33 4f3a 6006 df39 3bf5 f539 5d85 1a3a
000001a0: 09d7 4e3a 22b6 423a 64fd 113a 2801 433a
000001b0: abff 1c3a 9192 523a b041 4b3a 4235 1f3a
000001c0: 25fa 4e3a 7b75 603a dd63 4e3a 5e50 2a3a
000001d0: a62a 423a f2fb 64b9 6c17 12b9 8be1 c5b8
000001e0: 9357 adb9 7578 a6b9 fa04 4ab9 3a5c c3b9
000001f0: 39dc 5db9 e65a d3b9 ee4c feb8 5a8d 6cb9
00000200: 7bde 2eb9 0dc8 9bb9 da7e 9fb9 a2c2 a2b9
00000210: 397a 54b9 cce9 7bb9 6a28 4ab9 2064 80b9
00000220: 1342 99b9 0a61 adb9 88b5 8ab9 767a b1b9
00000230: a6b2 1ab9 de06 beb9 5825 acb9 6d1c a7b9
00000240: 8d83 84b9 15a7 b3b9 9601 a7b9 ca88 a4b9
00000250: 49be b2b9 050f bab9 0706 94b9 d493 acb9
00000260: 516d 92b9 15b6 99b9 edaf 63b9 33c0 a4b9
00000270: baa4 343a 389f 1f3a 1f50 363a 52c7 193a
00000280: dc1e 913a 0c1c 053a 0e18 5a3a ae7b 7d3a
00000290: b2c2 8439 a4b9 be39 10f4 cc39 b1f8 213a
000002a0: 5b88 c039 f968 b539 894f 2b3a 36c8 293a
000002b0: ee2f 883a b2f7 fd39 d660 443a 4b77 303a
000002c0: 6faf 7d3a 273f 663a 7640 803a 2ea2 4b3a
000002d0: cae2 773a c71c 953a 44a9 7c3a b7f4 873a
000002e0: 3bd3 6f3a cba5 4f3a 7c72 593a aa69 803a
000002f0: 8c97 673a 0135 403a ee7d 7e3a 9c6f 7c3a
00000300: 5393 853a b2be 2a3a b0d1 653a a138 a139
00000310: 987a 7039 3c20 c539 afe9 9239 c88a d039
00000320: ad30 1e39 547f c138 b3e3 ea38 a570 1d3a
00000330: ec6b 9839 0839 1039 c3e7 c739 3270 de39
00000340: f339 9539 fd4c 003a c3a8 1a3a 144f 0f3a
00000350: 06af ad39 2b50 ce39 0078 2139 9b46 3439
00000360: b1c5 a139 63c6 2539 0865 c5b8 665a 7f39
00000370: af6b 7939 464d 2739 3b16 a039 518a 5639
00000380: 0d0a 4b38 9791 7039 d581 3839 5807 9d39
00000390: 8d5c 1239 91e6 1d39 f9c0 7437 244c 9839
000003a0: 6817 6f39 044d 9c39 81a2 90b9 a1a4 deb9
000003b0: 8d97 4db9 cb4d 9fb9 b785 96b8 03e2 84b9
000003c0: a5d7 0339 0d8e 2eb9 820a c637 408e 3a39
000003d0: 071a 23b8 e081 d6b9 66b0 ebb7 2a3c e7b8
000003e0: 103c d7b7 48d2 b1b7 752a ba38 2036 7bb9
000003f0: 8302 9c37 6079 32b9 6077 f3b8 02b2 6ab7

exp_avg_sq f4 [64, 39]
3.915671e-05 5.8868776e-05 4.3478645e-05 4.1259766e-05 7.21458e-05 4.7835525e-05 4.6075776e-05 6.610385e-05
3.9393944e-05 5.9404294e-05 5.3310312e-05 4.6057346e-05 3.9998497e-05 4.0021096e-05 3.3920292e-05 4.0311985e-05
4.7189526e-05 5.4031723e-05 5.4380223e-05 4.527051e-05 7.731181e-05 6.5278466e-05 7.771303e-05 6.551494e-05
6.4831635e-05 7.231217e-05 7.8179924e-05 6.8949514e-05 6.929183e-05 6.704089e-05 6.6401015e-05 7.7284865e-05
6.939875e-05 6.8631714e-05 7.709538e-05 6.925664e-05 7.076407e-05 6.2678984e-05 6.694237e-05 1.1462619e-06
1.4853678e-06 1.1652787e-06 1.1239578e-06 1.5268882e-06 1.4298796e-06 1.6535414e-06 1.8927875e-06 1.3063988e-06
1.3904131e-06 1.4936932e-06 1.1791176e-06 1.2122969e-06 1.1935851e-06 1.1195393e-06 1.3417105e-06 1.336295e-06
1.3627666e-06 1.2125569e-06 1.3931602e-06 2.1159913e-06 1.8466371e-06 2.1230417e-06 1.7591981e-06 1.8125631e-06
1.8504667e-06 2.1246858e-06 1.7673457e-06 1.7512033e-06 1.954005e-06 1.8062892e-06 2.114489e-06 1.9012488e-06
1.874759e-06 2.1001508e-06 1.8934288e-06 1.871861e-06 1.8687383e-06 1.7979638e-06 4.6523737e-06 5.7215375e-06
3.5440548e-06 3.75076e-06 2.2800891e-06 7.16619e-06 5.3500917e-06 7.451472e-06 3.1150753e-06 6.916507e-06
6.9487364e-06 4.0684026e-06 3.817703e-06 2.6450987e-06 4.1908306e-06 3.2339e-06 3.8008586e-06 2.5208437e-06
5.650639e-06 6.482941e-06 9.073279e-06 8.119157e-06 9.071962e-06 7.4916184e-06 6.260143e-06 7.793813e-06
9.075439e-06 8.246997e-06 7.385573e-06 8.461482e-06 7.327768e-06 8.9864025e-06 8.6612135e-06 7.951597e-06
9.0482845e-06 7.744511e-06 8.717544e-06 7.958604e-06 8.538569e-06 9.300562e-07 1.630384e-06 1.3362181e-06
1.4074553e-06 1.6786337e-06 1.4316652e-06 2.1146218e-06 2.1136673e-06 1.1078348e-06 1.5496659e-06 1.1610445e-06
1.2468155e-06 1.1333344e-06 9.641847e-07 1.245096e-06 1.5731422e-06 1.0678855e-06 1.0244515e-06 1.5618211e-06
1.7342823e-06 2.2949641e-06 1.9821302e-06 2.3041782e-06 1.8674584e-06 1.7592282e-06 2.2148918e-06 2.2906165e-06
1.8089368e-06 2.0121881e-06 2.1315873e-06 2.009611e-06 2.3014343e-06 2.0090142e-06 1.994631e-06 2.299522e-06
2.0251146e-06 2.0648672e-06 2.0103826e-06 1.9814302e-06 1.89844e-05 2.9175017e-05 2.177709e-05 1.8452163e-05
2.1311324e-05 2.5154666e-05 3.116073e-05 4.021476e-05 1.7516586e-05 1.3945899e-05 3.0577914e-05 1.9855102e-05
2.3255578e-05 1.6507896e-05 1.8147597e-05 2.0251193e-05 2.8109396e-05 1.9627461e-05 2.8471362e-05 1.5013634e-05
4.39518e-05 3.9276903e-05 4.3738535e-05 4.312082e-05 3.8535032e-05 4.0361778e-05 4.4061453e-05 4.1296986e-05
4.3462638e-05 3.952828e-05 4.0106377e-05 4.354845e-05 3.906352e-05 3.9994233e-05 4.3854645e-05 4.2356132e-05
3.4495093e-05 3.9466842e-05 4.171389e-05 3.2392559e-06 1.1356543e-05 5.544306e-06 3.8607386e-06 1.0043142e-05
7.3983156e-06 9.5711675e-06 1.2906078e-05 3.417901e-06 6.8923046e-06 1.2879022e-05 4.0502296e-06 6.124126e-06
4.4112358e-06 3.8576277e-06 5.654278e-06 5.555947e-06 5.198031e-06 5.43637e-06 5.252975e-06 1.4687826e-05
6.98634e-06 1.4902819e-05 6.6998678e-06 7.667394e-06 1.0815853e-05 1.4831998e-05 7.3864458e-06 5.9827025e-06
1.1355732e-05 6.6581065e-06 1.431203e-05 1.206572e-05 1.2824525e-05 1.4926582e-05 1.0372517e-05 1.3986288e-05
9.888824e-06 9.159188e-06 5.762421e-06 1.3053348e-05 9.573363e-06 1.2218637e-05 1.8961251e-05 1.2922587e-05
4.475871e-06 2.5528281e-05 9.543268e-06 1.441272e-05 1.9604602e-05 8.63793e-06 6.6914736e-06 9.152157e-06
1.0646261e-05 1.497238e-05 7.18161e-06 1.06161115e-05 1.7730064e-05 1.9851863e-05 2.6009446e-05 1.9987232e-05
00000000: 323c 2438 dee9 7638 d75c 3638 560e 2d38
00000010: fb4c 9738 01a3 4838 7d41 4138 3ca1 8a38
00000020: ed3a 2538 e028 7938 8399 5f38 b32d 4138
00000030: 0fc4 2738 53dc 2738 a345 0e38 aa14 2938
00000040: 5eed 4538 1fa0 6238 5216 6438 d7e0 3d38
00000050: 7622 a238 1ce6 8838 def9 a238 1165 8938
00000060: 38f6 8738 4da6 9738 87f4 a338 fd98 9038
00000070: c550 9138 4e98 8c38 c640 8b38 ff13 a238
00000080: 2c8a 9138 5fee 8f38 44ae a138 e03d 9138
00000090: 2c67 9438 8672 8338 6963 8c38 42d9 9935
000000a0: d95c c735 ac66 9c35 e5da 9635 7bef cc35
000000b0: 4aea bf35 40ef dd35 af0b fe35 8557 af35
000000c0: 3b9e ba35 e87a c835 2c42 9e35 34b6 a235
000000d0: 4633 a035 1443 9635 d214 b435 bf5a b335
000000e0: 4ee8 b635 23bf a235 9ffc ba35 7400 0e36
000000f0: f8d9 f735 9479 0e36 961d ec35 3247 f335
00000100: 8d5d f835 d395 0e36 8935 ed35 e30a eb35
00000110: 8d21 0336 a06f f235 a5e6 0d36 692e ff35
00000120: 3ba0 fb35 51f0 0c36 b821 fe35 a73c fb35
00000130: 5cd1 fa35 9151 f135 961b 9c36 a2fb bf36
00000140: 66d6 6d36 91b5 7b36 a203 1936 1a75 f036
00000150: f084 b336 a807 fa36 960c 5136 5814 e836
00000160: 3129 e936 5083 8836 d219 8036 7382 3136
00000170: f69e 8c36 fb05 5936 4112 7f36 c42b 2936
00000180: 9f9a bd36 0a88 d936 7039 1837 8437 0837
00000190: c833 1837 8360 fb36 380e d236 2cc2 0237
000001a0: b742 1837 955c 0a37 97d1 f736 caf5 0d37
000001b0: 0ce1 f536 4ec4 1637 a14f 1137 d967 0537
000001c0: 16ce 1737 6cee 0137 9141 1237 f285 0537
000001d0: e040 0f37 faa8 7935 91d3 da35 1b58 b335
000001e0: cce7 bc35 6a4d e135 a427 c035 ede8 0d36
000001f0: 87d8 0d36 eab0 9435 1dfe cf35 2fd5 9b35
00000200: 4158 a735 131d 9835 2269 8135 2c1d a735
00000210: c124 d335 4454 8f35 e37f 8935 c49f d135
00000220: 7cc5 e835 2f03 1a36 bd04 0536 7ba1 1a36
00000230: 62a5 fa35 9f1e ec35 8da3 1436 7eb8 1936
00000240: 98ca f235 2109 0736 640c 0f36 dbdc 0636
00000250: 5772 1a36 9ad2 0636 80db 0536 7d51 1a36
00000260: 34e7 0736 2692 0a36 1cea 0636 b6f8 0436
00000270: b040 9f37 dfbc f437 f2ad b637 b8c9 9a37
00000280: b8c5 b237 3c03 d337 94b2 0238 45ac 2838
00000290: 95f0 9237 2ef9 6937 c940 0038 828e a637
000002a0: f914 c337 707a 8a37 ab3b 9837 1be1 a937
000002b0: 78cc eb37 a7a5 a437 c9d5 ee37 11e3 7b37
000002c0: e358 3838 41bd 2438 e573 3738 a1dc 3438
000002d0: ada0 2138 214a 2938 a0ce 3838 4d36 2d38
000002e0: a74b 3638 2bcb 2538 e537 2838 cba7 3638
000002f0: 23d8 2338 7bbf 2738 91f0 3738 8da7 3138
00000300: d3ae 1038 3389 2538 f3f5 2e38 fe61 5936
00000310: fb87 3e37 3a09 ba36 7e8b 8136 f77e 2837
00000320: 0c3f f836 da93 2037 2f87 5837 185f 6536
00000330: 7244 e736 fa12 5837 35e7 8736 d77d cd36
00000340: 3a04 9436 c570 8136 e1b9 bd36 396d ba36
00000350: bf6a ae36 106a b636 b642 b036 bb6b 7637
00000360: 346c ea36 1f07 7a37 6dcf e036 35a3 0037
00000370: bc75 3537 f2d6 7837 16d9 f736 06bf c836
00000380: 7f84 3e37 b368 df36 b31d 7037 df6d 4a37
00000390: ea28 5737 2e6d 7a37 9f05 2e37 a6a6 6a37
000003a0: 2de8 2537 6aaa 1937 d25a c136 b4ff 5a37
000003b0: 489d 2037 a5fe 4c37 fa0e 9f37 17ce 5837
000003c0: 702f 9636 9125 d637 061c 2037 29ce 7137
000003d0: 9074 a437 a0eb 1037 5287 e036 378c 1937
000003e0: 589d 3237 e231 7b37 8ff9 f036 da1b 3237
000003f0: 06bb 9437 8d87 a637 dc2e da37 41aa a737

exp_avg f4 [64]
0.0013771433 0.0002935569 0.00078990037 -0.00032527323 0.0009630304 0.000155333 -0.00012927948 0.0001536575
-0.00055145496 0.0005578322 0.0005213088 0.0011596426 -5.702892e-05 -0.00019374806 0.00015773652 0.0007214696
-0.0008748463 0.0009294158 -0.00027172358 -2.9918643e-05 -0.0008421026 -0.00020193144 0.000608166 -0.0004857513
0.0004647115 -0.0008510117 0.0005121298 -2.3470753e-05 -0.00054697884 0.00097596686 -0.0016715253 -1.0880331e-05
-0.00024149631 -0.00031969743 0.00045387194 -0.0006766212 0.0019191485 0.00089790823 -0.0012133064 0.000389496
-0.00025869612 7.5979224e-05 0.00018181722 0.000137146 0.00045345046 0.00056000415 0.001251418 -0.00030423977
-0.0010040691 -0.0011385437 0.00096832326 0.00033461442 0.0007216117 0.0013480238 0.00014268937 -0.0014853209
0.00014109966 0.00010458011 0.0006049405 -0.00016722265 0.0015238167 0.00030756334 0.0002781059 -0.0006895846
00000000: 4381 b43a 8ae8 9939 5111 4f3a 6f89 aab9
00000010: e073 7c3a e2e0 2239 328f 07b9 1f1f 2139
00000020: 848f 10ba 7c3b 123a 71a8 083a 26ff 973a
00000030: 5632 6fb8 d928 4bb9 1366 2539 0121 3d3a
00000040: f155 65ba 0aa4 733a 1f76 8eb9 ccf9 fab7
00000050: 8dc0 5cba 8fbd 53b9 546d 1f3a 70ac feb9
00000060: 86a4 f339 6e16 5fba 7340 063a 0fe3 c4b7
00000070: 2163 0fba 07d8 7f3a 1517 dbba aa8a 36b7
00000080: 2c3a 7db9 109d a7b9 a9f5 ed39 485f 31ba
00000090: f08b fb3a 9a61 6b3a cf07 9fba 4535 cc39
000000a0: 9ba1 87b9 0957 9f38 30a6 3e39 d9ce 0f39
000000b0: 17bd ed39 3ecd 123a 9f06 a43a 5f82 9fb9
000000c0: f89a 83ba 303b 95ba 13d7 7d3a 306f af39
000000d0: 8b2a 3d3a 2cb0 b03a e39e 1539 19af c2ba
000000e0: 27f4 1339 0552 db38 df94 1e3a 7d58 2fb9
000000f0: ceba c73a 7440 a139 bece 9139 3dc5 34ba

exp_avg_sq f4 [64]
7.862061e-05 2.1482858e-06 9.09172e-06 2.3177104e-06 4.406625e-05 1.4963289e-05 2.603157e-05 0.00011366813
4.8602342e-05 0.00014687737 0.00023155489 8.185747e-05 4.3322227e-05 3.1338461e-06 9.480187e-06 2.0333087e-05
0.00022702644 5.8439386e-05 1.43543775e-05 3.7293332e-05 0.000111518835 1.6755355e-05 3.5696143e-05 0.00010296072
1.156494e-05 5.4008084e-05 6.2168097e-06 6.4143e-05 2.7069169e-05 8.44385e-05 8.705507e-05 1.118649e-05
8.3110666e-05 2.4669442e-05 0.0003053365 2.3297116e-05 0.00040931406 3.034184e-05 0.0002128009 7.3265323e-06
0.00012762172 1.9544357e-05 4.754317e-06 0.00014894409 5.4362076e-06 0.00029714016 3.8101633e-05 4.0706975e-05
0.00024473676 0.00025180352 5.437451e-05 4.5519014e-06 0.00014504646 7.107403e-05 7.2511084e-06 0.00018385901
4.242365e-06 9.7643834e-08 6.6922194e-06 2.3263514e-05 0.00011361412 8.071934e-06 6.49686e-05 4.3826883e-05
00000000: 1ee1 a438 452b 1036 a488 1837 f689 1b36
00000010: c7d3 3838 d60a 7b37 5f5e da37 1d61 ee38
00000020: 5eda 4b38 1803 1a39 8bcd 7239 e5aa ab38
00000030: e3b4 3538 114f 5236 180d 1f37 f990 aa37
00000040: f20d 6e39 d01c 7538 95d3 7037 696b 1c38
00000050: 38df e938 da8d 8c37 71b8 1538 9eec d738
00000060: 0a07 4237 bd86 6238 fd99 d036 8384 8638
00000070: 9912 e337 9314 b138 5691 b638 9cad 3b37
00000080: b34b ae38 39f1 ce37 9215 a039 2d6e c337
00000090: 3499 d639 9b86 fe37 4e23 5f39 6fd6 f536
000000a0: 32d2 0539 30f3 a337 4687 9f36 e02d 1c39
000000b0: ab68 b636 7ac9 9b39 51cf 1f38 c8bc 2a38
000000c0: 0350 8039 7f04 8439 2f10 6438 89bc 9836
000000d0: 9d17 1839 940d 9538 8c4e f336 47ca 4039
000000e0: a359 8e36 44b0 d133 ba8d e036 0426 c337
000000f0: 1e44 ee38 b16c 0737 c03f 8838 c2d2 3738
