published_data/SGO aerobic/final_models/bag_model_4.pkl (torch, 324834 bytes, 21 tensors)

weight f4 [64, 20]
-0.10305605 0.14757368 -0.08548722 -0.019762428 0.027890595 -0.08491005 -0.021579582 -0.1518742
-0.093425386 -0.068333596 0.2495361 0.10965588 -0.25574654 -0.029267866 -0.17514807 0.19210443
0.0062607 -0.21691662 -0.18804912 0.067572236 0.17377028 0.12004525 0.0051698633 -0.09287172
-0.17550619 -0.18560958 -0.15224203 -0.046564985 -0.1234132 -0.07724759 -0.2207248 0.17437851
0.07378954 0.21525148 -0.08493913 0.069839366 -0.13204707 -0.12969887 0.07023901 0.067334816
0.103998475 0.016054505 -0.004822746 -0.23126796 0.074076585 0.1600645 0.0893986 -0.15640512
-0.02093535 -0.06282571 -0.20384057 -0.2140655 0.010901346 0.15939201 -0.21408904 0.120137684
-0.14194971 0.0931632 -0.15882945 0.09319987 0.031555895 0.17688815 -0.1322668 -0.06178822
-0.12895574 0.07824491 0.1523956 0.12623884 0.06304475 -0.13575362 0.116526835 0.013619251
0.021734212 0.09475062 0.16705641 0.14741246 -0.1139207 -0.19196448 0.21762049 0.02771087
0.06924268 0.18130922 -0.11105939 -0.04501186 0.1679262 0.1289962 0.15582806 0.016970703
0.03976803 -0.15820193 0.11968243 0.12433266 0.11870003 0.071828194 0.058488674 -0.19987665
-0.101521835 -0.04014436 -0.13372141 -0.16811332 -0.0110509535 0.16507232 -0.16913527 -0.021830395
-0.22144832 0.048977483 0.18219338 0.014861329 0.16237493 -0.15564829 0.094175406 0.2069291
0.20535609 0.2367549 -0.102894016 0.23483537 -0.03445539 -0.14494056 0.09174562 0.008234408
0.045067325 0.070886165 0.1295994 0.0585397 -0.13792038 0.22278091 0.27567306 -0.119850665
-0.03847644 0.061346438 -0.10221863 -0.15276761 0.19074704 0.2452614 0.05641885 -0.16734254
-0.13979653 0.14270736 -0.19320634 -0.1753082 0.10554596 -0.119024135 -0.076701775 -0.05982358
0.21145783 -0.1795593 -0.03469544 -0.01970904 0.15190966 0.11167408 -0.11214936 0.034112286
0.13882358 -0.028110368 0.1521226 0.035163436 -0.029515596 -0.0019240662 -0.19512516 0.05023732
0.09436361 0.099094994 0.09590472 0.105558254 0.16254002 0.09015398 -0.08146436 0.14045297
0.15357947 -0.005953534 -0.09707211 0.11392879 0.024286103 0.07665175 -0.10348064 0.11370499
-0.2081852 -0.0340732 0.16083427 -0.24283391 0.14069377 -0.08956967 0.044726897 -0.14759174
-0.14008446 0.25726503 0.25254753 -0.06940118 0.02961489 0.016421314 -0.013524613 0.041776747
-0.0038031565 -0.21620652 0.07586619 0.1968134 -0.1366594 0.1133657 -0.121760994 0.020829013
0.036427975 0.14095086 -0.21906851 -0.04647532 -0.025291452 0.19953236 0.011833726 -0.20514841
-0.06568688 0.023304429 0.113373846 -0.17064466 0.1070517 -0.07772092 -0.12276127 -0.018085817
-0.1810899 -0.21260056 -0.085152455 0.23861735 -0.17814937 0.08813561 0.20197192 0.048360087
-0.066016756 0.22136196 0.022565521 -0.21462677 -0.04658746 0.1407459 -0.06693751 0.08871814
-0.23914605 -0.10943302 -0.17149329 0.15480581 -0.23758817 -0.0952668 -0.12636615 -0.27888274
-0.09689352 0.22330801 0.03047497 0.06944287 0.21627128 0.19640237 -0.14595702 0.11578358
0.1447971 0.017559784 -0.14997531 -0.096856676 0.116359815 0.010840419 -0.060523245 -0.13108858
00000000: 0d0f d3bd 8e1d 173e ec13 afbd d1e4 a1bc
00000010: d17a e43c 52e5 adbd aac7 b0bc e984 1bbe
00000020: cf55 bfbd 7cf2 8bbd 6486 7f3e 4393 e03d
00000030: 36f1 82be 2ac3 efbc 045a 33be 06b7 443e
00000040: 8f26 cd3b 641f 5ebe f38f 40be 5063 8a3d
00000050: d6f0 313e 49da f53d f567 a93b 8733 bebd
00000060: e5b7 33be 7010 3ebe 56e5 1bbe edba 3ebd
00000070: 0fc0 fcbd fc33 9ebd af05 62be 4890 323e
00000080: f81e 973d e26a 5c3e 91f4 adbd f107 8f3d
00000090: 5937 07be c8cf 04be 78d9 8f3d d6e6 893d
000000a0: 27fd d43d bd84 833c 2008 9ebb 82d1 6cbe
000000b0: 77b5 973d f3e7 233e 9d16 b73d aa28 20be
000000c0: 9c80 abbc c4aa 80bd 95bb 50be fd33 5bbe
000000d0: 8f9b 323c a937 233e 283a 5bbe bf0a f63d
000000e0: 445b 11be 59cc be3d 30a4 22be 93df be3d
000000f0: c140 013d 2b22 353e f370 07be a515 7dbd
00000100: f90c 04be de3e a03d 980d 1c3e c144 013e
00000110: 9b1d 813d ff02 0bbe 9fa5 ee3d 4723 5f3c
00000120: f20b b23c 9d0c c23d d610 2b3e 4bf3 163e
00000130: 424f e9bd 5692 44be e8d7 5e3e e801 e33c
00000140: 1bcf 8d3d 20a9 393e 1b73 e3bd 5b5e 38bd
00000150: d9f4 2b3e 9417 043e 6491 1f3e 2506 8b3c
00000160: cde3 223d b0ff 21be 101c f53d 1fa2 fe3d
00000170: 0019 f33d a91a 933d d291 6f3d 77ac 4cbe
00000180: aeea cfbd 6a6e 24bd 44ee 08be e625 2cbe
00000190: 0f0f 35bc b808 293e cc31 2dbe a8d5 b2bc
000001a0: 59c3 62be 9d9c 483d e790 3a3e ef7c 733c
000001b0: 9d45 263e 4462 1fbe 09df c03d 39e5 533e
000001c0: de48 523e e06f 723e 19ba d2bd af78 703e
000001d0: 1821 0dbd 4c6b 14be 21e5 bb3d 9ce9 063c
000001e0: 8498 383d c42c 913d b5b5 043e 53c7 6f3d
000001f0: 003b 0dbe ae20 643e 0525 8d3e 4474 f5bd
00000200: 7999 1dbd 6746 7b3d 0058 d1bd 1d6f 1cbe
00000210: 3153 433e ce25 7b3e 7417 673d d85b 2bbe
00000220: d226 0fbe e121 123e e2d7 45be fe83 33be
00000230: 7b28 d83d edc2 f3bd d215 9dbd 9209 75bd
00000240: 6788 583e 65de 37be ce1c 0ebd da74 a1bc
00000250: 358e 1b3e 61b5 e43d 90ae e5bd 53b9 0b3d
00000260: c527 0e3e b747 e6bc 07c6 1b3e 8907 103d
00000270: b1ca f1bc f330 fcba e4ce 47be a6c5 4d3d
00000280: b541 c13d 51f2 ca3d b269 c43d ed2e d83d
00000290: e470 263e a6a2 b83d c9d6 a6bd e7d2 0f3e
000002a0: f043 1d3e dd15 c3bb becd c6bd 7f53 e93d
000002b0: a6f3 c63c 98fb 9c3d a8ed d3bd 29de e83d
000002c0: 802e 55be 5790 0bbd bdb1 243e 74a9 78be
000002d0: 0712 103e 4e70 b7bd 8d33 373d 4a22 17be
000002e0: 4d72 0fbe 3eb8 833e e94d 813e 3522 8ebd
000002f0: ed9a f23c fe85 863c 5796 5dbc 181e 2b3d
00000300: 613e 79bb 3e65 5dbe bc5f 9b3d 7489 493e
00000310: 71f0 0bbe 472c e83d d45d f9bd 9ba1 aa3c
00000320: 8035 153d 6c55 103e 7f53 60be e85c 3ebd
00000330: 0530 cfbc 3652 4c3e 3fe2 413c 6d12 52be
00000340: d886 86bd eee8 be3c 8c30 e83d 79bd 2ebe
00000350: ec3d db3d 252c 9fbd 436a fbbd b528 94bc
00000360: a16f 39be f6b3 59be 6964 aebd 1b58 743e
00000370: ca6c 36be 7180 b43d bad1 4e3e 3a15 463d
00000380: cb33 87bd b6ac 623e 54db b83c 1fc7 5bbe
00000390: 7ed2 3ebd b11f 103e 8916 89bd dbb1 b53d
000003a0: b4e2 74be 6b1e e0bd f09b 2fbe 6a85 1e3e
000003b0: 504a 73be 3d1b c3bd 2166 01be b8c9 8ebe
000003c0: 1c70 c6bd dbaa 643e a5a6 f93c 1038 8e3d
000003d0: 3876 5d3e b41d 493e c275 15be f11f ed3d
000003e0: b145 143e 89d9 8f3c 2193 19be cb5c c6bd
000003f0: 0e4e ee3d 039c 313c 39e7 77bd 163c 06be

bias f4 [64]
0.10546042 0.19772585 0.107050255 -0.06029567 -0.12109925 0.16339326 0.12668034 0.104612246
0.15897934 0.082034886 0.06419065 0.052839216 0.10227583 -0.0881543 0.02341131 -0.19194384
-0.20994501 0.25133127 -0.20917845 0.028427135 0.2869399 -0.083234385 -0.17516872 -0.07781215
-0.08931894 0.056536786 -0.14239411 -0.2151791 -0.023306262 -0.22051004 -0.04236658 0.035221487
-0.18636931 -0.14677894 -0.049532074 -0.07831426 -0.07684644 -0.23321736 -0.112567276 0.067243986
0.21455443 -0.120284006 0.16113551 0.024949433 0.23749062 0.13419977 0.070815094 0.020851282
0.21447955 0.061135866 -0.028859839 -0.022335468 0.020381931 0.2482366 0.048840776 0.11235168
0.066362746 -0.16616185 0.1786013 -0.0012546353 -0.20459229 -0.08318124 -0.107931435 -0.09497178
00000000: a2fb d73d a578 4a3e 2a3d db3d 98f8 76bd
00000010: e202 f8bd 9050 273e 7eb8 013e f23e d63d
00000020: 7bcb 223e e801 a83d 6376 833d ef6d 583d
00000030: fe75 d13d 3e8a b4bd 13c9 bf3c ed8c 44be
00000040: d3fb 56be 7eae 803e e032 56be 06e0 e83c
00000050: c9e9 923e ca76 aabd 6e5f 33be fa5b 9fbd
00000060: d9ec b6bd 1e93 673d c3cf 11be e957 5cbe
00000070: c6ec bebc 62cd 61be 9488 2dbd 6844 103d
00000080: 99d7 3ebe 384d 16be 25e2 4abd 3a63 a0bd
00000090: ab61 9dbd 88d0 6ebe ac89 e6bd 37b7 893d
000000a0: 28b4 5b3e 7657 f6bd b500 253e c162 cc3c
000000b0: be30 733e aa6b 093e 8107 913d 4fd0 aa3c
000000c0: 87a0 5b3e 9a69 7a3d 786b ecbc dff8 b6bc
000000d0: 02f8 a63c bc31 7e3e 440d 483d a318 e63d
000000e0: 31e9 873d 5526 2abe 42e3 363e 9372 a4ba
000000f0: a480 51be ed5a aabd 280b ddbd 9180 c2bd

weight f4 [256, 64]
0.083192125 -0.0031940134 -0.014541161 0.030262977 -0.10993283 0.050998162 -0.08603622 -0.08567404
0.01501426 0.15993303 -0.022390539 0.1121768 0.0322886 0.09401927 0.106959626 -0.01903832
-0.119236186 -0.012563563 -0.062122036 0.087704316 -0.07714422 -0.00047580636 0.10370997 0.023114068
0.0068937256 0.0969792 -0.16424188 -0.09585936 0.044000316 -0.12685692 -0.11650488 0.17679113
-0.082975596 0.11999391 0.07721439 0.0601701 0.06627414 -0.045501135 0.049262255 0.07208932
0.08651406 0.06792524 0.23446134 -0.018656846 0.047372483 -0.030568622 0.06899592 -0.028252104
-0.010284165 -0.09000316 0.07867824 -0.092685804 0.11150749 -0.10587659 -0.124426335 -0.081112586
0.065685384 -0.17257157 -0.004123506 -0.023183962 0.11565852 -0.04450931 -0.09762836 -0.11273145
-0.0440072 0.06498955 0.00011383757 0.07557589 -0.005770461 0.04987496 -0.06879828 -0.0055647506
0.09678511 -0.0033717335 0.10356683 0.082173154 0.052696306 -0.07636703 0.06352813 -0.10985039
0.04710473 0.08447729 0.1269413 0.04233334 0.003872293 0.041986078 -0.06598952 0.06706892
0.18580653 0.027129125 0.027133344 -0.036779985 0.031931624 -0.00048812618 -0.036526866 0.13862911
-0.027612805 0.15033874 0.09960539 0.0124152955 0.0933465 -0.08504725 -0.04984216 0.16801092
0.05435264 -0.024052605 -0.05588328 0.04259375 0.08085108 -0.05156713 -0.16047871 0.14164363
-0.029440865 0.16145998 -0.07756997 -0.026720345 0.15910159 0.07699945 0.030072885 -0.026842976
-0.108364254 -0.007457764 0.005775806 0.1687979 -0.07936367 -0.14883558 -0.11593109 0.13655582
-0.1330101 -0.041834187 -0.024737803 0.0634556 -0.13370222 0.08595161 0.064174935 0.078621015
-0.023700146 -0.067171365 0.06724926 -0.08914309 0.08348565 0.14384897 -0.025132596 0.091971666
0.013498604 -0.038839698 0.072341494 -0.06861702 -0.07873045 0.022117054 0.06943206 -0.11495858
-0.08407849 -0.11347319 0.10938549 0.018150866 0.096372485 -0.04686283 0.12145128 0.057866473
-0.10297549 -0.059193783 0.07382072 -0.08151863 -0.050774604 -0.042830337 0.1419991 0.044852138
-0.068937175 0.03999014 -0.050278675 0.08722921 -0.040295117 -0.12045378 -0.11652699 0.04840746
0.012351864 0.046877556 0.07320646 0.059762582 -0.16272476 0.026728945 -0.081936635 -0.036335062
0.04701418 -0.032907996 -0.037272595 -0.055717185 0.0239891 -0.045587733 0.13045502 -0.1182165
0.1583723 0.033431556 -0.071949504 0.043686222 0.06520569 0.07318813 0.04687899 0.066865146
0.013524613 -0.05979745 -0.0042663477 0.24258235 0.026086843 0.02880585 -0.01268983 -0.08187152
0.025525182 0.060930442 -0.13299926 0.19974115 0.22833857 -0.07053968 -0.1476995 -0.04548825
-0.0020990993 -0.014030454 -0.07854322 0.00493069 0.012297478 -0.08324475 -0.035226613 0.19632708
-0.09203862 -0.07365823 0.123975076 -0.05759888 0.1026977 0.03247167 -0.087257944 -0.1632194
0.10798022 0.11082009 0.031295206 0.06507249 -0.10758372 0.042942252 -0.14280143 -0.12531099
-0.01713383 0.04162784 0.08841922 0.06669271 0.08520223 0.12219639 -0.09194996 -0.09570976
0.11888684 0.16419381 0.033866074 0.12905951 0.031860266 0.13054727 0.052972224 -0.03148701
00000000: a260 aa3d a752 51bb 0d3e 6ebc 10ea f73c
00000010: 7724 e1bd 73e3 503d c233 b0bd df75 afbd
00000020: 5ffe 753c 7cc5 233e 5d6c b7bc f3bc e53d
00000030: 0d41 043d 2d8d c03d a60d db3d 40f6 9bbc
00000040: 1a32 f4bd 67d7 4dbc ad73 7ebd 529e b33d
00000050: cafd 9dbd a675 f9b9 e565 d43d b759 bd3c
00000060: c3e4 e13b 089d c63d 062f 28be ea51 c4bd
00000070: ad39 343d c8e6 01be 1c9a eebd bc08 353e
00000080: 1cef a9bd 5ebf f53d 9422 9e3d ec74 763d
00000090: bcba 873d 665f 3abd 38c7 493d 91a3 933d
000000a0: 492e b13d 631c 8b3d a216 703e 3ed6 98bc
000000b0: a609 423d 0c6b fabc bc4d 8d3d f570 e7bc
000000c0: ea7e 28bc 9453 b8bd 0f22 a13d 0ed2 bdbd
000000d0: 0a5e e43d d3d5 d8bd 3cd3 febd 5b1e a6bd
000000e0: 0f86 863d 9ab6 30be 7a1e 87bb 4bec bdbc
000000f0: 60de ec3d 654f 36bd 61f1 c7bd bfdf e6bd
00000100: e540 34bd 3e19 853d 14bc ee38 88c7 9a3d
00000110: 2316 bdbb b049 4c3d 1de6 8cbd 8358 b6bb
00000120: 4637 c63d 4df8 5cbb d91a d43d 664a a83d
00000130: 15d8 573d 5166 9cbd 091b 823d 3ef9 e0bd
00000140: e4f0 403d 6e02 ad3d e6fc 013e b965 2d3d
00000150: 4cc6 7d3b 98f9 2b3d 8325 87bd 6e5b 893d
00000160: 1144 3e3e e63d de3c bf46 de3c 9ca6 16bd
00000170: bcca 023d 30eb ffb9 329d 15bd caf4 0d3e
00000180: 4034 e2bc 66f2 193e e9fd cb3d 8669 4b3c
00000190: 732c bf3d 412d aebd 4b27 4cbd 0e0b 2c3e
000001a0: e0a0 5e3d f809 c5bc dee5 64bd c976 2e3d
000001b0: 4095 a53d 0e38 53bd 8854 24be 070b 113e
000001c0: f82d f1bc c455 253e 01dd 9ebd a0e4 dabc
000001d0: 87eb 223e e3b1 9d3d 695b f63c cde5 dbbc
000001e0: 14ee ddbd 4260 f4bb f942 bd3b 5bd9 2c3e
000001f0: 6b89 a2bd 5b68 18be 486d edbd 4ad5 0b3e
00000200: cd33 08be 535a 2bbd efa6 cabc 02f5 813d
00000210: 3ce9 08be 6607 b03d 266e 833d 0e04 a13d
00000220: cf26 c2bc 2491 89bd fbb9 893d a790 b6bd
00000230: 86fa aa3d 254d 133e e0e2 cdbc a45b bc3d
00000240: 4029 5d3c 6016 1fbd c727 943d 1587 8cbd
00000250: 6e3d a1bd d32e b53c 6532 8e3d 676f ebbd
00000260: 5831 acbd a264 e8bd 8005 e03d 20b1 943c
00000270: f05e c53d 3df3 3fbd 73bb f83d 6505 6d3d
00000280: d0e4 d2bd 2e75 72bd 512f 973d 3df3 a6bd
00000290: 08f9 4fbd dd6e 2fbd 3668 113e e0b6 373d
000002a0: ef2e 8dbd b3cc 233d 03f1 4dbd 3aa5 b23d
000002b0: 7e0c 25bd 79b0 f6bd b4a5 eebd e746 463d
000002c0: 795f 4a3c ae02 403d 45ed 953d 9cc9 743d
000002d0: 52a1 26be a9f6 da3c 65ce a7bd 13d4 14bd
000002e0: f191 403d 89ca 06bd 26ab 18bd b437 64bd
000002f0: ca84 c43c 34ba 3abd 0096 053e 7e1b f2bd
00000300: 592c 223e 87ef 083d 435a 93bd 53f0 323d
00000310: 908a 853d a9e3 953d 2f04 403d 98f0 883d
00000320: 5796 5d3c 2cee 74bd b8cc 8bbb 8267 783e
00000330: 13b4 d53c 3ffa eb3c 01e9 4fbc 41ac a7bd
00000340: 301a d13c 3392 793d f530 08be f288 4c3e
00000350: 96d1 693e 1c77 90bd 8a3e 17be e351 3abd
00000360: 0b91 09bb fddf 65bc 45db a0bd a091 a13b
00000370: 5c7b 493c 397c aabd c849 10bd f709 493e
00000380: be7e bcbd 20da 96bd a5e6 fd3d ceec 6bbd
00000390: 2c53 d23d 0401 053d 4bb4 b2bd fd22 27be
000003a0: bc24 dd3d a5f5 e23d 672f 003d ba44 853d
000003b0: da54 dcbd 37e4 2f3d 8a3a 12be 8651 00be
000003c0: 3f5c 8cbc f481 2a3d 2315 b53d 3096 883d
000003d0: 827e ae3d 1a42 fa3d 4350 bcbd 7b03 c4bd
000003e0: f27a f33d 6c22 283e 27b7 0a3d 2d28 043e
000003f0: e97f 023d 2fae 053e 67f9 583d 86f8 00bd

bias f4 [256]
0.052357618 0.058780927 0.0049288752 -0.09306499 0.13704138 -0.05834325 -0.12122389 -0.07462188
-0.032969326 -0.09041547 0.13979322 0.08286506 -0.103649326 -0.10397478 0.142162 0.05993604
0.06789881 -0.0152667435 0.029962538 0.10222634 -0.02187282 -0.033701595 -0.04719618 0.018658394
0.020380864 -0.097883776 0.03818668 0.09921 -0.04085667 0.027371394 -0.0031169867 0.012185575
-0.049512565 0.035790328 0.06904761 0.040855467 0.012805933 0.0057493174 -0.0009756718 0.11972536
-0.050153106 0.017989833 0.11609238 0.10021939 -0.121764064 -0.09000473 0.11172735 -0.020117484
0.07463296 -0.0112539 -0.06907739 0.060393196 0.10955817 -0.060779363 0.043061174 -0.11327018
0.04213558 0.07479036 -0.063057534 -0.08255184 -0.0979242 -0.014773854 0.01314426 -0.08221308
0.014614943 -0.03714358 0.035650548 0.13820338 -0.06095761 -0.030977016 0.0866888 0.08299644
-0.033600636 0.05979633 0.012404827 -0.07783291 -0.04729443 0.043996505 -0.025275731 0.078618996
-0.14152779 -0.016885333 -0.12262346 -0.023586502 0.072149985 0.06310105 0.10720899 -0.013842276
-0.07565436 0.039445464 0.13236113 0.07460251 0.051058754 0.059954114 0.086265296 0.05139677
-0.12614171 0.01572591 -0.08249948 -0.11691151 -0.046153143 -0.005585516 -0.051133096 -0.12284955
-0.06176231 0.123209886 -0.050524965 -0.085536286 0.00043714736 -0.101797245 -0.110872045 0.14610903
-0.047379207 0.13797835 0.07925816 -0.037821036 -0.07997541 0.07481169 -0.0488058 -0.1374708
-0.0046465867 0.050401155 -0.022062626 0.1002385 0.008291046 -0.010806166 -0.058402468 0.12121064
-0.09727721 0.054756027 0.07172235 0.124834605 0.047858343 0.10307738 -0.077614255 0.011656286
0.05893647 0.0023751536 -0.05899894 -0.005740469 0.052694276 0.111118175 0.04874768 -0.02777797
0.01104412 -0.07942195 -0.035914976 0.11941036 -0.04729627 -0.041476402 0.026426217 -0.04682172
0.011297958 0.08823301 0.09777664 -0.13436712 -0.06668162 -0.0052037816 0.07956179 0.011273056
0.12432562 0.042463124 -0.07175602 0.07490308 0.08812033 0.13656203 -0.09048589 -0.12388105
-0.075352624 -0.007211762 0.052979123 -0.09989002 -0.09074781 0.11861155 0.043699283 -0.07696693
-0.03199575 0.12593508 0.088475086 0.034967635 -0.034121953 0.047568075 -0.0040594456 0.04689986
-0.023949541 -0.09065384 0.071458675 -0.10518783 0.03373879 -0.03107474 0.0303344 -0.07078278
0.05806834 0.08269947 0.03695089 0.032700084 0.030869558 0.056940198 -0.080081396 -0.07170198
-0.035414394 0.085050024 0.05661613 -0.062382683 -0.033168603 -0.10188571 0.06664056 0.1037204
0.11952822 0.09878034 0.1171032 -0.00062205544 0.01336905 0.001424636 -0.09297502 -0.018637365
-0.12939721 0.050335076 -0.09728833 -0.09333809 0.004874267 0.12951407 -0.020824958 -0.1388178
-0.06384272 0.040510204 0.10209205 -0.012956975 -0.036936015 0.005699707 -0.12794216 0.059909966
0.019192044 -0.025356892 0.0650762 0.15232942 -0.1400417 -0.064454295 -0.09084212 0.09113807
0.12303818 -0.13902225 0.005435671 0.0008730704 -0.052789688 0.056506187 -0.06711705 0.041583065
0.04061405 -0.0076981783 0.08263499 -0.020982793 -0.040719457 -0.036222253 0.109191336 0.077056386
00000000: f174 563d 45c4 703d 6782 a13b dc98 bebd
00000010: 9354 0c3e 55f9 6ebd 3b44 f8bd 5bd3 98bd
00000020: d80a 07bd bf2b b9bd f425 0f3e 28b5 a93d
00000030: 1946 d4bd bbf0 d4bd ea92 113e 7e7f 753d
00000040: 880e 8b3d 5d21 7abc ff73 f53c 0b5c d13d
00000050: a12e b3bc af0a 0abd c850 41bd 7dd9 983c
00000060: c5f5 a63c 4a77 c8bd a369 1c3d 9d2e cb3d
00000070: 5359 27bd f939 e03c 5c46 4cbb 02a6 473c
00000080: b0cd 4abd e198 123d d568 8d3d 1058 273d
00000090: facf 513c c564 bc3b 3ac4 7fba 9232 f53d
000000a0: 586d 4dbd 6a5f 933c d7c1 ed3d d33f cd3d
000000b0: 705f f9bd 6654 b8bd 4fd1 e43d 6ccd a4bc
000000c0: 2ad9 983d 4762 38bc 7278 8dbd db5e 773d
000000d0: 0960 e03d c8f3 78bd ea60 303d 32fa e7bd
000000e0: 5c96 2c3d b02b 993d 4f24 81bd f010 a9bd
000000f0: 7c8c c8bd 090e 72bc 065b 573c 555f a8bd
00000100: 8473 6f3c de23 18bd 4f06 123d 3085 0d3e
00000110: b0ae 79bd 83c3 fdbc e689 b13d 0afa a93d
00000120: d2a0 09bd ffec 743d 9e3d 4b3c dc66 9fbd
00000130: ceb7 41bd ae35 343d 0d0f cfbc ff02 a13d
00000140: a9ec 10be 1c53 8abc 0222 fbbd 7b38 c1bc
00000150: 5fc3 933d 203b 813d 6390 db3d b7ca 62bc
00000160: acf0 9abd 9191 213d ad89 073e 33c9 983d
00000170: fc22 513d 7292 753d dcab b03d 6b85 523d
00000180: 4b2b 01be a0d3 803c 7df5 a8bd 4d6f efbd
00000190: 140b 3dbd b406 b7bb f070 51bd 8b98 fbbd
000001a0: 7afa 7cbd 7755 fc3d 44f3 4ebd a62d afbd
000001b0: ed30 e539 137b d0bd e210 e3bd 9b9d 153e
000001c0: b310 42bd 324a 0d3e 1a52 a23d 3bea 1abd
000001d0: 26ca a3bd df36 993d 97e8 47bd 25c5 0cbe
000001e0: 6542 98bb 7171 4e3d aebc b4bc d849 cd3d
000001f0: 2bd7 073c 580c 31bc 6d37 6fbd 493d f83d
00000200: 4639 c7bd db47 603d 2be3 923d 49a9 ff3d
00000210: 1c07 443d 3c1a d33d 39f4 9ebd 02fa 3e3c
00000220: 5e67 713d 77a8 1b3b dfa8 71bd 8b1a bcbb
00000230: f4d5 573d ed91 e33d a6ab 473d a08e e3bc
00000240: 66f2 343c faa7 a2bd 951b 13bd 6b8d f43d
00000250: bcb9 41bd 29e3 29bd cb7b d83c 22c8 3fbd
00000260: 121b 393c 82b3 b43d 1e3f c83d 8997 09be
00000270: 6090 88bd 7c84 aabb 4bf1 a23d a0b2 383c
00000280: 6e9e fe3d d0ed 2d3d d2f4 92bd c966 993d
00000290: 6e78 b43d ebd6 0b3e ab50 b9bd 59b5 fdbd
000002a0: 7a52 9abd a550 ecbb a300 593d 2493 ccbd
000002b0: fdd9 b9bd 9dea f23d 05fe 323d d6a0 9dbd
000002c0: fa0d 03bd 20f5 003e 6d32 b53d 393a 0f3d
000002d0: 76c3 0bbd bed6 423d 1905 85bb 111a 403d
000002e0: d431 c4bc b8a8 b9bd ed58 923d b86c d7bd
000002f0: af31 0a3d 7490 febc d97f f83c 90f6 90bd
00000300: 11d9 6d3d 575e a93d d159 173d 86f0 053d
00000310: 28e2 fc3c 203a 693d b701 a4bd 7dd8 92bd
00000320: af0e 11bd b52e ae3d 51e6 673d fc84 7fbd
00000330: cddb 07bd 75a9 d0bd d97a 883d 5c6b d43d
00000340: 36cb f43d 594d ca3d cdd3 ef3d 6f11 23ba
00000350: dc09 5b3c daba ba3a b069 bebd 63ad 98bc
00000360: b480 04be 272c 4e3d 1b3f c7bd 0a28 bfbd
00000370: 51b8 9f3b 569f 043e 1a99 aabc 4126 0ebe
00000380: f9bf 82bd 07ee 253d a315 d13d 7e49 54bc
00000390: 384a 17bd 9cc4 ba3b 4503 03be 2764 753d
000003a0: a238 9d3c 42b9 cfbc ac46 853d 3efc 1b3e
000003b0: 1767 0fbe 9d00 84bd 6f0b babd 99a6 ba3d
000003c0: 71fb fb3d d95b 0ebe b71d b23b c3de 643a
000003d0: 003a 58bd 0873 673d aa74 89bd 0153 2a3d
000003e0: eb5a 263d 0041 fcbb 893c a93d 1be4 abbc
000003f0: 72c9 26bd c95d 14bd b59f df3d bdcf 9d3d

weight f4 [32, 256]
-0.005207223 0.041234396 0.01382058 -0.00031352634 0.07898635 -0.0849187 0.050123576 0.22517754
-0.006613268 -0.028251674 -0.0057506585 0.01680423 0.10898124 0.046986103 0.023426576 -0.040795673
-0.054600593 0.09461878 0.037034187 0.012987148 0.0727594 -0.042026293 -0.053713188 0.16318634
-0.023631366 0.0028296206 0.043384306 0.033783235 0.03806201 -0.024586134 0.061591007 -0.057086963
0.0486393 -0.00543436 -0.009257782 0.008478374 0.056562085 0.112806976 0.003484055 -0.016057568
0.030262403 0.057529286 -0.018056015 -0.01823114 0.050557464 -0.10682494 0.013570699 0.027999261
0.012787165 0.060840476 -0.041180484 -0.02331703 -0.035277568 0.05656289 0.04243174 0.007083508
0.08473562 0.018461214 0.0077550444 -0.13923128 0.10058176 0.038596876 0.046571694 0.023500372
-0.028469652 -0.0410504 -0.036993384 -0.04215839 -0.040646076 0.06327879 0.003992677 0.10110469
-0.02721548 -0.044617664 -0.0017307869 0.04330972 0.098126434 0.02677868 -0.03756034 -0.025564954
-0.050795164 0.03803411 -0.013059728 -0.03274638 -0.036546625 0.05718545 0.06597665 0.054970022
-0.0445885 -0.020150175 0.053827375 -0.026908442 0.053088117 -0.020449761 0.0621119 -0.022933519
0.047312416 0.007952543 -0.017708875 -0.030564245 -0.03733601 0.050135314 0.049968824 -0.082109876
0.0006227519 -0.004339404 0.0739026 0.064296 0.14465468 0.025060365 0.06714633 -0.04423848
0.055166345 0.030620517 -0.0363419 0.0014330319 0.20576946 0.04760815 -0.013687131 0.010243108
-0.029801391 -0.04557083 0.123759456 0.0392526 -0.011481399 -0.008231962 -0.03450285 0.03378893
-0.05757268 0.0019203619 -0.045572706 -0.028121114 -0.04521281 0.040142488 -0.024950454 -0.030065399
0.043267246 -0.07381276 0.055168163 0.0066912244 0.163771 0.06392932 0.058316603 -0.06830596
-0.042901054 0.009747044 0.0038868738 -0.017436145 -0.04292752 -0.04369761 -0.01005926 0.06633481
0.063353576 -0.10970674 0.011799568 0.010724911 0.07422294 -0.04836562 -0.01305042 -0.05154967
0.052570373 -0.00034411176 -0.041470725 -0.029777713 -0.037681095 0.052579597 0.026004285 0.016560303
-0.012405217 0.017589187 0.07273199 -0.03261762 -0.019724436 0.023636352 0.0027314702 0.1820751
0.02771465 -0.007118386 -0.044243164 0.035521306 -0.043634653 0.0100928405 -0.029154047 0.028167706
-0.011179486 0.0076502007 0.03356807 0.091228 -0.08500282 0.03223482 -0.029758716 0.08726622
-0.025711732 0.060940314 0.048396263 -0.053493395 0.04478303 0.0812391 -0.047609296 0.033476807
-0.048192814 -0.012468293 0.073953524 0.052913856 0.0053367685 0.09659111 0.060068175 0.08872176
0.03377023 -0.015265583 -0.03647709 0.042750508 -0.027887583 0.025900753 0.03679185 -0.012114495
-0.02518065 0.010754548 -0.07070187 -0.040497378 -0.040989865 0.022598647 -0.008713197 0.017734786
0.05634911 0.029479079 0.058910042 0.042608295 0.05640162 -0.037660945 -0.056360073 -0.059703972
0.056191664 0.034208827 0.061371084 0.03161537 -0.033517156 0.032123554 -0.027920546 0.0771008
0.059862316 0.010518626 0.020833619 -0.044888724 0.109878846 -0.044009075 -0.024849607 0.0064922525
-0.0022884284 0.0073245005 0.04245179 0.032991007 0.1298824 0.10025133 0.099086374 -0.03168286
00000000: 5aa1 aabb 66e5 283d b76f 623c cb60 a4b9
00000010: 98c3 a13d dbe9 adbd 614e 4d3d f194 663e
00000020: 1db4 d8bb 0e70 e7bc 0570 bcbb 06a9 893c
00000030: 8e31 df3d 8074 403d 17e9 bf3c 5d19 27bd
00000040: dfa4 5fbd 7ec7 c13d 29b1 173d 0cc8 543c
00000050: e102 953d c323 2cbd 5c02 5cbd 521a 273e
00000060: 9196 c1bc 2871 393b beb3 313d 4a60 0a3d
00000070: e9e6 1b3d dc68 c9bc da46 7c3d 05d4 69bd
00000080: 013a 473d b712 b2bb f4ad 17bc e1e8 0a3c
00000090: a5ad 673d 5807 e73d be54 643b 298b 83bc
000000a0: dce8 f73c d4a3 6b3d 35ea 93bc 7959 95bc
000000b0: 5815 4f3d 09c7 dabd a357 5e3c b55e e53c
000000c0: 4281 513c dd33 793d deac 28bd 5b03 bfbc
000000d0: 367f 10bd 7dae 673d e7cc 2d3d c61c e83b
000000e0: de89 ad3d f93b 973c 071e fe3b a592 0ebe
000000f0: cffd cd3d c217 1e3d f6c1 3e3d da83 c03c
00000100: 3039 e9bc 7724 28bd 6086 17bd 47ae 2cbd
00000110: 807c 26bd 4f98 813d 01d5 823b fa0f cf3d
00000120: 00f3 debc 03c1 36bd 92db e2ba 8865 313d
00000130: 83f6 c83d f65e db3c dfd8 19bd 986d d1bc
00000140: 970e 50bd a8c9 1b3d 78f8 55bc 1121 06bd
00000150: eab1 15bd 4a3b 6a3d c41e 873d 3f28 613d
00000160: 6ea2 36bd fb11 a5bc 187a 5c3d 186f dcbc
00000170: ed72 593d 4286 a7bc 0c69 7e3d 13df bbbc
00000180: aaca 413d 624b 023c 3412 91bc de61 fabc
00000190: a5ed 18bd b05a 4d3d 1cac 4c3d 3929 a8bd
000001a0: 2c40 233a 8f31 8ebb 3f5a 973d 9fad 833d
000001b0: 5b20 143e 654b cd3c 0484 893d 6933 35bd
000001c0: 1bf6 613d e1d7 fa3c 3edb 14bd 92d4 bb3a
000001d0: 3bb5 523e c300 433d fd3f 60bc b5d2 273c
000001e0: 0c22 f4bc 7ba8 3abd 9975 fd3d 56c7 203d
000001f0: 7a1c 3cbc 5adf 06bc dc52 0dbd 4366 0a3d
00000200: 55d1 6bbd a7b4 fb3a 72aa 3abd 405e e6bc
00000210: 1131 39bd 736c 243d e564 ccbc b64b f6bc
00000220: ff38 313d 252b 97bd 03f8 613d 0f42 db3b
00000230: 96b3 273e 60ed 823d 64dd 6e3d ffe3 8bbd
00000240: 04b9 2fbd 11b2 1f3c ecba 7e3b 3fd6 8ebc
00000250: c4d4 2fbd 44fc 32bd 98cf 24bc 8bda 873d
00000260: 85bf 813d edad e0bd fa52 413c 89b7 2f3c
00000270: 3202 983d 071b 46bd 6ed1 55bc bf25 53bd
00000280: 0854 573d e669 b4b9 35dd 29bd 64f0 f3bc
00000290: 7e57 1abd b45d 573d f006 d53c 79a9 873c
000002a0: 403f 4bbc 3317 903c 82f4 943d 0e9a 05bd
000002b0: 2495 a1bc 06a1 c13c 7702 333b e571 3a3e
000002c0: d509 e33c 5a41 e9bb 5238 35bd ca7e 113d
000002d0: 40ba 32bd 715c 253c 78d4 eebc f6bf e63c
000002e0: 2a2a 37bc 89ae fa3b ac7e 093d bfd5 ba3d
000002f0: f515 aebd a908 043d 8dc8 f3bc a2b8 b23d
00000300: 69a1 d2bc 8d9c 793d 293b 463d e41b 5bbd
00000310: 696e 373d af60 a63d f701 43bd fa1e 093d
00000320: d465 45bd d047 4cbc f274 973d 33bc 583d
00000330: 0fe0 ae3b 8fd1 c53d 0c0a 763d c1b3 b53d
00000340: a752 0a3d 7f1c 7abc 0069 15bd 281b 2f3d
00000350: 8074 e4bc d12d d43c 0db3 163d e07b 46bc
00000360: a747 cebc d833 303c 24cc 90bd 94e0 25bd
00000370: fde4 27bd cc20 b93c ccc1 0ebc 8b48 913c
00000380: 53ce 663d 1c7e f13c a84b 713d 0986 2e3d
00000390: 6305 673d 5d42 1abd d2d9 66bd 278c 74bd
000003a0: 3b29 663d 8e1e 0c3d 3f60 7b3d 1e7f 013d
000003b0: 4949 09bd fd93 033d a1b9 e4bc 06e7 9d3d
000003c0: 3032 753d 5156 2c3c 44ab aa3c 3ddd 37bd
000003d0: 2908 e13d dc42 34bd 6791 cbbc f6bc d43b
000003e0: 75f9 15bb 5d02 f03b eee1 2d3d 9421 073d
000003f0: e4ff 043e 9250 cd3d cced ca3d e3c5 01bd

bias f4 [32]
0.06280979 -0.015451758 0.001447805 -0.009283764 0.039129395 0.03348654 -0.041529257 0.001476688
0.0030741931 -0.0044221845 -0.040657062 0.06296668 -0.0700987 -0.06528852 0.04170394 -0.056755066
-0.069246255 -0.026568156 -0.04256863 -0.046553656 0.03144425 -0.04702147 0.0027749646 0.06698097
-0.07032838 -0.057383787 0.0016294718 0.037085645 0.07244509 0.03908204 -0.07031301 -0.053972147
00000000: 6ba2 803d 5f29 7dbc 46c4 bd3a ee1a 18bc
00000010: 2546 203d 2f29 093d 951a 2abd 6d8d c13a
00000020: 6778 493b f9e7 90bb 0588 26bd adf4 803d
00000030: e88f 8fbd fdb5 85bd c0d1 2a3d 0078 68bd
00000040: fbd0 8dbd 76a5 d9bc 725c 2ebd 0caf 3ebd
00000050: b0cb 003d 9699 40bd 2edc 353b 522d 893d
00000060: 5308 90bd 430b 6bbd 0094 d53a 1ee7 173d
00000070: 175e 943d 7d14 203d 4400 90bd e611 5dbd

weight f4 [1, 32]
-0.17809947 -0.14443745 0.16482285 0.33130756 -0.0146611305 -0.15805861 0.24102281 -0.063987315
0.22627045 0.1749745 -0.1459299 -0.0682495 -0.076142356 -0.031614155 0.12857723 0.16589917
0.2189665 0.12976992 0.12513229 0.16598715 -0.031714942 0.074111484 -0.1277125 -0.1520487
0.12600671 0.2022925 0.045839194 -0.0011721423 -0.11556057 -0.053620365 -0.015832935 0.14700389
00000000: b55f 36be 69e7 13be 52c7 283e 25a1 a93e
00000010: 3d35 70bc 1eda 21be afce 763e c80b 83bd
00000020: 71b3 673e 842c 333e a66e 15be 65c6 8bbd
00000030: 86f0 9bbd d87d 01bd c0a9 033e 79e1 293e
00000040: c138 603e 68e2 043e ae22 003e 89f8 293e
00000050: 87e7 01bd c3c7 973d 11c7 02be a8b2 1bbe
00000060: e707 013e c425 4f3e e1c1 3b3d 92a2 99ba
00000070: 05ab ecbd 07a1 5bbd 12b4 81bc 3088 163e

exp_avg f4 [64, 20]
6.609377e-05 -0.00026470012 -2.4859593e-05 -7.852544e-05 -0.00013594038 0.00032478667 -0.00041518486 9.315288e-05
1.3769137e-05 4.4527706e-06 -0.0003013151 -0.00027415904 -5.535495e-05 -0.0002601245 -0.00011638107 -0.00027148947
0.00012055293 -0.000135091 -0.00025510314 -0.00024632536 -0.0015256249 -0.0040091216 -0.0018584137 -0.0012077861
-0.0018903574 -0.0017565625 -0.0030395784 -0.0025313392 -0.002287203 -0.00195321 -0.0031146149 -0.0030225536
-0.002339369 -0.0040362426 -0.0012720971 -0.0040253866 -2.1962578e-06 -0.0007267556 -0.0040353136 -0.0036308107
-0.0005334768 -0.0016993051 -0.00092856825 -4.2423533e-05 -0.00081792724 -0.0003746155 -0.0016650278 -0.0007928499
-0.001308413 -0.0005450382 -0.0010862648 -0.0006438069 -0.00033731654 -0.0017232986 -8.2344086e-05 -0.0017244118
-0.00027029257 -0.00061184575 -0.0017093173 -0.0016516694 0.0010099052 0.0022881443 0.001442428 0.0013845575
0.0014021992 0.0008510244 0.0018900989 0.0016992385 0.0013781586 0.0015102898 0.002130509 0.0018785228
0.0015352487 0.0023409275 0.000546918 0.0023132337 -0.00020439949 0.0006350203 0.002254223 0.0020472654
-0.0015477262 -0.0023254538 -0.0004727882 -0.0011009618 -0.0012227423 -0.0005428195 -0.0022525599 -0.0017504101
-0.0005908885 -0.00090416626 -0.0021262083 -0.0016742527 -0.001580677 -0.0023782947 -0.00072573294 -0.0023280936
0.0005255699 -0.0009211044 -0.0022640422 -0.0020556808 0.00077679916 0.002187954 0.0014632606 0.0011752959
0.0012261169 0.00033361546 0.0019461358 0.0014450813 0.001537066 0.0016167379 0.0020888362 0.0016606869
0.0014255726 0.002276504 0.00072925177 0.002227335 -0.00052160025 0.0006112411 0.0021674286 0.0020955927
-0.0012168566 -0.002911091 -0.0017347465 -0.0015664335 -0.0013715618 -0.0015946177 -0.002184351 -0.002116659
-0.0021324412 -0.0022128553 -0.003007493 -0.0018104919 -0.0021269124 -0.0029736776 -0.00091018376 -0.002934741
0.0005323883 -0.001085088 -0.002852024 -0.002320147 -0.0012534889 -0.001685139 -0.00071636983 -0.0005879944
-0.0014211682 -0.00021256755 -0.0016061881 -0.0012268126 -0.00091663457 -0.0015205257 -0.0015864727 -0.0011277538
-0.0011659315 -0.0017571539 -0.0005124359 -0.0017323305 0.00055421644 -0.0007058352 -0.0016168101 -0.0020208433
-0.00015752621 -0.0003699811 -0.00037538455 -0.0003783016 -0.00018156297 -0.00063479133 0.00020865328 -0.0005113325
-0.00030409097 -0.00014310217 -0.0002116507 -0.0006160394 -0.00038452607 -0.00038910648 -0.00023817125 -0.00038368718
-0.00030929383 9.067057e-05 -0.00039131226 -0.00033035834 -0.0012413367 -0.0026732825 -0.0016000675 -0.0015537271
-0.00063046924 -0.0010362199 -0.0018934906 -0.0016110697 -0.002146613 -0.0021303957 -0.0027925547 -0.0015997296
-0.0018540355 -0.0027659105 -0.00087668904 -0.0027631624 0.00086494786 -0.0006908666 -0.0026823832 -0.0025493153
-0.0002740837 -2.3664219e-05 -1.8713894e-06 0.00014652555 -4.008238e-05 0.00025280679 -0.00034639548 0.00017058675
4.1868945e-05 -6.727627e-05 -2.1126638e-05 -5.23299e-05 -4.867049e-05 -3.7487174e-05 0.00018841344 -2.6016856e-05
0.0002594542 0.00011230904 -3.354887e-05 -3.394793e-05 6.789016e-05 -8.892406e-06 4.720993e-05 4.172743e-05
1.2417961e-05 7.724457e-06 1.4336351e-05 4.7101166e-05 -1.4742861e-05 2.8777482e-05 1.6109749e-05 -0.00010760457
1.7100521e-05 -2.5760098e-06 -2.3534778e-05 -7.678652e-06 3.043412e-05 -5.3388278e-05 8.588022e-07 -1.5378588e-05
-0.00023754357 -0.00012689238 -0.00035554124 -0.000104870785 -2.3172888e-05 -0.0003652832 0.00012897205 -0.00030475634
-0.00033362905 -0.00041583861 -9.0250396e-05 -9.6682656e-05 -0.00020803143 -0.00013968526 -6.7069464e-05 -0.0001396075
00000000: d39b 8a38 73c7 8ab9 9289 d0b7 06ae a4b8
00000010: 388b 0eb9 2148 aa39 2bad d9b9 125b c338
00000020: fe01 6737 0269 9536 d4f9 9db9 01bd 8fb9
00000030: ed2c 68b8 5261 88b9 9c11 f4b8 b356 8eb9
00000040: 5dd1 fc38 37a7 0db9 5dbf 85b9 3b25 81b9
00000050: 7af7 c7ba f35e 83bb 0496 f3ba 944e 9eba
00000060: dec5 f7ba 753c e6ba aa33 47bb d3e4 25bb
00000070: e6e4 15bb 6d01 00bb 911e 4cbb 0916 46bb
00000080: 1950 19bb 7542 84bb 7fbc a6ba 64e7 83bb
00000090: 6c63 13b6 be83 3eba aa3a 84bb e5f2 6dbb
000000a0: 06d9 0bba 38bb deba 296b 73ba ecef 31b8
000000b0: 2b6a 56ba 0b68 c4b9 103d daba 42d7 4fba
000000c0: 0e7f abba e5e0 0eba 0061 8eba 26c5 28ba
000000d0: dcd9 b0b9 4ee0 e1ba 25b0 acb8 a905 e2ba
000000e0: 0eb6 8db9 4664 20ba 2c0b e0ba d47c d8ba
000000f0: cc5e 843a b1f4 153b da0f bd3a 0a7a b53a
00000100: ffc9 b73a 4817 5f3a 32bd f73a fcb8 de3a
00000110: 54a3 b43a ebf4 c53a 02a0 0b3b c438 f63a
00000120: 663a c93a 3f6a 193b 0c5f 0f3a 9f99 173b
00000130: 1254 56b9 7e77 263a 96bb 133b 6a2b 063b
00000140: 13dd caba a466 18bb 8fe0 f7b9 264e 90ba
00000150: 6c44 a0ba 004c 0eba af9f 13bb 046e e5ba
00000160: dbe5 1aba 9205 6dba db57 0bbb 9972 dbba
00000170: b82e cfba 2add 1bbb 1d3f 3eba ee92 18bb
00000180: 66c6 093a 4576 71ba 5360 14bb 9ab8 06bb
00000190: 1ca2 4b3a c763 0f3b e1ca bf3a 630c 9a3a
000001a0: a8b5 a03a 1ce9 ae39 7b15 ff3a e268 bd3a
000001b0: 6077 c93a b9e8 d33a dbe4 083b 68ab d93a
000001c0: 47da ba3a 6631 153b 422b 3f3a 7bf8 113b
000001d0: 00bc 08ba b23b 203a 6b0b 0e3b 3656 093b
000001e0: ef7e 9fba 01c8 3ebb 6f60 e3ba c950 cdba
000001f0: fac5 b3ba 7e02 d1ba 5427 0fbb a5b7 0abb
00000200: 6dc0 0bbb 8d05 11bb 5c19 45bb 074e edba
00000210: ab63 0bbb 08e2 42bb 6699 6eba c954 40bb
00000220: f98f 0b3a 8339 8eba 06e9 3abb 9b0d 18bb
00000230: 1c4c a4ba e2df dcba c4ca 3bba a323 1aba
00000240: 7e46 baba abe4 5eb9 bb86 d2ba 00cd a0ba
00000250: 4e4a 70ba 604c c7ba 31f1 cfba 23d1 93ba
00000260: 2bd2 98ba 4d50 e6ba fe54 06ba 5e0f e3ba
00000270: d648 113a cc07 39ba 25eb d3ba 2070 04bb
00000280: 9f2d 25b9 06fa c1b9 43cf c4b9 c856 c6b9
00000290: f061 3eb9 2068 26ba f0c9 5a39 f10a 06ba
000002a0: 666e 9fb9 b20d 16b9 8dee 5db9 b47d 21ba
000002b0: 379a c9b9 fd00 ccb9 9cbd 79b9 9f29 c9b9
000002c0: b728 a2b9 6426 be38 0b29 cdb9 f233 adb9
000002d0: 59b4 a2ba 3d32 2fbb 5bb9 d1ba 6ea6 cbba
000002e0: 1346 25ba c5d1 87ba 002f f8ba 872a d3ba
000002f0: 31ae 0cbb 1c9e 0bbb 4b03 37bb 05ae d1ba
00000300: 1c03 f3ba 4744 35bb 9bd1 65ba 2c16 35bb
00000310: abbd 623a 461b 35ba ecca 2fbb 6a12 27bb
00000320: e4b2 8fb9 8682 c6b7 732c fbb5 a7a4 1939
00000330: 211e 28b8 278b 8439 6a9c b5b9 88df 3239
00000340: 709c 2f38 ac16 8db8 1c39 b1b7 cd7c 5bb8
00000350: 8a23 4cb8 8c3b 1db8 d990 4539 c63e dab7
00000360: 5a07 8839 7587 eb38 d3b6 0cb8 5063 0eb8
00000370: 4160 8e38 9830 15b7 4703 4638 7d04 2f38
00000380: bd56 5037 4a98 0137 2986 7037 7e8e 4538
00000390: 1b58 77b7 2c67 f137 6c23 8737 c3a9 e1b8
000003a0: 1773 8f37 83df 2cb6 8d6c c5b7 8fd3 00b7
000003b0: c64c ff37 3aed 5fb8 7088 6635 4401 81b7
000003c0: 1e15 79b9 6a0e 05b9 f067 bab9 13ee dbb8
000003d0: 6663 c2b7 7b83 bfb9 ac3c 0739 b4c7 9fb9
000003e0: efea aeb9 ea04 dab9 d044 bdb8 1bc2 cab8
000003f0: 0323 5ab9 7a78 12b9 a5a7 8cb8 9a63 12b9

exp_avg_sq f4 [64, 20]
6.227878e-07 6.902296e-06 8.174726e-07 7.3304835e-07 3.1548127e-06 1.3222226e-06 4.641533e-06 1.498557e-06
1.0472756e-06 5.056878e-07 6.494328e-06 1.73831e-06 3.6551887e-07 6.906448e-06 5.4514504e-07 6.909662e-06
2.2073468e-06 5.980304e-07 6.8543336e-06 5.178348e-06 2.5712543e-05 6.301075e-05 1.5754698e-05 1.7179545e-05
1.5956957e-05 1.7251807e-05 3.5957983e-05 2.4002951e-05 1.5030057e-05 1.6190636e-05 4.582089e-05 3.227852e-05
1.8080167e-05 6.366217e-05 1.994829e-05 6.275002e-05 1.1282553e-05 9.981645e-06 6.341033e-05 5.808501e-05
6.081287e-06 1.9055477e-05 3.8120986e-06 2.0844304e-06 8.552696e-06 8.336032e-06 1.3656867e-05 3.2707126e-06
8.429052e-06 3.2690061e-06 1.3078735e-05 3.4176146e-06 4.5200463e-06 1.9466519e-05 2.9408743e-06 1.944795e-05
3.8688454e-06 6.309451e-06 1.9079387e-05 1.8136767e-05 3.308282e-05 9.085581e-05 3.296277e-05 3.431737e-05
4.8002188e-05 4.3629294e-05 5.126243e-05 3.5664467e-05 4.1587402e-05 2.7891474e-05 7.2673e-05 4.4781584e-05
3.177825e-05 9.051572e-05 3.2376378e-05 9.10151e-05 3.8826736e-05 3.306911e-05 8.997432e-05 7.708158e-05
3.2344895e-05 8.493351e-05 2.1775757e-05 2.3966066e-05 5.6181576e-05 4.3830234e-05 6.3393396e-05 3.613095e-05
3.5405177e-05 1.6875643e-05 7.524639e-05 4.8476864e-05 3.9312563e-05 8.459127e-05 3.6918704e-05 8.292115e-05
2.5673813e-05 2.5572856e-05 8.3020845e-05 6.7656685e-05 4.017662e-05 0.00011251255 4.303384e-05 3.7802587e-05
5.6333225e-05 5.0905783e-05 6.612015e-05 4.445703e-05 4.5188008e-05 3.48809e-05 9.752055e-05 5.0822782e-05
3.3329678e-05 0.000111063506 4.599016e-05 0.00011259831 4.501619e-05 3.888131e-05 0.00011212313 0.000100259254
6.532748e-05 0.000174698 6.638997e-05 6.696783e-05 7.4943615e-05 9.330598e-05 0.00013292575 6.294823e-05
7.174925e-05 5.8924383e-05 0.0001355916 6.9473106e-05 7.194619e-05 0.00017502006 7.616975e-05 0.00017267469
6.4293585e-05 7.034278e-05 0.00017124959 0.00014848991 6.685959e-05 0.000114448565 4.2881624e-05 5.0193856e-05
8.881991e-05 4.7472487e-05 7.5259835e-05 5.805859e-05 7.452839e-05 5.6559966e-05 8.0942846e-05 6.909967e-05
6.482193e-05 0.00011323074 7.0269336e-05 0.00011540667 5.8405407e-05 4.9239334e-05 0.00011151253 0.00010533697
1.1402757e-06 3.816469e-06 9.712404e-07 9.5288397e-07 9.11853e-07 2.0250425e-06 3.958209e-06 1.5129438e-06
9.3050016e-07 1.1459056e-06 3.6656397e-06 9.323504e-07 9.510973e-07 3.837642e-06 2.229458e-06 3.754348e-06
1.8819145e-06 1.4846113e-06 3.8220173e-06 3.930105e-06 6.0681105e-05 0.0001358302 5.2093557e-05 4.387498e-05
5.5791606e-05 7.784051e-05 9.8604505e-05 5.3459436e-05 6.746407e-05 4.464569e-05 0.000112462985 6.383075e-05
5.140213e-05 0.00013479251 6.381681e-05 0.00013874628 5.6450986e-05 5.6312336e-05 0.00013529533 0.0001218287
3.9628952e-07 2.5161144e-06 1.1684621e-07 3.9162046e-07 6.331921e-07 1.2736995e-06 1.5962489e-06 3.0107506e-07
6.690806e-07 3.3818085e-07 2.3086354e-06 5.0460665e-07 7.4672283e-07 2.5299012e-06 6.104707e-07 2.5171462e-06
4.970832e-07 1.3575067e-07 2.5098661e-06 2.4854767e-06 8.249224e-08 6.5067167e-07 3.558618e-07 2.1615202e-07
1.00220994e-07 5.93499e-07 2.6127955e-07 1.3177414e-07 1.01062895e-07 3.934671e-07 6.04609e-07 4.0693646e-07
2.0708052e-08 6.502258e-07 1.536063e-08 6.504706e-07 8.994004e-09 9.135893e-08 6.491665e-07 5.49032e-07
1.5119499e-06 3.1618551e-06 1.3917604e-06 1.7902685e-06 2.1236656e-06 2.9233272e-06 2.0580032e-06 1.849249e-06
3.0843805e-06 1.8015468e-06 2.57498e-06 1.8437395e-06 1.7455642e-06 2.9444816e-06 1.6914166e-06 3.0512176e-06
00000000: a72d 2735 459a e736 4a70 5b35 b3c6 4435
00000010: 45b7 5336 3977 b135 77be 9b36 0722 c935
00000020: 1e90 8c35 9abe 0735 dae9 d936 e04f e935
00000030: 883c c434 f0bd e736 1556 1235 8bd9 e736
00000040: ee21 1436 5688 2035 47fe e536 acc1 ad36
00000050: 44b1 d737 a424 8438 f528 8437 cb1c 9037
00000060: 4edb 8537 f9b7 9037 97d1 1638 f259 c937
00000070: 9a29 7c37 20d1 8737 ce2f 4038 cc62 0738
00000080: ddaa 9737 5e82 8538 a056 a737 a998 8338
00000090: 324a 3d37 d776 2737 29fb 8438 4ea0 7338
000000a0: dc0d cc36 53d9 9f37 5bd3 7f36 3ee2 0b36
000000b0: 8d7d 0f37 fcda 0b37 cc1f 6537 6a7e 5b36
000000c0: 816a 0d37 1961 5b36 bd6c 5b37 2c5a 6536
000000d0: e7aa 9736 084c a337 d65b 4536 2824 a337
000000e0: 21d1 8136 c5b5 d336 ac0c a037 6924 9837
000000f0: 68c2 0a38 d789 be38 8141 0a38 ffef 0f38
00000100: f555 4938 99fe 3638 9d02 5738 6e96 1538
00000110: 226e 2e38 7cf8 e937 0568 9838 dcd3 3b38
00000120: a349 0538 42d3 bd38 dfcb 0738 5cdf be38
00000130: e4d9 2238 b0b3 0a38 98b0 bc38 dca6 a138
00000140: 11aa 0738 551e b238 15ab b637 bc0a c937
00000150: 82a4 6b38 5bd6 3738 12f2 8438 508b 1738
00000160: 0580 1438 2b90 8d37 99cd 9d38 a353 4b38
00000170: 8be3 2438 9866 b138 28d9 1a38 f4e5 ad38
00000180: 185e d737 4a85 d637 7a1b ae38 e8e2 8d38
00000190: 5183 2838 b7f4 eb38 3c7f 3438 388e 1e38
000001a0: 5747 6c38 ab83 5538 fca9 8a38 5f77 3a38
000001b0: 4188 3d38 154d 1238 f283 cc38 8c2a 5538
000001c0: 78cb 0b38 c4ea e838 8fe5 4038 c222 ec38
000001d0: c4cf 3c38 7d14 2338 a623 eb38 4742 d238
000001e0: 6c00 8938 232f 3739 d83a 8b38 1471 8c38
000001f0: 0c2b 9d38 44ad c338 fc61 0b39 1303 8438
00000200: 1678 9638 9325 7738 982d 0e39 17b2 9138
00000210: d1e1 9638 9785 3739 53bd 9f38 0210 3539
00000220: 5bd5 8638 fe84 9338 7691 3339 f5b3 1b39
00000230: f836 8c38 1b04 f038 cbdb 3338 3e87 5238
00000240: d344 ba38 321d 4738 d1d4 9d38 f083 7338
00000250: 204c 9c38 cd3a 6d38 dcbf a938 9ae9 9038
00000260: 02f1 8738 4a76 ed38 905d 9338 7c06 f238
00000270: 54f8 7438 5586 4e38 d5db e938 5be8 dc38
00000280: 930b 9935 380f 8036 915b 8235 b0c9 7f35
00000290: 10c6 7435 f7e5 0736 c2d0 8436 5a10 cb35
000002a0: 7cc7 7935 04cd 9935 36ff 7536 a246 7a35
000002b0: e94e 7f35 18c5 8036 cc9d 1536 35f3 7b36
000002c0: 1796 fc35 db42 c735 e13e 8036 58df 8336
000002d0: d783 7e38 a46d 0e39 087f 5a38 6706 3838
000002e0: c801 6a38 4e3e a338 e4c9 ce38 a239 6038
000002f0: 7f7b 8d38 f241 3b38 1bda eb38 dfdc 8538
00000300: 9e98 5738 1757 0d39 64d5 8538 6c7c 1139
00000310: c9c5 6c38 e930 6c38 10de 0d39 497e ff38
00000320: 9ec1 d434 84da 2836 e2ec fa33 e83f d234
00000330: a1f8 2935 fbf3 aa35 b23e d635 71a3 a134
00000340: de9a 3335 398f b534 0eee 1a36 4e74 0735
00000350: 6772 4835 5fc7 2936 3adf 2335 3eec 2836
00000360: 4c6f 0535 dcc2 1134 2c6f 2836 2acc 2636
00000370: 9726 b133 d1a9 2e35 460d bf34 6a17 6834
00000380: 1339 d733 f150 1f35 fd45 8c34 cd7d 0d34
00000390: ea07 d933 b53d d334 6a4c 2235 ec78 da34
000003a0: 7de1 b132 2d8b 2e35 62f2 8332 009c 2e35
000003b0: 0c84 1a32 1a31 c433 6242 2e35 3161 1335
000003c0: 34ee ca35 4230 5436 86cc ba35 2849 f035
000003d0: 4c84 0e36 612e 4436 3a1c 0a36 b633 f835
000003e0: 41fd 4e36 adcc f135 d2cd 2c36 6876 f735
000003f0: 2149 ea35 cf99 4536 a204 e335 85c3 4c36

exp_avg f4 [64]
-0.00027383136 -0.0040314887 -0.0017204437 0.00233218 -0.002364589 0.0022469359 -0.0029456008 -0.001739913
-0.00038003846 -0.0027576997 -3.303018e-05 -8.233636e-06 -0.000141821 0.002114827 4.2770932e-07 0.0023714693
0.0 -0.00046684893 0.003489713 -0.002321458 -0.0018808785 1.9681173e-35 0.0021150096 -0.00075790315
-0.0011532368 -0.004071738 -1.8441668e-06 0.0 -0.0007316575 0.0028398193 0.0014988774 -0.001996129
0.0 -0.0005285604 -0.0015068122 0.00012379863 -0.00016913812 0.0022431493 0.0036271892 -0.00040297865
-0.0003291601 0.0013673834 -0.0019376309 0.0030750078 -0.0012544768 0.0005307898 -2.6574258e-05 -0.0014089622
-0.0022279776 5.886658e-05 -0.0007063159 0.0 -0.0026938315 -0.0009267196 -0.0026851313 0.0013741496
-0.00029057736 -0.00079687784 -0.0025933406 -0.0027815902 4.943656e-36 0.0001438562 0.0024514876 -0.00023627793
00000000: 0691 8fb9 941a 84bb 8380 e1ba 7dd7 183b
00000010: 38f7 1abb 5441 133b fb0a 41bb cb0d e4ba
00000020: e63f c7b9 86ba 34bb e389 0ab8 3323 0ab7
00000030: c9b5 14b9 e998 0a3b ec9f e534 a76a 1b3b
00000040: 0000 0000 67c3 f4b9 abb3 643b 9a23 18bb
00000050: cf87 f6ba 4049 d105 f99b 0a3b 05ae 46ba
00000060: 3528 97ba 376c 85bb 1785 f7b5 0000 0000
00000070: b4cc 3fba 431c 3a3b fb75 c43a 7dd1 02bb
00000080: 0000 0000 178f 0aba 3a80 c5ba f1cf 0139
00000090: ab5a 31b9 cd01 133b 23b6 6d3b e146 d3b9
000000a0: 1f93 acb9 c639 b33a 1bf8 fdba 1286 493b
000000b0: 426d a4ba b324 0b3a c9eb deb7 edac b8ba
000000c0: 4303 12bb 82e7 7638 0f28 39ba 0000 0000
000000d0: fe8a 30bb 19ef 72ba 07f9 2fbb cf1c b43a
000000e0: a258 98b9 91e5 50ba 09f5 29bb 574b 36bb
000000f0: a647 d204 1bd8 1639 23a9 203b 60c1 77b9

exp_avg_sq f4 [64]
7.077982e-06 6.37198e-05 1.9533287e-05 9.3029965e-05 8.597611e-05 0.00011572379 0.00017711532 0.000117986965
3.9170736e-06 0.00013960755 2.5415197e-06 6.504799e-07 3.1170844e-06 9.696073e-05 3.1814267e-09 3.4955687e-05
0.0 6.671475e-06 0.0001481993 0.00014691862 9.673255e-05 3.8810098e-13 7.1820374e-05 9.130691e-06
2.2444912e-05 2.4890509e-05 1.3235595e-08 0.0 5.386055e-06 7.572209e-05 1.9652722e-05 3.581768e-05
0.0 1.304131e-05 2.187023e-05 8.771656e-06 2.1981184e-06 0.00014724361 0.00013994297 5.9514317e-05
4.284703e-06 6.417904e-05 3.5252677e-05 0.00010594171 4.5136392e-05 9.037147e-06 3.2555618e-05 6.537113e-06
0.00014466922 2.9510915e-05 8.015493e-06 0.0 2.3781691e-05 2.9996168e-05 0.000101448444 9.044884e-05
5.1939055e-06 3.3272186e-06 0.00013037701 2.7717671e-05 3.6180863e-14 9.648625e-07 7.832265e-05 4.594626e-06
00000000: 677f ed36 4fa1 8538 6adb a337 1519 c338
00000010: 134e b438 bdb0 f238 08b8 3939 c56f f738
00000020: 686f 8336 9e63 1239 fa8e 2a36 a39c 2e35
00000030: 1a2f 5136 6557 cb38 40a0 5a31 629d 1238
00000040: 0000 0000 89db df36 f265 1b39 2b0e 1a39
00000050: e4dc ca38 3f7b da2a 459e 9638 0530 1937
00000060: 1548 bc37 f6cb d037 c362 6332 0000 0000
00000070: dcb9 b436 fdcc 9e38 e6db a437 f13a 1638
00000080: 0000 0000 00cc 5a37 f675 b737 fa29 1337
00000090: 6383 1336 6865 1a39 a8bd 1239 039f 7938
000000a0: 52c5 8f36 dc97 8638 46dc 1338 062d de38
000000b0: d550 3d38 409e 1737 548c 0838 6059 db36
000000c0: 59b2 1739 358e f737 487a 0637 0000 0000
000000d0: cb7e c737 48a0 fb37 b8c0 d438 5aaf bd38
000000e0: 4f47 ae36 2e49 5f36 d0b5 0839 3f83 e837
000000f0: b2f1 2229 6c80 8135 2741 a438 892b 9a36
