published_data/SGO aerobic/final_models/bag_model_13.pkl (torch, 324832 bytes, 21 tensors)

weight f4 [64, 20]
-0.26785684 0.056802616 0.033597548 0.13541982 0.04843483 -0.18537353 0.044335973 0.04727493
-0.071714595 -0.109893814 -0.08058116 0.10874798 0.0074931337 -0.04805821 -0.10779383 -0.049341448
-0.20841537 0.19624452 0.1729809 0.077198386 0.050106503 0.024351573 0.09560704 0.101906545
-0.104871154 -0.096367784 0.029304778 0.13815004 0.1104506 0.081031136 0.14886884 -0.001860216
-0.042259365 0.22296539 -0.050711043 0.22533748 -0.014625999 0.04323569 -0.17149085 0.19784038
0.026660971 -0.14090537 -0.0234323 -0.07028279 0.20027088 -0.026540868 -0.03796357 -0.08337929
0.10492235 -0.17722683 0.2464642 -0.101986036 -0.027577765 -0.1312786 0.09010568 -0.09761992
0.01918044 0.1419184 0.18108745 -0.09196277 -0.06680604 0.2309071 0.077269584 -0.16952612
-0.23615758 -0.19123773 -0.013565026 0.231755 -0.010614796 -0.044489946 -0.19233009 -0.1655541
0.030015852 0.13790661 0.17952365 -0.061703973 -0.1248962 -0.13288985 0.025334375 0.12311855
-0.12530531 -0.17013621 -0.07902984 0.19746524 0.11057049 -0.019132402 0.078104004 0.007988817
0.05340325 0.11917537 0.01839321 0.21459153 -0.1986449 0.10160818 -0.09660392 0.15145274
-0.1894104 -0.11321177 0.18101342 0.22206162 -0.07044405 0.0025743805 -0.15806751 -0.1842611
-0.19308169 0.022295702 -0.15211898 0.070512675 0.06702924 -0.12746245 0.04978615 -0.019358316
-0.1828508 -0.11775502 0.17578432 0.038530074 0.15215059 -0.18094014 -0.14979258 0.012375239
0.11806028 -0.17566676 0.21517877 0.16230838 -0.074819975 0.2001941 -0.1542084 -0.09276167
0.09516602 0.016704865 -0.098526254 -0.0004469262 0.2732466 -0.13360448 0.20499 0.101009995
0.051704697 0.18460807 -0.13619827 -0.12145313 -0.0088566905 0.19958524 -0.16009414 -0.036971733
-0.11859837 -0.04082426 -0.15804826 0.20604922 0.07435298 0.22145136 0.041409783 -0.15793867
0.113283366 0.106711134 0.088760436 -0.059700526 0.1272597 0.02269225 -0.10389673 -0.13191198
0.15888147 0.013400653 0.0047431136 0.18561219 0.20809205 -0.110761404 -0.05176761 0.0021898285
-0.021890828 0.22161044 0.0434857 -0.01987722 0.027209084 -0.19057456 -0.033999458 -0.12526335
0.09869722 0.07063007 -0.095667236 -0.007192272 -0.1393774 0.15595503 0.20960662 -0.1350392
0.17745791 -0.093190864 -0.041861493 -0.05507625 -0.0069596665 -0.061636 -0.16544165 0.015735108
0.09155311 0.17602655 0.2570683 -0.026192453 -0.08749956 0.0049818405 -0.20182224 -0.04897386
0.1305965 0.17337428 0.029188624 -0.03368908 0.21180092 0.20602877 -0.078178935 0.17292333
-0.11331925 -0.13442388 0.21941386 0.11051693 -0.17889655 -0.15048777 0.11648948 0.118484534
-0.19549394 0.23299903 0.1192731 -0.10597174 0.18498302 -0.053033356 0.10619739 0.117180444
-0.04920747 -0.17811528 0.07596135 -0.17259213 0.21412615 -0.060484044 -0.096044056 0.1447029
0.08660769 0.17972815 0.051872455 -0.011420783 0.17267622 -0.12784241 0.10029293 -0.09762554
0.12890182 0.14351359 -0.18455148 0.09398836 -0.15920934 -0.00853576 -0.16617745 -0.01022648
-0.024418648 -0.15154238 -0.18313007 0.16615394 -0.15686347 -0.0505994 0.17175777 0.20786531
00000000: 8824 89be dca9 683d 959d 093d 7eab 0a3e
00000010: 9a63 463d 8fd2 3dbe a399 353d 5ba3 413d
00000020: 1adf 92bd 0210 e1bd bc07 a5bd 43b7 de3d
00000030: f688 f53b b0d8 44bd 03c3 dcbd 421a 4abd
00000040: d76a 55be 53f4 483e e821 313e 301a 9e3d
00000050: 7a3c 4d3d f37c c73c a0cd c33d 61b4 d03d
00000060: b0c6 d6bd 795c c5bd 9310 f03c 3477 0d3e
00000070: ed33 e23d a7f3 a53d 1371 183e 7ed2 f3ba
00000080: 2818 2dbd 0a51 643e 62b6 4fbd debe 663e
00000090: e3a1 6fbc e817 313d 4c9b 2fbe ab96 4a3e
000000a0: 1c68 da3c 7f49 10be 18f5 bfbc 6cf0 8fbd
000000b0: cf13 4d3e 3c6c d9bc b07f 1bbd c3c2 aabd
000000c0: 87e1 d63d f37a 35be 1c61 7c3e 0ede d0bd
000000d0: c4ea e1bc e66d 06be 5489 b83d f4ec c7bd
000000e0: 4c20 9d3c 0f53 113e fd6e 393e fa56 bcbd
000000f0: 9bd1 88bd e972 6c3e 843f 9e3d 4198 2dbe
00000100: 4bd3 71be d3d3 43be d83f 5ebc 2f51 6d3e
00000110: aee9 2dbc 173b 36bd 2ef2 44be 0487 29be
00000120: cee3 f53c 6437 0d3e 0cd5 373e 4ebd 7cbd
00000130: 94c9 ffbd 4714 08be 098a cf3c 9425 fc3d
00000140: 0950 00be 3038 2ebe 66da a1bd 5434 4a3e
00000150: c872 e23d 8ebb 9cbc fef4 9f3d 87e3 023c
00000160: 5ebd 5a3d 3712 f43d 5bad 963c e2bd 5b3e
00000170: 9269 4bbe f317 d03d 47d8 c5bd 6d16 1b3e
00000180: cdf4 41be 93db e7bd 955b 393e 1f64 633e
00000190: f844 90bd f0b6 283b 73dc 21be f1ae 3cbe
000001a0: 35b7 45be 7aa5 b63c 14c5 1bbe f368 903d
000001b0: a046 893d 8485 02be 90ec 4b3d 5595 9ebc
000001c0: 3d3d 3bbe 8b29 f1bd ce00 343e b6d1 1d3d
000001d0: 5dcd 1b3e 5f48 39be 3a63 19be 84c1 4a3c
000001e0: 97c9 f13d fde1 33be d357 5c3e 2b34 263e
000001f0: 373b 99bd afff 4c3e cfe8 1dbe d5f9 bdbd
00000200: 67e6 c23d a4d8 883c 22c8 c9bd 6b51 eab9
00000210: fae6 8b3e 9dcf 08be e6e8 513e 54de ce3d
00000220: 4ec8 533d e609 3d3e 8f77 0bbe 6bbc f8bd
00000230: a71b 11bc 1360 4c3e b8ef 23be ac6f 17bd
00000240: b4e3 f2bd 5737 27bd 67d7 21be 91fe 523e
00000250: 6046 983d 25c4 623e 4e9d 293d adba 21be
00000260: 1c01 e83d 5e8b da3d 08c8 b53d 8a88 74bd
00000270: 5e50 023e 19e5 b93c cfc7 d4bd ef13 07be
00000280: d3b1 223e 6a8e 5b3c 1f6c 9b3b 1f11 3e3e
00000290: 1516 553e e0d6 e2bd 460a 54bd 3a83 0f3b
000002a0: 6554 b3bc d9ed 623e 101e 323d 8dd5 a2bc
000002b0: 96e5 de3c fa25 43be 0443 0bbd 0945 00be
000002c0: c521 ca3d 80a6 903d 2fed c3bd 27ad ebbb
000002d0: f3b8 0ebe adb2 1f3e 1ea3 563e b747 0abe
000002e0: 87b7 353e dada bebd f576 2bbd a297 61bd
000002f0: ea0d e4bb 0876 7cbd 8969 29be eae6 803c
00000300: 3280 bb3d 4e40 343e 759e 833e 8e91 d6bc
00000310: f832 b3bd b53e a33b 7daa 4ebe d098 48bd
00000320: 17bb 053e 0789 313e fb1c ef3c 90fd 09bd
00000330: 57e2 583e 35f9 523e 471c a0bd d012 313e
00000340: ec13 e8bd 6aa6 09be 07ae 603e b356 e23d
00000350: a830 37be 7719 1abe 0992 ee3d 05a8 f23d
00000360: 902f 48be 4c97 6e3e 7445 f43d b607 d9bd
00000370: 306c 3d3e 8139 59bd 047e d93d 4dfc ef3d
00000380: c68d 49bd da63 36be a091 9b3d febb 30be
00000390: e343 5b3e 1ebe 77bd bfb2 c4bd ff2c 143e
000003a0: 5f5f b13d a80a 383e 3678 543d 3c1e 3bbc
000003b0: 09d2 303e 1fe9 02be 6166 cd3d e6ef c7bd
000003c0: d7fe 033e 3af5 123e 10fb 3cbe f87c c03d
000003d0: c607 23be 93d9 0bbc 6c2a 2abe f78c 27bc
000003e0: 9e09 c8bc ed2d 1bbe 7386 3bbe 4224 2a3e
000003f0: d1a0 20be 5141 4fbd 45e1 2f3e a5da 543e

bias f4 [64]
0.109493986 -0.012741831 0.18763702 -0.15980656 0.019330379 -0.23912627 -0.042961787 -0.060872756
-0.00096161244 0.14868031 0.014322275 0.18049 0.08495671 0.11931583 0.17196143 -0.17222479
0.10949374 0.23896733 0.034616582 -0.0881575 -0.05684056 0.09809688 0.12476664 -0.17170824
-0.01665279 0.05115619 0.024607312 -0.15730616 -0.13124171 0.0395609 0.100193225 0.102733575
-0.16222134 0.059278432 0.13760953 -0.14901668 0.19699359 0.18602934 -0.035803527 -0.1751258
-0.14411871 0.1540409 -0.019192055 0.2097014 -0.08770495 -0.06130587 0.12917887 -0.21988936
-0.18033724 -0.014855609 0.22107705 0.19815604 -0.13514026 0.1957193 -0.20110083 0.16064665
0.1450571 0.049339734 -0.06093622 0.08364083 0.099648304 -0.21676396 0.0953577 0.03790889
00000000: 623e e03d 1dc3 50bc eb23 403e 55a4 23be
00000010: be5a 9e3c 84dd 74be b3f8 2fbd b655 79bd
00000020: b814 7cba a73f 183e faa7 6a3c 5fd2 383e
00000030: c9fd ad3d dc5b f43d a816 303e b25b 30be
00000040: 413e e03d dab3 743e 1eca 0d3d eb8b b4bd
00000050: a6d1 68bd 04e7 c83d a785 ff3d 49d4 2fbe
00000060: 6f6b 88bc 2789 513d 4695 c93c de14 21be
00000070: 3a64 06be 9c0a 223d 1b32 cd3d fb65 d23d
00000080: 5a1d 26be f1cd 723d 83e9 0c3e d497 18be
00000090: b0b8 493e 7a7e 3e3e b8a6 12bd 2d54 33be
000000a0: db93 13be e6bc 1d3e a838 9dbc f7bb 563e
000000b0: a79e b3bd dd1b 7bbd 7747 043e ad2a 61be
000000c0: 53aa 38be f164 73bc 0662 623e 6be9 4a3e
000000d0: 3562 0abe a46a 483e 60ed 4dbe 8e80 243e
000000e0: d989 143e 7618 4a3d 4298 79bd e24b ab3d
000000f0: 6914 cc3d 5ff7 5dbe e64a c33d 5a46 1b3d

weight f4 [256, 64]
-0.046941563 -0.000990632 0.009994758 -0.30361694 0.018077558 -0.024163973 0.08320603 0.18600139
0.054692004 0.11342975 0.027232686 0.068274006 -0.03281871 -0.07225604 -0.07874549 0.12404965
0.10774248 -0.063443154 0.07748104 -0.06114723 0.07538784 -0.10669566 -0.0050930744 -0.13245328
0.16886304 -0.15273674 -0.033769716 -0.037057877 0.055727623 0.0040897136 0.014633482 0.11531539
-0.0376222 -0.07930916 -0.009717489 0.22666362 -0.1082391 -0.15822595 0.038312323 0.26743364
0.012658064 -0.053777087 -0.20074745 -0.119308196 -0.16010693 -0.12232554 0.28560024 0.015867885
-0.17929974 -0.0064287 -0.1488008 0.0953913 0.010895795 -0.06533267 0.047113143 -0.19939376
0.10266816 -0.14714848 0.027421206 0.15486902 -0.02753219 -0.04756415 0.05849227 -0.026595093
0.07560815 -0.05222694 -0.11977704 0.015178538 0.08401448 -0.08715686 0.056915246 -0.08021474
-0.0725563 0.06568146 -0.091984406 0.08844105 0.070322156 0.07658704 0.035204675 0.0027077708
0.09717813 -0.0031536026 -0.09600755 -0.026879115 -0.019394819 -0.0064096297 -0.007843402 0.057800494
-0.05286498 -0.1222659 0.019292634 0.009636051 -0.10159387 -0.05220734 0.06212175 0.0653462
0.00502718 0.07019969 0.054107722 -0.057104457 -0.066944756 -0.005701239 -0.020117525 0.11304109
-0.03853611 -0.056362897 0.026183775 -0.108574905 -0.020563973 0.03613793 -0.019218758 0.02267776
-0.103365645 -0.0068548704 -0.09186361 -0.07914071 -0.039467722 0.046154823 -0.04220083 -0.12747976
0.018332053 0.0064978455 0.014626897 -0.09140463 -0.09224002 0.022650898 0.028845908 -0.14166968
0.0018260658 0.006682016 0.055822853 0.055008244 -0.048282392 -0.055232596 0.032474663 0.044956483
-0.07773577 -0.08555268 -0.059740245 0.12003893 -0.07071679 0.08062318 -0.004439582 0.05424661
0.18285969 0.11453036 0.008615837 0.012693006 0.012821588 0.16468972 -0.07998851 -0.07674521
0.031479485 0.1268695 0.054354336 -0.043198325 -0.018350283 0.22739045 0.12258955 0.007853403
-0.10924919 0.16325752 0.052423093 0.066660225 0.028835718 -0.038995538 0.056697153 0.105529845
-0.04733494 0.101883344 0.07381504 -0.06367613 0.032720644 -0.13999487 0.19208689 -0.03792379
-0.16390008 -0.07585982 -0.09274758 0.054236952 0.12590735 -0.15098181 -0.04948684 -0.10898088
-0.082647026 -0.012888283 -0.042937826 -0.047399655 0.07621569 -0.012348279 0.09274289 -0.077707954
0.033252414 0.0033457351 0.12649052 0.01070936 0.027851209 0.020296259 0.039473467 0.07036215
-0.03986247 0.025111005 0.026407085 -0.051792152 -0.110231 0.1001049 0.11874433 0.13591707
0.11738838 -0.036765028 0.011079485 0.07405062 0.13812985 0.06966931 -0.04999169 -0.08823152
0.27352262 -0.059014093 -0.015746282 -0.02105337 0.0661195 0.07937638 0.13123086 0.0451977
-0.13327494 0.12957601 -0.022187574 -0.15213415 0.13108313 0.039755892 0.06739219 0.1574441
-0.09892653 -0.11587177 -0.025056805 -0.1606249 0.017314045 -0.11506914 0.03556539 0.0017853464
0.005544915 -0.06556 -0.0063360003 0.027396958 -0.07658885 0.110479966 -0.035807278 -0.114299804
-0.026759364 -0.0046345303 -0.012353883 0.03628935 0.09807699 -0.12301317 0.054792527 0.053841423
00000000: cc45 40bd 18d8 81ba 0ec1 233c ae73 9bbe
00000010: 6317 943c 86f3 c5bc ec67 aa3d 2677 3e3e
00000020: b904 603d db4d e83d 1517 df3c 3ed3 8b3d
00000030: e96c 06bd fafa 93bd 5145 a1bd be0d fe3d
00000040: 17a8 dc3d 7cee 81bd 61ae 9e3d 8575 7abd
00000050: f164 9a3d 4183 dabd cee3 a6bb d5a1 07be
00000060: 6fea 2c3e 0567 1cbe 1d52 0abd 00ca 17bd
00000070: a642 643d 0103 863b 46c1 6f3c 7a2a ec3d
00000080: bc19 1abd d76c a2bd 1a36 1fbc 821a 683e
00000090: 76ac ddbd fc05 22be 62ed 1c3d 10ed 883e
000000a0: c563 4f3c 5d45 5cbd bd90 4dbe db57 f4bd
000000b0: 12f3 23be d085 fabd 323a 923e 5efd 813c
000000c0: 5a9a 37be d8a7 d2bb 3d5f 18be 845c c33d
000000d0: 4784 323c 23cd 85bd b6f9 403d e12d 4cbe
000000e0: af43 d23d 17ae 16be 70a2 e03c fc95 1e3e
000000f0: 308b e1bc a0d2 42bd 9795 6f3d f4dd d9bc
00000100: 72d8 9a3d eaeb 55bd aa4d f5bd 67af 783c
00000110: c90f ac3d 4c7f b2bd f61f 693d a047 a4bd
00000120: 6698 94bd 0084 863d 5262 bcbd 9520 b53d
00000130: 1005 903d abd9 9c3d c732 103d db74 313b
00000140: 5405 c73d acac 4ebb 9b9f c4bd 9731 dcbc
00000150: e2e1 9ebc df07 d2bb 9d81 00bc 36c0 6c3d
00000160: f388 58bd 8b66 fabd 960b 9e3c 87e0 1d3c
00000170: 7210 d0bd 5dd7 55bd 6073 7e3d 3ad4 853d
00000180: 0bbb a43b dbc4 8f3d 0fa0 5d3d 5de6 69bd
00000190: 551a 89bd 76d1 babb 82cd a4bc 1682 e73d
000001a0: 0ad8 1dbd c8dc 66bd 5b7f d63c 855c debd
000001b0: c775 a8bc 5e05 143d a870 9dbc b6c6 b93c
000001c0: 5eb1 d3bd d29e e0bb fd22 bcbd 8614 a2bd
000001d0: e8a8 21bd d70c 3d3d c7da 2cbd 0e8a 02be
000001e0: 1a2d 963c e1eb d43b a7a5 6f3c 5a32 bbbd
000001f0: 56e8 bcbd 608e b93c 414e ec3c db11 11be
00000200: 9a58 ef3a d0f4 da3b 81a6 643d 5350 613d
00000210: c2c3 45bd 933b 62bd 2704 053d 4a24 383d
00000220: ee33 9fbd 3e36 afbd 30b2 74bd f8d6 f53d
00000230: f7d3 90bd c41d a53d ea79 91bb b131 5e3d
00000240: 923f 3b3e e58e ea3d 7129 0d3c 53f6 4f3c
00000250: a311 523c 6ca4 283e 04d1 a3bd 982c 9dbd
00000260: a2f0 003d 14ea 013e a7a2 5e3d baf0 30bd
00000270: 5553 96bc 0bd9 683e 3b10 fb3d 8fab 003c
00000280: 0abe dfbd fb2c 273e 99b9 563d 2885 883d
00000290: e238 ec3c c9b9 1fbd 463b 683d 0820 d83d
000002a0: 48e2 41bd 37a8 d03d 572c 973d a168 82bd
000002b0: 1506 063d d15a 0fbe 6db2 443e fa55 1bbd
000002c0: 6cd5 27be 655c 9bbd 71f2 bdbd 9127 5e3d
000002d0: dbed 003e fa9a 1abe b6b2 4abd 5e31 dfbd
000002e0: d842 a9bd 6029 53bc 93df 2fbd 2426 42bd
000002f0: f916 9c3d 7050 4abc fcef bd3d 5925 9fbd
00000300: af33 083d 1f44 5b3b bb86 013e 5076 2f3c
00000310: 3828 e43c 5744 a63c eeae 213d 081a 903d
00000320: d446 23bd 98b5 cd3c ac53 d83c 0224 54bd
00000330: cac0 e1bd cc03 cd3d 3a30 f33d d82d 0b3e
00000340: 5269 f03d ed96 16bd ba86 353c daa7 973d
00000350: e971 0d3e c8ae 8e3d 16c4 4cbd bab2 b4bd
00000360: 280b 8c3e c3b8 71bd 59fe 80bc 1e78 acbc
00000370: a969 873d 1590 a23d 6261 063e 3921 393d
00000380: 3a79 08be 93af 043e b7c2 b5bc 0ec9 1bbe
00000390: a83a 063e 13d7 223d eb04 8a3d 0739 213e
000003a0: fe99 cabd 2e4e edbd ee43 cdbc db7a 24be
000003b0: 2fd6 8d3c 5fa9 ebbd 04ad 113d 4902 ea3a
000003c0: 1eb2 b53b 5244 86bd 399e cfbb 966f e03c
000003d0: 9dda 9cbd 5243 e23d a7aa 12bd 0416 eabd
000003e0: 7436 dbbc 42dd 97bb f167 4abc 24a4 143d
000003f0: 97dc c83d 54ee fbbd 216e 603d d388 5c3d

bias f4 [256]
-0.058011375 -0.07755741 0.013091067 0.059808373 0.0494488 0.036332026 0.12690647 0.010808533
-0.08198907 0.067384906 -0.113064595 0.11450878 -0.037450854 -0.09456764 0.041609317 -0.06712571
0.13406822 -0.053185206 -0.11059331 -0.03444712 -0.1232535 0.03261691 0.05909757 0.05668083
-0.043570466 -0.07272053 0.07285625 -0.07980085 0.040478203 0.035007425 0.09885076 0.08121833
-0.07280012 0.07459756 -0.023451287 -0.054682713 -0.059558358 0.1006783 -0.077114634 0.06988322
0.10043195 -0.0046564913 -0.12571757 0.09134155 0.101764575 0.0645663 0.120745644 0.07263024
0.08374108 0.009828308 0.12687147 0.07155327 -0.008191175 0.070061155 0.109322526 -0.0004964961
-0.08312491 -0.055170182 -0.13112156 -0.046670012 0.017830802 -0.049657106 -0.078745864 -0.10061079
0.1307745 -0.011720243 -0.04158876 -0.007832586 0.02827125 0.06286594 -0.06591403 0.110208414
-0.08589114 0.02574015 -0.0518061 0.14507177 -0.11582276 0.03248461 -0.059057813 -0.042311892
-0.11089222 -0.05978335 0.11619789 -0.087106556 -0.059038118 0.072553575 -0.05813518 0.012394495
0.01258009 -0.09769264 0.0721761 -0.009391069 0.037142217 -0.05432863 0.015359271 -0.07234794
0.0965185 -0.121904075 0.0787791 0.04539609 -0.0013936155 0.0037810449 -0.015235675 0.0962089
-0.07829339 0.060327638 -0.07489905 -0.09392354 -0.07458118 0.015296658 -0.06246283 -0.12971771
-4.1166593e-05 -0.026129525 -0.056928575 -0.030151593 0.063642345 0.0768218 0.09283142 -0.08545719
0.0842013 -0.07138428 -0.039806303 0.015685653 0.01641662 0.09994439 -0.074498154 -0.13719612
-0.029650591 0.11145344 0.007356485 -0.08092198 0.06471022 0.026616147 -0.03977661 -0.010127528
-0.013665054 0.015243033 0.004036037 0.005651599 0.12712228 0.09479768 0.11013687 -0.017366434
-0.11481021 -0.11765211 -0.013450833 0.031897068 0.09137586 0.029944194 -0.113281205 0.01528191
0.0024723383 -0.016101971 0.062274244 0.08255617 -0.054511044 0.15015198 -0.02462963 -0.00015199286
-0.11691534 -0.09535844 -0.023157582 -0.09550134 0.036832172 0.07877228 -0.020788863 -0.02855927
-0.023830526 0.08825593 -0.0122303795 0.002396348 -0.044040225 -0.0026145407 0.044160407 -0.051204987
-0.027288843 -0.06089769 -0.060645256 -0.11594037 0.0010332214 0.059143092 0.06413635 -0.06594625
-0.09737453 -0.025184399 -0.06430445 0.056328915 0.11743016 0.071771204 -0.005308588 0.043294083
0.035126492 0.06331681 0.038901713 -0.04040886 0.058864776 0.050125834 -0.10720439 0.0536598
0.10743081 -0.0495341 0.08701892 0.030575357 -0.073184885 -0.059737343 0.04260123 0.06470507
-0.046654966 0.030298844 0.09977191 -0.04072738 0.06812761 0.07921701 0.03851014 -0.15149531
0.108699724 0.12146098 0.06082707 -0.089934595 -0.034785546 -0.02316515 0.010240807 -0.009367806
-0.078165844 0.008139373 0.0015886006 -0.1107185 -0.013322912 -0.005007125 0.0025324733 0.060948044
0.09840396 -0.074379385 -0.10704907 0.122424774 -0.069801606 0.060173463 0.057269227 -0.10600293
0.03700743 0.039511114 0.013118164 -0.08132574 -0.044242598 0.089630276 0.077596016 0.020292148
0.052841667 -0.055848237 0.06193379 0.046603907 -0.025881652 -0.06439214 0.084634416 0.0800649
00000000: 569d 6dbd 6bd6 9ebd ea7b 563c a0f9 743d
00000010: d38a 4a3d e4d0 143d c5f3 013e 4616 313c
00000020: e3e9 a7bd 1901 8a3d 698e e7bd 9483 ea3d
00000030: 1166 19bd aeac c1bd 886e 2a3d 3479 89bd
00000040: 2e49 093e bbd8 59bd bf7e e2bd 6c18 0dbd
00000050: 556c fcbd 4f99 053d 4b10 723d 282a 683d
00000060: f276 32bd 80ee 94bd a835 953d a16e a3bd
00000070: 79cc 253d f263 0f3d 4472 ca3d cc55 a63d
00000080: 3b18 95bd 9bc6 983d ea1c c0bc fbfa 5fbd
00000090: 77f3 73bd 6d30 ce3d 47ee 9dbd ef1e 8f3d
000000a0: 44af cd3d 7b95 98bb 1bbc 00be 4711 bb3d
000000b0: f269 d03d 563b 843d 7e49 f73d 2abf 943d
000000c0: 7180 ab3d e906 213c 98ea 013e 858a 923d
000000d0: 4734 06bc 397c 8f3d 7de4 df3d 4a27 02ba
000000e0: 653d aabd 21fa 61bd bb44 06be 0e29 3fbd
000000f0: e711 923c 4065 4bbd 8345 a1bd 080d cebd
00000100: c0e9 053e 4306 40bc fa58 2abd 3f54 00bc
00000110: 1c99 e73c dcbf 803d effd 86bd f3b4 e13d
00000120: b2e7 afbd 02dd d23c a232 54bd b28d 143e
00000130: 7c34 edbd 950e 053d 9be6 71bd 3c4f 2dbd
00000140: 761b e3bd 63df 74bd 29f9 ed3d ec64 b2bd
00000150: f4d1 71bd f896 943d 281f 6ebd 4812 4b3c
00000160: b91c 4e3c 1413 c8bd 10d1 933d 00dd 19bc
00000170: 7022 183d b387 5ebd 74a5 7b3c 282b 94bd
00000180: 7eab c53d d8a8 f9bd f056 a13d 40f1 393d
00000190: faa9 b6ba 68cb 773b 0d9f 79bc 2c09 c53d
000001a0: 4958 a0bd 1d1a 773d ac64 99bd fc5a c0bd
000001b0: 05be 98bd d59e 7a3c 06d9 7fbd b8d4 04be
000001c0: 4baa 2cb8 960d d6bc f02d 69bd 7900 f7bc
000001d0: eb56 823d bf54 9d3d 661e be3d 2e04 afbd
000001e0: bb71 ac3d ec31 92bd ef0b 23bd 337f 803c
000001f0: 267c 863c a5af cc3d 7d92 98bd 247d 0cbe
00000200: cce5 f2bc b341 e43d ab0e f13b 6cba a5bd
00000210: cb86 843d 1b0a da3c ccec 22bd eeed 25bc
00000220: 64e3 5fbc eabd 793c bb40 843b 0c31 b93b
00000230: 582c 023e 4925 c23d 708f e13d 0d44 8ebc
00000240: 9e21 ebbd 97f3 f0bd e260 5cbc 80a6 023d
00000250: 4423 bb3d 874d f53c faff e7bd fa60 7a3c
00000260: f406 223b 48e8 83bc 4713 7f3d 3613 a93d
00000270: f946 5fbd 71c1 193e 14c4 c9bc 4660 1fb9
00000280: 4f71 efbd 494b c3bd f8b4 bdbc 3596 c3bd
00000290: 55dd 163d 5c53 a13d 684d aabc 21f5 e9bc
000002a0: 3c38 c3bc 86bf b43d ee61 48bc 0c0c 1d3b
000002b0: 8663 34bd b758 2bbb 8be1 343d 52bc 51bd
000002c0: da8c dfbc db6f 79bd 2967 78bd 2572 edbd
000002d0: 286d 873a 0740 723d eb59 833d d40e 87bd
000002e0: 4c6c c7bd 834f cebc 0db2 83bd 26b9 663d
000002f0: 397f f03d c8fc 923d aaf3 adbb 2355 313d
00000300: cce0 0f3d 3eac 813d 6757 1f3d c383 25bd
00000310: 311c 713d bf50 4d3d fa8d dbbd 61ca 5b3d
00000320: af04 dc3d 45e4 4abd fa36 b23d 2c79 fa3c
00000330: f5e1 95bd 25af 74bd a17e 2e3d 1784 843d
00000340: 4719 3fbd 4835 f83c 3755 cc3d c1d1 26bd
00000350: 7d86 8b3d 873c a23d cfbc 1d3d 9621 1bbe
00000360: f69d de3d 89c0 f83d ce25 793d a12f b8bd
00000370: 4a7b 0ebd d7c4 bdbc 0fc9 273c 6d7b 19bc
00000380: 6a15 a0bd 015b 053c 9738 d03a 62c0 e2bd
00000390: 5848 5abc cf12 a4bb daf7 253b a8a4 793d
000003a0: 0488 c93d 3854 98bd 8b3c dbbd d7b9 fa3d
000003b0: 25f4 8ebd 7378 763d 2393 6a3d 1018 d9bd
000003c0: 1a95 173d 68d6 213d 91ed 563c 1c8e a6bd
000003d0: ba37 35bd 1490 b73d a9ea 9e3d b83b a63c
000003e0: 8170 583d 1fc1 64bd 49ae 7d3d bde3 3e3d
000003f0: c205 d4bc 07e0 83bd cf54 ad3d 11f9 a33d

weight f4 [32, 256]
-0.06157513 0.045827962 -0.0014894381 -0.04782611 -0.03293518 -0.05918646 -0.013754695 -0.027684353
-0.01924137 0.05391455 0.011357538 -0.034479026 -0.037860982 -0.03639042 -0.04359443 0.037399713
-0.021699443 -0.010101861 -0.0115322545 -0.036571965 0.03887409 0.041562017 -0.0046060905 0.011773635
-0.067237556 -0.043633595 -0.06843117 0.052999176 0.0062234253 0.04052551 0.00017743558 -0.003706551
-0.058380313 -0.05904162 -0.034409635 -0.06025623 -0.046277676 -0.05003387 0.05168353 0.03314315
0.016394988 0.027340941 0.032770537 -0.022017509 -0.02673795 -0.0010101179 0.0024302073 0.0055339457
0.0028134247 0.025663504 -0.059528902 -0.057401843 -0.042840507 0.025848866 -0.054152306 -0.05295652
0.011817333 -0.06139397 -0.038437985 0.025857853 0.03267946 0.008652971 0.0077015534 0.011500577
-0.050773613 0.010891534 -0.040368564 -0.0062146857 -0.059217922 0.019162286 -0.034845605 -0.03941062
-0.009543995 -0.038507715 -0.03040261 0.044936813 0.011394754 -0.066285975 0.050758366 -0.010240868
-0.06911957 -0.012024812 -0.04918871 0.033201598 -0.052644767 -0.045078795 0.061142817 0.04944959
-0.045286424 0.0011302382 -0.012933567 0.00073757034 0.03962162 0.03342457 -0.041797563 0.023730174
0.031512156 -0.049593195 -0.0136541575 -0.0022351218 -0.009712577 -0.021472907 0.047160804 0.037263878
0.01970715 0.05018885 0.007776879 -0.0664155 0.039646227 -0.044981286 0.009179376 -0.0056843236
-0.004457198 -0.031557523 -0.003866285 0.04950147 0.0330926 -0.058951274 -0.0029789119 -0.0075648054
-0.06180118 0.04090885 0.0024861058 -0.022107156 0.04357379 -0.013612613 -0.019259296 -0.040222093
-0.023894308 -0.057467997 -0.042984992 0.035591558 -0.004867636 -0.014517719 -0.021401409 0.03599448
-0.016880417 -0.0029050172 0.01742868 -0.013688274 0.03982056 -0.043782774 -0.015949517 -0.06771943
0.011790613 -0.0491671 -0.027831897 0.017452352 -0.0014425705 -0.02775336 0.049068324 0.046506286
-0.036650755 -0.018716104 0.027605318 0.041876383 -0.06249647 0.03450437 -0.062023193 0.0071162432
0.038106084 -0.045330346 0.00024338812 0.04490254 0.004255057 -0.010236015 -0.051486947 0.0053992523
-0.040618714 0.018782787 0.032098416 -0.006255798 -0.009278402 -0.050256252 -0.041425258 0.05209887
-0.052255936 -0.012761891 -0.004951574 0.0051962766 0.019313447 0.04330589 -0.047090672 0.011304893
-0.067220785 -0.048622414 0.03525044 0.03591812 -0.021175489 0.030416464 -0.014718836 -0.033779208
-0.040366724 -0.032162763 0.011510091 -0.00816568 -0.051483892 -0.002319691 0.05601324 -0.0018934458
0.020198137 0.012008183 0.032522798 0.038793303 0.052455746 -0.006739554 0.054003675 -0.0006544739
-0.057729542 -0.044004723 -0.058117654 0.039729726 -0.04568713 -0.061875843 0.020750403 -0.012148424
0.050827835 0.024614476 0.035532348 -0.04505489 -0.060514078 0.039590657 0.020740416 -0.023663068
-0.0038583204 0.04805828 -0.034122273 -0.058605388 0.010690499 -0.05085776 -0.023717295 0.020362431
-0.018775664 0.055593662 0.05529587 0.02076602 0.036817282 -0.060509607 -0.04103113 0.011495255
-0.031538647 -0.00030359626 0.038806148 -0.019506648 -0.01697731 -0.029551538 -0.0015678466 -0.016393848
-0.024834752 -0.033572637 0.024091609 -0.061263904 0.020971611 -0.05373607 -0.02171066 0.024774466
00000000: 3436 7cbd 1ab6 3b3d 4039 c3ba 50e5 43bd
00000010: 0ae7 06bd 806d 72bd 5f5b 61bc 4cca e2bc
00000020: 14a0 9dbc 81d5 5c3d f814 3a3c e139 0dbd
00000030: 1e14 1bbd 1f0e 15bd 1390 32bd 7130 193d
00000040: 08c3 b1bc 4782 25bc c8f1 3cbc 7ccc 15bd
00000050: 703a 1f3d ef3c 2a3d b0ee 96bb 34e6 403c
00000060: d8b3 89bd 24b9 32bd a425 8cbd aa15 593d
00000070: e0ed cb3b 14fe 253d 000e 3a39 9be9 72bb
00000080: 3220 6fbd a0d5 71bd 1ef1 0cbd 3dcf 76bd
00000090: a98d 3dbd 51f0 4cbd 1cb2 533d 1dc1 073d
000000a0: c84e 863c 1cfa df3c 663a 063d 105e b4bc
000000b0: 8c09 dbbc ef65 84ba 1d44 1f3b 1a56 b53b
000000c0: 6f61 383b 453c d23c 94d4 73bd 321e 6bbd
000000d0: 8779 2fbd 00c1 d33c cfce 5dbd f0e8 58bd
000000e0: 7d9d 413c 3e78 7bbd 2671 1dbd d9d3 d33c
000000f0: e6da 053d 31c5 0d3c 505d fc3b eb6c 3c3c
00000100: fef7 4fbd 6872 323c 8259 25bd 90a4 cbbb
00000110: 7e8e 72bd 3afa 9c3c 44ba 0ebd 086d 21bd
00000120: 6b5e 1cbc 44ba 1dbd e50e f9bc aa0f 383d
00000130: 10b1 3a3c f1c0 87bd 01e8 4f3d 50c9 27bc
00000140: 908e 8dbd b803 45bc 1a7a 49bd 66fe 073d
00000150: 0aa2 57bd 8ba4 38bd e470 7a3d a78b 4a3d
00000160: 427e 39bd 8024 943a 50e7 53bc 8259 413a
00000170: 484a 223d 34e8 083d ec33 2bbd c865 c23c
00000180: e412 013d 3c22 4bbd b0b5 5fbc 1f7b 12bb
00000190: 8021 1fbc f3e7 afbc b02b 413d 02a2 183d
000001a0: e470 a13c d392 4d3d 30d5 fe3b da04 88bd
000001b0: 1564 223d 4c3e 38bd 1865 163c 9043 babb
000001c0: b00d 92bb 7642 01bd 8061 7dbb 0ec2 4a3d
000001d0: 1b8c 073d e476 71bd d939 43bb 30e2 f7bb
000001e0: 3c23 7dbd 0a90 273d efed 223b 111a b5bc
000001f0: 6e7a 323d 7007 5fbc acc5 9dbc ecbf 24bd
00000200: ffbd c3bc 9063 6bbd 0811 30bd 74c8 113d
00000210: b180 9fbb badb 6dbc 0252 afbc f36e 133d
00000220: cd48 8abc 1a62 3ebb 97c6 8e3c c844 60bc
00000230: e21a 233d 9155 33bd 90a8 82bc 7cb0 8abd
00000240: 6a2d 413c 7163 49bd b8ff e3bc 3cf8 8e3c
00000250: a214 bdba 045b e3bc defb 483d 607d 3e3d
00000260: 1a1f 16bd 8452 99bc 8c24 e23c 9286 2b3d
00000270: 4cfc 7fbd 7454 0d3d 080c 7ebd 602f e93b
00000280: 2015 1c3d 50ac 39bd 0036 7f39 baeb 373d
00000290: 016e 8b3b f5b4 27bc fae3 52bd 36ec b03b
000002a0: cf5f 26bd 5cde 993c a179 033d 70fd ccbb
000002b0: 7004 18bc 80d9 4dbd 88ad 29bd a065 553d
000002c0: 520a 56bd 4017 51bc d040 a2bb 8745 aa3b
000002d0: 3c37 9e3c 8461 313d 26e2 40bd 2838 393c
000002e0: 0dab 89bd 4c28 47bd c462 103d e11e 133d
000002f0: 3878 adbc f32b f93c 4627 71bc 115c 0abd
00000300: 9457 25bd 1abd 03bd d294 3c3c 58c9 05bc
00000310: c6e0 52bd f505 18bb 246e 653d 802d f8ba
00000320: 9076 a53c f8bd 443c a036 053d bae5 1e3d
00000330: d6db 563d 7ad7 dcbb f532 5d3d 0091 2bba
00000340: d075 6cbd 4c3e 34bd c70c 6ebd a3bb 223d
00000350: 6e22 3bbd 8671 7dbd c0fc a93c 2f0a 47bc
00000360: d930 503d 4ca4 c93c 5e8a 113d 7a8b 38bd
00000370: 9cdd 77bd d029 223d cee7 a93c 0dd9 c1bc
00000380: e0db 7cbb c2d8 443d ccc3 0bbd 340c 70bd
00000390: 3427 2f3c 3a50 50bd c64a c2bc 1dcf a63c
000003a0: 6ccf 99bc 2eb6 633d ec7d 623d 801d aa3c
000003b0: b8cd 163d ecd8 77bd 4210 28bd 9856 3c3c
000003c0: ab2e 01bd 002c 9fb9 32f3 1e3d 68cc 9fbc
000003d0: 0014 8bbc 1116 f2bc 3480 cdba 644c 86bc
000003e0: 4072 cbbc 7683 09bd c45b c53c dcef 7abd
000003f0: a8cc ab3c 5a1a 5cbd 8eda b1bc d2f3 ca3c

bias f4 [32]
-0.027226038 1.603989e-05 -0.014606326 0.025085289 0.049981706 -0.030384222 0.0674467 -0.04797687
-0.003281233 -0.038216185 -0.06111456 0.008848968 -0.028995777 -0.049193215 0.03741699 -0.05286234
-0.025567934 -0.0067590186 -0.035809774 -0.058830325 0.01233704 0.013212527 0.052672934 0.015019711
-0.003919045 -0.01250155 -0.0572174 0.045753893 0.009908838 0.029739402 0.0041283006 -0.042729482
00000000: 2409 dfbc 678d 8637 5f4f 6fbc aa7f cd3c
00000010: 9eb9 4c3d 55e8 f8bc 7f21 8a3d 6583 44bd
00000020: f409 57bb 9388 1cbd 4353 7abd 43fb 103c
00000030: 8d88 edbc d37e 49bd 8f42 193d 2e86 58bd
00000040: d873 d1bc c27a ddbb 45ad 12bd 11f8 70bd
00000050: 4c21 4a3c 5b79 583c 93bf 573d 3c15 763c
00000060: 556b 80bb 4dd3 4cbc cb5c 6abd 6f68 3b3d
00000070: ae58 223c 0ca0 f33c b246 873b 1c05 2fbd

weight f4 [1, 32]
0.06421161 -0.07769922 0.004581537 0.09892478 0.18578698 0.14701307 0.123534255 -0.16077916
-0.11031721 0.2495306 0.18025905 -0.12094835 0.16486524 0.04582878 0.16298996 0.033049677
0.21093561 0.32864988 -0.08407472 0.19328342 0.18254285 -0.1331303 0.09215149 0.22121635
-0.031168276 0.15943852 -0.21996653 -0.2377934 -0.1879554 0.050399676 0.14923733 -0.082324706
00000000: 6081 833d c520 9fbd b820 963b 1399 ca3d
00000010: f13e 3e3e 988a 163e 87ff fc3d 4ba3 24be
00000020: fded e1bd f384 7f3e d495 383e c5b3 f7bd
00000030: 6fd2 283e f5b6 3b3d d7e6 263e 195f 073d
00000040: 81ff 573e cc44 a83e 5e2f acbd 17ec 453e
00000050: 83ec 3a3e 4f53 08be ecb9 bc3d 8a86 623e
00000060: 9d54 ffbc da43 233e e83e 61be 1d80 73be
00000070: 6177 40be e46f 4e3d acd1 183e db99 a8bd

exp_avg f4 [64, 20]
-5.8035916e-05 0.0003433784 0.00016281787 0.00046028476 0.0001647451 -0.00029764153 0.00037106496 0.0004280758
0.00014468939 0.00010207023 0.0001244046 0.00016934269 0.00040029918 0.00035605364 0.0004300403 0.0003566039
-0.00010381614 0.00025306127 0.00034480583 0.00027078562 7.308519e-05 -0.00066452177 -0.00019958823 -0.00043392924
0.00017393492 0.00070144027 -0.00051766 -0.0003639697 -0.0002222943 0.00042763998 -0.00024470678 0.00061266153
0.00019665479 -0.0006477935 -0.00025016762 -0.0006720866 3.4591126e-06 0.00019806967 -0.0006631439 -0.000508252
0.00022436207 0.00070441025 0.00028016206 0.00033641866 -0.00036317843 0.00026540612 -0.000345031 0.00014859474
0.0005601999 -0.0005067503 0.0010854267 -0.0006118365 6.56798e-05 0.00067070225 0.00021345349 0.00070933596
6.920464e-05 -0.00024263418 0.0006819554 0.00053870614 0.00016210527 0.0012613136 0.00035506536 0.0005344008
0.000421701 1.1073219e-05 0.0012120984 0.0011642986 0.0004096179 0.00016489947 0.00020990169 0.0002637154
0.00037760535 0.001264568 0.00053344853 0.0012657706 0.00041315876 0.0002697645 0.0012556135 0.0012908697
-0.000214247 -0.0008985932 -0.00012846297 -0.00038923806 5.3393855e-05 0.00020436778 -0.00080038316 -0.0005373013
-0.00024314222 0.0002599859 -0.00038571493 0.00025244206 -4.8209815e-05 -0.0008904428 -0.0002179537 -0.0009056729
-0.00020774346 0.00013280987 -0.000900739 -0.000711522 2.0391188e-34 6.850673e-08 2.2921645e-35 -3.5483175e-33
1.6839598e-34 6.850673e-08 -2.8521682e-33 6.850673e-08 6.850673e-08 1.2665028e-31 6.850673e-08 6.850673e-08
-3.244986e-35 6.850673e-08 6.850673e-08 6.850673e-08 1.1431778e-31 2.0960338e-35 1.3599696e-31 6.850673e-08
-0.0003280695 -5.29936e-05 0.00018779252 0.0002984291 -0.00013038811 -0.0004055984 -0.00016298544 0.00011258412
5.5858287e-05 -0.00015901473 -2.9391804e-05 -0.00028292552 9.056358e-05 -5.796166e-05 0.00018278854 -4.8839072e-05
1.752261e-05 -0.00019441383 -5.2147894e-05 -8.264866e-06 -0.00023989103 0.000110588866 0.0007691315 0.00069336465
0.0004647369 -0.00038701494 0.00032279483 0.00042452992 0.00085301505 -0.0002358346 -0.00038727652 0.00052010635
0.00069724367 0.000112441136 0.00029746298 0.00014968417 7.5503376e-05 0.00041928323 0.00014787927 -0.00011619275
-0.0002878845 -2.4552915e-06 0.00034631396 8.672757e-05 0.00014563394 -0.00021967253 -0.0001249236 -4.2516684e-05
0.00020487777 -0.00037080265 -0.0004068217 5.6345063e-05 0.0005112751 -1.13736305e-05 0.00035849458 2.4127115e-05
-1.7846809e-05 -6.705529e-05 3.9385027e-06 -6.1197214e-05 -0.00031752617 -0.00012989418 0.00020119814 0.00023542506
0.00033552817 -0.00065663276 0.00017684701 0.00035460453 -0.00022535576 -3.9341823e-05 -0.0004017647 5.8838268e-05
-0.00013136903 -0.00012832986 0.00038612811 -0.00010215275 -0.00011779736 0.00017132224 -8.0892176e-05 -0.00017910155
0.00015867986 -0.0008119904 -0.00047214088 -0.0010055485 -0.0001486636 0.0006256773 -0.00064821437 -0.0006976349
-0.0003412593 0.00016130986 -0.00021249162 0.00030488244 -0.00012222584 -0.00081304787 -0.00033922505 -0.00081700465
2.063919e-05 -0.00013059836 -0.0008195448 -0.0006775944 7.255859e-05 0.00035387388 0.0002566349 0.00033471524
0.00010208779 -7.869678e-05 0.00038109254 0.0003083862 0.00032542017 -1.34738475e-05 2.0271578e-05 7.53859e-05
0.0003141392 0.00036472562 0.0002935923 0.00037487093 5.2944142e-05 0.00011989688 0.00036400012 0.00030168617
-9.686607e-05 0.00035824702 0.00014943178 -0.00021824928 4.654565e-05 -0.00015127199 0.00036415874 0.00022722463
-0.00016336054 -0.00016677217 2.8844535e-05 -4.273254e-05 -0.00021478461 0.000363419 -3.711543e-05 0.00036197974
00000000: 976b 73b8 7807 b439 17ba 2a39 6052 f139
00000010: 6dbf 2c39 c50c 9cb9 7f8b c239 5c6f e039
00000020: c3b7 1739 8a0e d638 9b72 0239 9591 3139
00000030: 3fdf d139 b6ac ba39 0877 e139 91f6 ba39
00000040: deb7 d9b8 4fad 8439 0ec7 b439 3bf8 8d39
00000050: 5045 9938 4d33 2eba 8f48 51b9 ff80 e3b9
00000060: 4d62 3639 dce0 373a 93b3 07ba 30d3 beb9
00000070: ac17 69b9 de34 e039 fd4b 80b9 059b 203a
00000080: 1e35 4e39 b0d0 29ba ee28 83b9 f82e 30ba
00000090: 1a23 6836 ecb0 4f39 d5d6 2dba 373c 05ba
000000a0: bc42 6b39 2ca8 383a b7e2 9239 5961 b039
000000b0: fc68 beb9 3526 8b39 47e5 b4b9 19d0 1b39
000000c0: 61da 123a 70d7 04ba e044 8e3a a763 20ba
000000d0: 93bd 8938 11d2 2f3a 7cd2 5f39 bbf2 393a
000000e0: f521 9138 9e6b 7eb9 41c5 323a f537 0d3a
000000f0: cdfa 2939 a952 a53a 1128 ba39 0817 0c3a
00000100: c017 dd39 1dc7 3937 46df 9e3a 619b 983a
00000110: fcc1 d639 dde8 2c39 0e19 5c39 4843 8a39
00000120: 55f9 c539 dcbf a53a 20d7 0b3a 37e8 a53a
00000130: 3b9d d839 2e6f 8d39 6693 a43a 6632 a93a
00000140: 7ea7 60b9 928f 6bba 04b4 06b9 a612 ccb9
00000150: 37f3 5f38 8f4b 5639 ced0 51ba aed9 0cba
00000160: fef3 7eb9 b84e 8839 c839 cab9 335a 8439
00000170: e534 4ab8 9b6c 69ba 808a 64b9 ae6a 6dba
00000180: b6d5 59b9 e142 0b39 921f 6cba 6f85 3aba
00000190: cf85 8707 f91d 9333 a7be f305 2f64 9389
000001a0: 2fd6 5f07 f91d 9333 e9f2 6c89 f91d 9333
000001b0: f91d 9333 c666 240c f91d 9333 f91d 9333
000001c0: 7688 2c86 f91d 9333 f91d 9333 f91d 9333
000001d0: 9964 140c 78e3 de05 be88 300c f91d 9333
000001e0: be00 acb9 7245 5eb8 2cea 4439 7a76 9c39
000001f0: cbb8 08b9 7fa6 d4b9 12e7 2ab9 241b ec38
00000200: 6149 6a38 31bd 26b9 6b8e f6b7 9f55 94b9
00000210: f4ec bd38 dc1b 73b8 edaa 3f39 8ed8 4cb8
00000220: 85fd 9237 91db 4bb9 60b9 5ab8 54a9 0ab7
00000230: 428b 7bb9 f2eb e738 8b9f 493a eac2 353a
00000240: eea7 f339 44e8 cab9 ca3c a939 7193 de39
00000250: df9c 5f3a 5e4a 77b9 600b cbb9 bf57 083a
00000260: 3bc7 363a 60ce eb38 cef4 9b39 8af4 1c39
00000270: 9157 9e38 3ed3 db39 0a10 1b39 82ac f3b8
00000280: 34ef 96b9 96c5 24b6 7991 b539 82e1 b538
00000290: 50b5 1839 e557 66b9 ecfd 02b9 f153 32b8
000002a0: 75d4 5639 4a68 c2b9 af4a d5b9 0d54 6c38
000002b0: 1707 063a 5fd1 3eb7 54f4 bb39 9664 ca37
000002c0: bbb5 95b7 09a0 8cb8 7b27 8436 0157 80b8
000002d0: a479 a6b9 3434 08b9 b7f8 5239 6fdc 7639
000002e0: d4e9 af39 e121 2cba 0270 3939 37ea b939
000002f0: 7a4d 6cb9 f602 25b8 f2a3 d2b9 1cc9 7638
00000300: 1bc0 09b9 4990 06b9 3d71 ca39 d73a d6b8
00000310: fa09 f7b8 f7a4 3339 a8a4 a9b8 35cd 3bb9
00000320: 4d63 2639 c1db 54ba ad89 f7b9 9ccc 83ba
00000330: 95e2 1bb9 7e04 243a eeec 29ba 7ce1 36ba
00000340: 0ceb b2b9 4925 2939 49d0 5eb9 a1d8 9f39
00000350: c029 00b9 b822 55ba 04da b1b9 412c 56ba
00000360: 5322 ad37 3bf1 08b9 b8d6 56ba 97a0 31ba
00000370: 992a 9838 2688 b939 f48c 8639 b87c af39
00000380: f717 d638 030a a5b8 60cd c739 e5ae a139
00000390: 289d aa39 bc0d 62b7 e20c aa37 7f18 9e38
000003a0: 0db3 a439 a538 bf39 4bed 9939 538a c439
000003b0: 5710 5e38 2671 fb38 45d7 be39 a22b 9e39
000003c0: 9324 cbb8 1ad3 bb39 cab0 1c39 d8d9 64b9
000003d0: 033a 4338 c49e 1eb9 8fec be39 2643 6e39
000003e0: c34b 2bb9 90df 2eb9 2bf7 f137 b73b 33b8
000003f0: ce37 61b9 4689 be39 64ac 1bb8 19c8 bd39

exp_avg_sq f4 [64, 20]
2.6274488e-06 1.2569636e-05 4.670073e-06 5.571533e-06 6.4377164e-06 2.934624e-06 8.452741e-06 4.0479467e-06
3.3834613e-06 1.914452e-06 8.2712495e-06 6.0764387e-06 3.2026367e-06 1.2535046e-05 3.3043923e-06 1.2475645e-05
2.4754042e-06 4.436101e-06 1.2614594e-05 1.0662168e-05 4.3590382e-05 0.00012824293 4.3682394e-05 4.4918004e-05
5.498571e-05 5.147488e-05 8.151812e-05 4.690198e-05 4.3006647e-05 3.3008193e-05 0.00010138774 5.066975e-05
3.5421104e-05 0.00012775185 4.4792763e-05 0.00012757143 4.296354e-05 3.927226e-05 0.00012793878 0.000112490154
4.8050428e-05 0.0001377691 4.4667428e-05 4.422477e-05 7.781223e-05 5.1440267e-05 8.5567e-05 4.3050706e-05
6.2164945e-05 2.5691164e-05 0.00012973335 4.5747125e-05 3.8874947e-05 0.00013725294 5.3616845e-05 0.00013764706
4.274194e-05 4.866721e-05 0.0001393762 0.00011986212 1.5174916e-06 7.734422e-06 2.5880972e-06 9.100899e-07
6.5603217e-07 1.2856278e-06 6.394495e-06 4.747256e-06 2.6942712e-06 9.316382e-07 5.7958828e-06 1.2843067e-06
1.1488407e-06 7.709437e-06 3.6091985e-06 7.703694e-06 1.0854678e-06 8.482694e-07 7.681525e-06 7.408187e-06
1.0241955e-05 2.995093e-05 1.1366923e-05 8.888251e-06 7.78505e-06 1.2737097e-05 2.0836806e-05 1.190933e-05
1.0528817e-05 9.3513045e-06 2.408732e-05 1.0575519e-05 7.503884e-06 2.9774466e-05 1.05388535e-05 2.9722516e-05
1.0112544e-05 8.787404e-06 2.9564906e-05 2.6695176e-05 6.3854026e-12 2.081114e-10 1.4602239e-12 4.239274e-12
1.9176245e-12 2.1131974e-10 2.8044496e-12 4.9043422e-11 2.0616282e-10 1.641218e-10 2.2591402e-10 2.4374605e-11
6.566669e-13 2.2133538e-10 2.1919232e-10 2.2591402e-10 1.6479296e-10 3.6930113e-13 2.0390528e-10 2.154724e-10
7.806699e-06 1.5404017e-05 9.578847e-06 9.649933e-06 9.0125095e-06 1.0537824e-05 8.421113e-06 7.6217852e-06
7.593883e-06 7.2766334e-06 1.06648995e-05 8.494354e-06 1.0321019e-05 1.5247632e-05 8.700528e-06 1.552824e-05
8.1787075e-06 8.6602e-06 1.5524924e-05 1.41862765e-05 2.202087e-05 5.9086207e-05 1.7829201e-05 2.4684847e-05
2.6402668e-05 2.9670367e-05 2.7520875e-05 3.8501137e-05 2.500671e-05 3.3314278e-05 4.4062006e-05 2.2574475e-05
2.8981349e-05 5.9274676e-05 2.5057618e-05 5.848581e-05 3.142652e-05 2.4620897e-05 5.8604426e-05 4.873425e-05
3.24697e-05 5.1515934e-05 2.7270216e-05 3.595913e-05 3.8894206e-05 2.3502085e-05 3.190784e-05 3.0407782e-05
2.7196827e-05 3.3672146e-05 4.1702133e-05 2.9716155e-05 2.6103768e-05 5.092242e-05 2.534829e-05 5.0813956e-05
3.214371e-05 2.7668275e-05 5.087696e-05 4.659817e-05 1.7354772e-05 5.999696e-05 3.1175092e-05 2.191066e-05
3.691926e-05 2.0003223e-05 3.7705064e-05 2.4684789e-05 2.3286328e-05 1.8018165e-05 4.2792337e-05 2.912489e-05
2.3069924e-05 5.971524e-05 2.9094937e-05 5.9161965e-05 1.982236e-05 1.965086e-05 5.9234342e-05 5.1612653e-05
2.4330355e-05 8.944079e-05 2.8072238e-05 2.7095797e-05 3.1564923e-05 3.2325486e-05 5.4699332e-05 3.4256343e-05
2.610236e-05 2.1288475e-05 6.776373e-05 3.721766e-05 2.4861982e-05 8.943246e-05 2.7787206e-05 8.942985e-05
3.212917e-05 2.305439e-05 8.916334e-05 7.916218e-05 3.7269458e-06 1.079992e-05 3.8863604e-06 4.223164e-06
3.9733786e-06 2.9951445e-06 6.3807142e-06 3.0416988e-06 3.3723852e-06 2.8398426e-06 8.309532e-06 4.5237134e-06
3.9163174e-06 1.0829903e-05 3.5713572e-06 1.0696516e-05 3.8207645e-06 2.4142555e-06 1.0831699e-05 9.271366e-06
1.2120058e-05 2.6480422e-05 4.785648e-06 1.1960212e-05 7.740813e-06 1.0500652e-05 1.2907626e-05 1.1024865e-05
9.522735e-06 5.7390216e-06 1.8172175e-05 1.755243e-05 5.9336726e-06 2.641433e-05 1.5503314e-05 2.638071e-05
00000000: 3a53 3036 2de2 5237 9fb3 9c36 1bf3 ba36
00000010: 9003 d836 75f0 4436 3fd0 0d37 99d3 8736
00000020: 6c0f 6336 097a 0036 bfc4 0a37 36e4 cb36
00000030: e1ec 5636 9d4d 5237 07c1 5d36 7d4e 5137
00000040: 1f1f 2636 d1d9 9436 45a3 5337 aae1 3237
00000050: d1d4 3638 f378 0639 9d37 3738 5766 3c38
00000060: 75a0 6638 bbe6 5738 b5f4 aa38 9eb8 4438
00000070: 0962 3438 4772 0a38 21a0 d438 3b86 5438
00000080: 1f91 1438 20f5 0539 dddf 3b38 b2c4 0539
00000090: c033 3438 45b8 2438 4e27 0639 b1e8 eb38
000000a0: c189 4938 1c76 1039 4959 3b38 fc7d 3938
000000b0: 1f2f a338 91c1 5738 6f72 b338 5891 3438
000000c0: 8d5e 8238 5b83 d737 0809 0839 9ae0 3f38
000000d0: a80d 2338 8eeb 0f39 a6e2 6038 5a55 1039
000000e0: cf45 3338 0520 4c38 8425 1239 7c5e fb38
000000f0: 9dac cb35 17c3 0137 2caf 2d36 e74c 7435
00000100: 301a 3035 d68d ac35 4b90 d636 9e4a 9f36
00000110: 3acf 3436 b115 7a35 417a c236 7160 ac35
00000120: de31 9a35 c857 0137 8f35 7236 1d3f 0137
00000130: 64b0 9135 a1b4 6335 e6df 0037 d793 f836
00000140: ddd4 2b37 223f fb37 90b4 3e37 bf1e 1537
00000150: 899c 0237 6ab1 5537 b3ca ae37 2fce 4737
00000160: eda4 3037 8ce3 1c37 200f ca37 826d 3137
00000170: dfc9 fb36 2ec4 f937 08d0 3037 9e54 f937
00000180: 0ca9 2937 9d6d 1337 2702 f837 74ef df37
00000190: 98aa e02c 27d2 642f 1c82 cd2b fc27 952c
000001a0: daf0 062c 3859 682f 7958 452c fcb1 572e
000001b0: adad 622f 2e74 342f 2565 782f bb66 d62d
000001c0: d6d5 382b 5f5c 732f 2701 712f 2565 782f
000001d0: 1831 352f e7e5 cf2a 3c32 602f 17ea 6c2f
000001e0: 84f9 0237 e037 8137 d6b4 2037 26e6 2137
000001f0: 6f34 1737 9ccb 3037 6848 0d37 a3be ff36
00000200: f5ce fe36 ce29 f436 65ed 3237 f982 0e37
00000210: 7028 2d37 15d0 7f37 7cf8 1137 a442 8237
00000220: 4837 0937 474b 1137 853b 8237 9801 6e37
00000230: 75b9 b837 55d3 7738 eb8f 9537 4e12 cf37
00000240: 4c7b dd37 a1e4 f837 a1dc e637 487c 2138
00000250: 80c5 d137 efba 0b38 38cf 3838 515e bd37
00000260: f91c f337 b39d 7838 d332 d237 a94e 7538
00000270: f8cf 0338 f988 ce37 06ce 7538 0168 4c38
00000280: 1330 0838 d012 5838 58c2 e437 d2d2 1638
00000290: 5622 2338 5826 c537 c8d4 0538 3714 ff37
000002a0: be24 e437 313b 0d38 53e9 2e38 f546 f937
000002b0: 6af9 da37 8895 5538 0aa3 d437 1221 5538
000002c0: 0cd2 0638 2b19 e837 b864 5538 6772 4338
000002d0: 1795 9137 3fa5 7b38 00c2 0238 c9cc b737
000002e0: c1d9 1a38 98cc a737 8125 1e38 2e12 cf37
000002f0: 0257 c337 b725 9737 ec7b 3338 3a51 f437
00000300: 4986 c137 c076 7a38 e710 f437 ad24 7838
00000310: 3248 a637 e7d7 a437 6472 7838 aa7a 5838
00000320: 0a19 cc37 2992 bb38 ac7c eb37 c84b e337
00000330: 9464 0438 3a95 0738 f66c 6538 78ae 0f38
00000340: 64f6 da37 a794 b237 601c 8e38 281a 1c38
00000350: b38e d037 b08d bb38 9218 e937 498c bb38
00000360: 6fc2 0638 ed64 c137 34fd ba38 df03 a638
00000370: 711c 7a36 4e31 3537 9567 8236 b4b4 8d36
00000380: 1053 8536 3100 4936 eb19 d636 fd1f 4c36
00000390: 2351 6236 2094 3e36 2b69 0b37 67ca 9736
000003a0: e968 8336 14b2 3537 73ab 6f36 3075 3337
000003b0: 1e34 8036 9804 2236 cbb9 3537 378c 1b37
000003c0: 4157 4b37 4622 de37 6794 a036 b8a8 4837
000003d0: 8ade 0137 f52b 3037 d58d 5837 6ff7 3837
000003e0: d6c3 1f37 d291 c036 7370 9837 8e3d 9337
000003f0: dc19 c736 5794 dd37 1d0d 8237 254c dd37

exp_avg f4 [64]
0.00033445592 -0.00063116517 0.0006478612 0.0012587135 -0.00089010113 6.850673e-08 -5.955202e-05 9.778418e-05
-1.7736473e-05 -0.00013611803 -0.00079100835 0.00035533772 0.0003578749 -0.00029559917 0.00029033967 4.3327622e-05
0.00020401478 -0.00041024608 0.00037741527 -0.00014254866 0.00015201369 -0.00023249166 0.0001664642 1.5982849e-05
0.0003529438 -3.8705904e-05 0.0004234207 -0.00060424267 -0.00012058998 0.0011635263 -0.0012948961 -0.00065963675
-4.8849673e-05 -0.00048688622 -5.221373e-05 0.00048427843 -0.00012982289 0.00059509184 -0.00039078906 -8.284173e-05
-0.0004718588 -0.00063263223 -0.00011855616 -2.6041584e-05 -2.8651068e-05 -0.00030581615 0.00058750657 -0.0005328593
0.00048394897 7.446534e-05 0.0007258174 8.010784e-05 -0.0004003168 0.00026439808 -0.00077244296 -0.00034457663
-0.0002404371 -0.00015460787 -0.0002263713 0.00023447863 0.0006121164 0.0 -9.7003736e-05 0.00079835096
00000000: ea59 af39 c774 25ba 3bd5 293a 6bfb a43a
00000010: ad55 69ba f91d 9333 7fc7 79b8 7b11 cd38
00000020: c9c8 94b7 e8ba 0eb9 ac5b 4fba 9f4c ba39
00000030: 28a1 bb39 a6fa 9ab9 bb38 9839 aeba 3538
00000040: cdec 5539 4c16 d7b9 d2df c539 1d79 15b9
00000050: dd65 1f39 01c9 73b9 e58c 2e39 e812 8637
00000060: 510b b939 2658 22b8 90fe dd39 0a66 1eba
00000070: 41e5 fcb8 7781 983a 81b9 a9ba 79eb 2cba
00000080: f0e3 4cb8 c344 ffb9 1100 5bb8 c0e6 fd39
00000090: 1121 08b9 f0ff 1b3a d2e2 ccb9 51bb adb8
000000a0: d163 f7b9 3bd7 25ba 5ba1 f8b8 e073 dab7
000000b0: b357 f0b7 f355 a0b9 e602 1a3a 95af 0bba
000000c0: 88ba fd39 462a 9c38 c844 3e3a 92ff a738
000000d0: 9de1 d1b9 e99e 8a39 c57d 4aba 4ba8 b4b9
000000e0: d81d 7cb9 3c1e 22b9 155e 6db9 61de 7539
000000f0: 7076 203a 0000 0000 7c6e cbb8 6d48 513a

exp_avg_sq f4 [64]
1.2647475e-05 0.00012990019 0.00013996093 7.743761e-06 3.0279356e-05 2.2591402e-10 1.5896198e-05 5.9678383e-05
5.2446114e-05 6.058241e-05 9.065801e-05 1.0920519e-05 2.6460784e-05 3.3281542e-06 6.0682472e-05 2.9500467e-07
8.701902e-05 2.2753484e-05 1.1689837e-05 0.00010751489 3.128576e-06 3.4663337e-06 9.621122e-05 2.2350068e-05
4.471586e-05 5.1808247e-06 1.8553981e-05 4.3906937e-05 4.18684e-06 4.40884e-05 9.344938e-05 4.5890036e-05
2.0040754e-05 1.2986017e-05 3.731214e-05 6.343404e-05 4.988089e-06 2.6936948e-05 4.7809288e-05 1.5009834e-05
6.97554e-05 2.3930381e-06 1.6715154e-05 0.00012143171 3.119726e-06 3.2743592e-05 6.112536e-05 1.8749615e-05
3.256297e-05 3.1864383e-05 0.00015344087 5.1500043e-05 6.793558e-05 0.0001490121 0.00018058077 5.8749906e-06
3.757019e-05 2.7632836e-05 1.5041362e-05 1.713079e-05 5.1970415e-05 0.0 7.888004e-06 1.0206327e-05
00000000: 7e30 5437 d135 0839 7ac2 1239 33eb 0137
00000010: 6c00 fe37 2565 782f d358 8537 2d4f 7a38
00000020: 96f9 5b38 de19 7e38 a61f be38 4637 3737
00000030: 1af8 dd37 4159 5f36 4f85 7e38 2261 9e34
00000040: fb7d b638 bcde be37 781f 4437 9e79 e138
00000050: 87f4 5136 299f 6836 01c5 c938 687c bb37
00000060: 4a8d 3b38 f2d6 ad36 5fa4 9b37 b728 3838
00000070: af7c 8c36 8feb 3838 41fa c338 0d7a 4038
00000080: 311d a837 85de 5937 9b7f 1c38 e407 8538
00000090: 5c5f a736 a8f6 e137 d586 4838 bfd2 7b37
000000a0: a549 9238 1598 2036 8537 8c37 27a9 fe38
000000b0: 7c5c 5136 2a56 0938 6e30 8038 7e48 9d37
000000c0: 3994 0838 1fa6 0538 f8e4 2039 c001 5838
000000d0: a378 8e38 2240 1c39 485a 3d39 c921 c536
000000e0: af94 1d38 10cd e737 285a 7c37 17b4 8f37
000000f0: cffa 5938 0000 0000 b856 0437 d73b 2b37
