published_data/SSA aerobic/final_models/bag_model_24.pkl (torch, 324839 bytes, 21 tensors)

weight f4 [64, 20]
000000 e2 22 48 3d 03 a3 85 be ed 19 4c 3e 70 bb f7 3a
       0.04886139 -0.2610093 0.19931765 0.0018900465
000010 38 5d 30 bd cd 89 e7 3d e4 b3 49 be d2 cf 14 3e
       -0.04305765 0.1130558 -0.19697529 0.14532402
000020 98 b6 ec 3d 15 95 72 3d 0c a9 1c be 36 44 77 bd
       0.115582645 0.059224207 -0.15298861 -0.060367785
000030 d9 c6 f5 bd 45 66 15 be ee ee 1b be 81 1d ee bd
       -0.12000818 -0.14589794 -0.15227863 -0.11626721
000040 28 95 1c be af 26 82 3e 16 0c 49 3e 62 b6 20 3e
       -0.15291274 0.25420138 0.19633517 0.15694574
000050 0e 67 59 bd 11 e7 d7 3d 09 c9 17 3e 1b ba cc bd
       -0.053076796 0.10542119 0.14822783 -0.09996434
000060 63 9a b6 bc 38 20 94 be 4a 24 9b be 23 c8 f2 3d
       -0.022290414 -0.2893083 -0.30301124 0.11854579
000070 4e 71 0e bd 47 03 ab ba ba fb 2e 3c 92 c4 5e bd
       -0.034776025 -0.0013047241 0.0106801335 -0.054386683
000080 4c 88 bd 3d 1b f9 6c 3d 13 33 05 bd 68 fb ff 3c
       0.09254512 0.057854753 -0.03251941 0.03124781
000090 6a 9e 9d bc 5b 61 12 bc 9d dd ec bd 1c 59 5b 3c
       -0.019240577 -0.008934344 -0.11565707 0.013387945
0000a0 3b c1 22 3d 81 af 6d be cf 32 ea 3d c4 54 da bc
       0.03973506 -0.2321148 0.11435472 -0.026651748
0000b0 b2 d4 ef bc 54 87 a4 bc 14 c9 16 3e a9 fd 14 3e
       -0.029276226 -0.02008406 0.14725143 0.14549889
0000c0 cf 01 58 bc 99 b1 40 bd 1d 42 f1 3d e9 2c 3d 3e
       -0.013184025 -0.04704437 0.11780188 0.18474163
0000d0 1c 30 f7 bd a5 87 56 3d 0a 68 17 be 18 3f b0 3c
       -0.12069723 0.052375454 -0.14785782 0.02151446
0000e0 34 98 88 bd 63 26 a3 3d 39 84 f1 bc 93 cc e7 3d
       -0.066696554 0.07966306 -0.029481994 0.11318316
0000f0 ca d4 51 3d 92 fd 38 3e cf 44 cd bd f8 5a 32 3d
       0.051228322 0.1806548 -0.1002289 0.043543786
000100 71 49 42 3e 00 d6 3f 3e 96 9e dd bd 25 29 74 3e
       0.18973328 0.18733978 -0.108212635 0.2384382
000110 2b 03 81 bb bc 86 38 be 03 17 b2 bd 4c ce 2a 3d
       -0.003937145 -0.18020147 -0.086957954 0.041700646
000120 03 6d 07 3d bc 57 ee bd 71 87 4a 3e e0 1e f9 3c
       0.033062946 -0.11637828 0.1977823 0.03041023
000130 ef 29 13 bd 29 79 1c 3e 16 12 04 bd 00 4b 04 bd
       -0.035928663 0.15280594 -0.03224381 -0.032298088
000140 7b fd 08 3e 98 34 b7 bd f9 a2 c8 bd 6f 47 33 3e
       0.13377945 -0.08945578 -0.097967096 0.17507719
000150 7b 3d 65 bd a8 67 f7 3d 32 9e 35 bd 8b 7d 83 3d
       -0.055966835 0.12080318 -0.04434032 0.0642043
000160 29 d3 db 3d 6e 03 70 be da cf d6 bd f3 de 45 be
       0.10733635 -0.23438808 -0.10488863 -0.1932333
000170 3b 72 56 3e 9f 9d b2 3d bd 2c 2d be 0a 02 fd bd
       0.20942013 0.0872147 -0.16911598 -0.123539045
000180 ad e8 22 be 35 4c ea 3d 83 fe ac 3d 48 3f 1e 3e
       -0.15909071 0.114403166 0.08446982 0.15453827
000190 7a 10 73 3e 65 e3 70 3d 13 84 21 3c 1c 7b 9b bc
       0.23736754 0.05881061 0.009858149 -0.018979602
0001a0 40 a6 94 ba 92 93 db bd 0e df 0c bb 8f 8b 88 bd
       -0.001134105 -0.10721506 -0.0021495256 -0.06667244
0001b0 52 57 f6 ba ab b2 05 3d ec 62 72 bd 79 20 21 3d
       -0.0018794334 0.032641094 -0.05917637 0.03933761
0001c0 9d 8d 14 3e a2 5c b3 bc 66 b0 ed 3d e7 21 ad 3d
       0.14507146 -0.021894757 0.11605911 0.08453732
0001d0 bb 8a 2b 3e 12 b2 9c bd d5 90 eb bd ea 87 09 be
       0.1675214 -0.07651152 -0.11502234 -0.13430753
0001e0 c8 55 bd 3d 0d ab 6c 3e d2 92 70 bc 42 66 05 be
       0.09244877 0.23112126 -0.014683442 -0.1302729
0001f0 b6 9f 97 be 84 5d 0c 3d 5f dc eb bd b7 af 4d be
       -0.29614037 0.03426887 -0.11516642 -0.20086561
000200 a1 e1 38 be 6e 4c 12 be 41 9b 94 3e f5 0c 81 3d
       -0.1805482 -0.14286968 0.290247 0.063012995
000210 05 7f aa bd af 1b be bd ef 15 2b 3e 86 e6 32 3e
       -0.08325008 -0.09282624 0.16707586 0.1747075
000220 9e 0c d7 bd 08 57 85 bd 9a 4b 8c 3d 69 97 03 3e
       -0.105004534 -0.065107405 0.06850357 0.12850727
000230 b2 98 c7 3b 71 bd 6d bd 92 98 4a be d2 2e 38 3e
       0.0060912007 -0.058041994 -0.19784763 0.1798661
000240 55 99 24 be a3 54 f5 3b 65 2a a5 3d 38 47 d8 3c
       -0.16074117 0.007486896 0.08064727 0.026401147
000250 45 1b db 3d 30 eb 9a 3d 5d 20 84 3d 8a 3d 2f 3e
       0.106985606 0.0756439 0.06451485 0.17113319
000260 41 0b 1a be 18 72 1a be 93 7e 51 be cd 51 ae bd
       -0.15043356 -0.15082586 -0.2045844 -0.08511696
000270 1f 82 9e bd b0 9b d7 bd 80 47 22 3e 38 40 45 be
       -0.077396624 -0.10527742 0.15847588 -0.19262779
000280 cf 88 1c be 54 2d 20 3e 86 53 c3 bd 0c d4 21 be
       -0.15286563 0.15642291 -0.09537415 -0.15803546
000290 b6 c6 48 be 37 8c 4f be dd af 93 3a f4 8d 67 3e
       -0.19607052 -0.20268331 0.0011267621 0.22612745
0002a0 4d a6 0c 3e 92 58 1a 3e 20 b2 fc 3d 59 96 36 3e
       0.13735314 0.1507285 0.12338662 0.1783079
0002b0 9d 54 77 3c e2 d6 a7 bd 21 19 a3 3d 05 ed 25 3d
       0.015095857 -0.081952825 0.07963777 0.040509243
0002c0 46 2b 7d bd 41 78 4e 3e d9 32 c3 3d 9f 82 da 3d
       -0.061808847 0.2016306 0.09531183 0.10669445
0002d0 59 7c 63 3d bc 26 fa bd e5 1a 88 3d 11 a6 34 3e
       0.05553851 -0.12214419 0.06645755 0.17641474
0002e0 20 d9 8f 3e d9 fd 66 be 8f 87 69 be f2 d3 71 3e
       0.2809534 -0.22557773 -0.22805618 0.23616007
0002f0 05 eb 30 be 02 27 f6 bc 02 28 7a bd 35 1a 51 bd
       -0.17277153 -0.030047897 -0.06107331 -0.051050384
000300 2c 53 f2 bd 01 0b c3 3c 9d 15 57 3d c1 fe 23 3e
       -0.1183227 0.023808958 0.052510846 0.1601515
000310 14 cd 1b 3e f8 06 2b 3e 37 4b dc 3d d9 0f 26 bc
       0.1521495 0.16701877 0.107565336 -0.010135614
000320 5c 0a 89 3d 90 19 18 3e df bc 07 3e f4 d3 7a be
       0.06691429 0.14853501 0.13255642 -0.24494916
000330 78 5f 80 bd 1d 6b de 3d 31 10 91 bd fa 19 33 be
       -0.06268209 0.10860274 -0.070831664 -0.17490378
000340 bc 80 d5 bd 6c f2 01 3e 0d 10 62 bd 47 5a 41 3e
       -0.10424945 0.12690133 -0.05519109 0.18882094
000350 60 34 43 be 1c fd 7c 3e 27 9e 3e 3e ce 3f b2 3d
       -0.19062948 0.24705929 0.18615018 0.08703576
000360 8f 47 98 3c 76 48 b7 3d 83 cb fc bd 76 b1 01 bd
       0.01858881 0.08949368 -0.12343504 -0.03166338
000370 8e 4b 2c 3e 5e b2 91 3d 66 4e 66 3e 52 9b 4c 3e
       0.16825697 0.07114099 0.22490844 0.19981125
000380 1b fe a6 3d 50 19 42 3e 53 b6 5e 3e 36 ea 9b 3d
       0.081539355 0.18954968 0.21749239 0.076130316
000390 f9 a7 44 be ac 70 12 3e 4c 6d d0 3d d3 3c 13 bd
       -0.19204701 0.14300793 0.10177097 -0.03594668
0003a0 04 9a aa bd 5c da 2b be a9 22 31 3e 1c 40 bf bb
       -0.083301574 -0.16782516 0.17298378 -0.0058365
0003b0 f2 8f d3 bd 13 ba e2 bd ef d9 70 3c 77 7a 6d 3e
       -0.1033019 -0.11070647 0.014700397 0.23191248
0003c0 78 e1 89 3d 69 ce 46 3d 84 65 1a 3e 8f e7 07 be
       0.06732458 0.04853669 0.15077788 -0.13271926
0003d0 32 27 5f be 9d 02 6d be 40 c7 42 3e e2 cf 73 bd
       -0.21792296 -0.23145528 0.1902132 -0.059524424
0003e0 a4 0d 7a 3d 08 77 32 be 19 a0 23 bc 15 c9 f2 3d
       0.061048165 -0.1742822 -0.009986901 0.118547596
0003f0 da 0d 51 3d 9b 9b 47 be 5b ad b9 bd 3d da 4e be
       0.0510386 -0.19492953 -0.09066268 -0.20200439

bias f4 [64]
000000 82 e6 83 3b aa b4 01 3e 66 6c da 3d 4a de db 3c
       0.0040252814 0.12666574 0.106652066 0.026839394
000010 d4 35 1a be 57 2a 3f be f4 2d d9 3d 8e 49 9d bd
       -0.15059596 -0.18668495 0.10604468 -0.07680045
000020 5a f3 da bd e2 6b 09 3e 4b 25 11 bd 6b 3b 12 be
       -0.10690947 0.1342006 -0.035435956 -0.14280479
000030 c4 41 cb bd 3f 8a 35 bd 67 f3 95 bd e7 8e 42 be
       -0.09924653 -0.044321295 -0.07321816 -0.18999825
000040 8c 4b 7e 3e 9c 69 bf bd 13 26 d4 3c 45 6f 9c bd
       0.24833506 -0.09346315 0.025897061 -0.076384105
000050 fd a6 03 3e e4 41 1b be d6 22 d5 bd 35 95 24 bb
       0.1285667 -0.15161854 -0.10407035 -0.0025113348
000060 8c 56 76 3e 4e 60 90 3c e5 54 92 3d d4 05 31 be
       0.24056453 0.017624047 0.071450986 -0.1728738
000070 f0 df 8a 3b 69 33 bd bd 3e ff 33 be 79 33 7f 3e
       0.004238121 -0.09238321 -0.17577836 0.24921979
000080 e2 17 62 be 33 0b 0e be 2e 74 1c 3d f4 df e2 3d
       -0.22079423 -0.1387146 0.038196735 0.11077872
000090 34 3f 14 be d8 78 03 be 2f b0 87 3c 75 25 f6 bd
       -0.14477235 -0.12839067 0.016563503 -0.12018863
0000a0 53 00 ad bc 80 4b 00 3e 27 03 ed bd 2d b2 7b 3d
       -0.021118319 0.12528801 -0.11572867 0.06144922
0000b0 cb 12 33 3d 15 43 35 bd 80 ef 0c be 7c a2 94 3d
       0.043719094 -0.044253428 -0.13763237 0.07257554
0000c0 66 41 10 bd 72 cd 11 3e 9f 6e dc 3d 14 5d 1e be
       -0.03521862 0.14238527 0.10763287 -0.15465194
0000d0 ca c4 74 3c 52 49 59 be ca 7c 01 3d a3 1a 17 3e
       0.014939496 -0.21219376 0.03161315 0.14756255
0000e0 05 3e c9 bc e9 f9 27 be 90 80 0c be 0b 45 03 3e
       -0.024565706 -0.16403927 -0.13720918 0.12819307
0000f0 c6 7c 16 3e bc 1c 28 3d 78 20 f4 bc cf f1 f1 bd
       0.14696035 0.04104303 -0.029800639 -0.118136995

weight f4 [256, 64]
000000 4c be 2f be ce b7 90 be df af 54 3d 03 63 58 be
       -0.17162436 -0.28265232 0.051925536 -0.2113152
000010 c5 4f 14 bd b5 60 bd 3d ac 0c d4 bc 27 69 cd bc
       -0.036208887 0.09246961 -0.025884949 -0.025074555
000020 6f bd 31 bd 18 f9 1b be 8f 68 d8 bb 22 ae cb bc
       -0.04339355 -0.1523174 -0.006604261 -0.024863306
000030 c9 1f 3b 3e 9e 26 2c 3c 1a 57 2f bd 4f f9 e5 bd
       0.18273844 0.010507254 -0.042807676 -0.112291925
000040 51 65 02 3e bf 31 12 be 1c d8 5e 3c 82 46 50 3b
       0.12733962 -0.14276789 0.013601329 0.0031780307
000050 7f ee 1c 3d dd aa c0 3c c9 9b c9 3d 61 39 9a bc
       0.038313385 0.023518974 0.09844167 -0.018826189
000060 ad df 24 3d 33 b9 ac bc aa 79 9a 3d 74 ff 4d 3d
       0.040252376 -0.021084404 0.07542737 0.050292447
000070 13 9c 1c 3d 3c 6d 1e 3d 7b 95 0e bd d9 d8 c9 bd
       0.03823478 0.038678393 -0.034810524 -0.098558135
000080 98 73 05 be 1f 6e b4 bc 13 05 75 bc 86 9a 3e bb
       -0.13032377 -0.022025166 -0.014954823 -0.0029083802
000090 25 52 fb 3d 1c 75 b5 3e 11 2b de bd de ec 23 3c
       0.12271527 0.3544091 -0.10848058 0.010005204
0000a0 c3 52 30 bd d5 61 cc ba e3 98 a0 bb de cc c7 3c
       -0.043047678 -0.0015593121 -0.004901038 0.02438968
0000b0 bf e9 05 3e 1f ce 41 3d c1 dd ef 3d fe 5f 2b 3c
       0.13077448 0.047315713 0.11712218 0.010459898
0000c0 81 8d 21 3e 3d 2a 4e bd bc 3a a4 bd 97 0f d5 3c
       0.15776636 -0.05033325 -0.08019015 0.02600841
0000d0 b3 0f 43 bd 8b b2 ab bd 6c b3 e4 bd f1 4e b6 3d
       -0.047622394 -0.08383664 -0.111670345 0.08901776
0000e0 e7 db 20 be 95 b3 30 be 5f e2 e5 bd 2c 0c 12 3e
       -0.15708886 -0.17256005 -0.112248175 0.14262456
0000f0 80 90 b3 bd 60 31 41 3e 08 bd 29 3e 78 a9 12 3e
       -0.087677956 0.18866491 0.16576016 0.1432246
000100 4e ca 04 be 53 38 93 3d 21 dc d3 3d 59 7a b0 bc
       -0.12967798 0.07188477 0.10344721 -0.021542715
000110 53 c5 13 3d 0b f9 97 3d 87 e8 52 be 19 0c 13 3e
       0.036076855 0.07420548 -0.20596515 0.14360084
000120 15 79 6c 3d 56 66 f2 3d e2 73 e2 bd a8 14 a8 bd
       0.05773266 0.11835925 -0.11057259 -0.08207065
000130 dc 14 1d be 7c d2 cf 3c 19 dd 17 be b0 a2 dd 3c
       -0.15339988 0.025368921 -0.14830436 0.027055115
000140 86 8e 5f 3d b8 cb 80 3d b1 71 dd 3d 1a 99 21 3c
       0.05457928 0.06288856 0.108127005 0.009863162
000150 a4 14 60 bd e3 0f 3b 3c 4a 79 98 bd 98 ca 23 bc
       -0.054707184 0.011417362 -0.07445009 -0.009997033
000160 d2 32 11 3d c1 cb b9 3d 22 d3 86 3d ed 22 10 3d
       0.035448857 0.09072066 0.06583239 0.035189558
000170 23 62 ea bd 0d 22 eb bc 50 a3 d2 bd 65 4d c7 bd
       -0.11444499 -0.02870276 -0.10285056 -0.09731559
000180 0a 98 c6 bc f2 da 3c 3d 8a 8e 0d 3d 80 b0 c0 bd
       -0.02424242 0.04610724 0.034559764 -0.09408665
000190 2d f8 db 3b b0 ab 80 3d 22 f8 53 bd 97 46 9c bc
       0.0067129345 0.06282747 -0.05175031 -0.019076629
0001a0 be 81 b8 bd 6d 72 88 bd b6 07 e1 bd 22 17 f5 3c
       -0.09009121 -0.0666245 -0.10987799 0.029918257
0001b0 e8 70 cd 3d 65 42 81 3d 10 e2 08 bb 99 8e e1 bd
       0.10031301 0.06311492 -0.0020886697 -0.110135265
0001c0 d9 e9 72 bc 6b 08 8a 3c a6 25 18 bd 51 cd d6 3c
       -0.014826261 0.016849717 -0.03714528 0.02622095
0001d0 ca 77 90 3d d0 18 8c 3d 65 04 7c bc 67 57 7e bb
       0.07054098 0.0684067 -0.015381907 -0.003880942
0001e0 a7 ca 16 bd b6 ab 6a 3d a6 03 34 3e d2 d7 9d 3b
       -0.036814358 0.057292663 0.17579517 0.0048169876
0001f0 c6 10 c0 bd 05 db e1 3b 08 23 08 be f1 a0 58 be
       -0.09378199 0.0068925642 -0.13294613 -0.21155144
000200 68 19 af bd b5 eb 4d 3d df 4f 01 3e 7f 0a e8 bc
       -0.08549768 0.050273616 0.12628125 -0.028325317
000210 c6 7e f4 3d 0d da 8f 3d 6b c6 f1 bd 25 eb a8 bc
       0.119382426 0.07024012 -0.11805423 -0.020619938
000220 c9 8c c1 bd ae ac 68 bd fa e4 36 3b f8 d9 1d bd
       -0.09450681 -0.056805305 0.0027907477 -0.03853795
000230 45 d5 c7 3c 88 6a 1d bd 59 7d 3e 3d 95 85 35 3c
       0.024393687 -0.038431674 0.04650626 0.011079212
000240 7b 5e 0e 3e 74 fa b0 bd bc 6d 7b bd 1b 2d 8d bd
       0.13903229 -0.0864152 -0.061383948 -0.06893369
000250 58 2c 42 bd f2 ad a7 3c ca 0f b5 bd 92 4f 08 bd
       -0.04740557 0.020468686 -0.08840902 -0.03327901
000260 be 73 01 bd c5 7b 31 be f7 ef ca 3b 95 d2 ad 3d
       -0.03160452 -0.1733237 0.006193157 0.08487431
000270 7f 25 1a 3e 6f b5 d2 bd 8d 1b ee bd f7 04 80 bd
       0.15053366 -0.10288512 -0.11626349 -0.06250947
000280 0b aa b1 bb f8 94 cc 3c 2e a9 f6 bd 7b 64 fa bd
       -0.005421882 0.024973378 -0.12043987 -0.122261964
000290 62 65 4d 3d 9f 1f 07 3b ca 6f b2 3a 0d 13 19 3e
       0.050145514 0.0020618213 0.0013613638 0.14948674
0002a0 da 30 4a 3d 63 9e f4 bd 38 2a 0d 3e d9 e8 d9 3d
       0.049362995 -0.11944272 0.13785636 0.10640115
0002b0 85 df 18 bc f9 4d 78 3e b3 76 4a be 6c ba ed 3d
       -0.009330635 0.24248494 -0.19771843 0.11607823
0002c0 77 9e b1 bd 62 91 ab 3d 94 59 6c bd 8d 64 62 bc
       -0.08672803 0.08377339 -0.057702616 -0.0138179185
0002d0 2d dc 3c be 25 4c 09 3e 5b f0 e7 3d e8 b8 3f 3d
       -0.18443365 0.13407953 0.11325141 0.0468072
0002e0 91 07 72 bd 66 18 ef 3d 66 e8 c8 bd a3 43 b0 3b
       -0.059089247 0.116745755 -0.098099515 0.0053791567
0002f0 18 c7 05 3d 91 5f e3 bd f5 c8 26 be 53 7a 28 bc
       0.032660574 -0.11102212 -0.16287597 -0.010283071
000300 17 cc 4e 3b c5 62 33 be 70 49 08 3d d8 f9 1b be
       0.0031554752 -0.17518146 0.03327316 -0.15232027
000310 fa bd c4 3d 80 8d f9 bc c6 e1 11 3d 26 b6 42 3e
       0.09606548 -0.03046298 0.035615705 0.19014797
000320 a9 79 8b 3c 6c 26 7d bd 3f f6 03 bd 00 4a 3d bc
       0.017025786 -0.06180422 -0.03221726 -0.0115532875
000330 1e a4 8e 3d 3e b1 2d 3e fa 02 0c bd 92 3e 83 bd
       0.069648966 0.16962144 -0.034182526 -0.06408419
000340 2c 3f 11 3d 87 6b 92 3d a0 ca 6c bc 3d a9 b5 bc
       0.035460636 0.071494155 -0.014452606 -0.022175426
000350 26 aa 2f 3e 16 43 be 3d 3e 7d 08 3e 8c aa 7b 3c
       0.1715475 0.092901394 0.13329026 0.015360486
000360 67 06 9f bd 84 5c 07 3e d0 0a cb 3d 1d 69 87 bd
       -0.07764893 0.13218886 0.09914172 -0.06611846
000370 15 ac 1d be b8 6d 03 3e 6e d6 86 bc be b3 b8 bd
       -0.15397675 0.12834823 -0.01645967 -0.09018658
000380 77 be 0a 3d af eb a4 3c 66 6c ca bd f3 26 72 3d
       0.033873048 0.020131914 -0.098839566 0.059119176
000390 00 9f 02 3e 90 34 b7 3d f2 47 76 3d 93 2b fe bc
       0.12755966 0.089455724 0.060127206 -0.031026637
0003a0 fc 25 7d bd bf 90 24 bd 7f f3 bf bd 94 43 66 bb
       -0.061803803 -0.040177103 -0.09372615 -0.0035135495
0003b0 c9 a3 cb bd 86 96 c9 bd e5 e1 4a bd f4 97 73 bd
       -0.09943349 -0.09843163 -0.049531836 -0.059471086
0003c0 94 97 29 3e 96 b3 d0 bd 60 21 c3 bd af 51 d3 bd
       0.16561729 -0.10190503 -0.0952785 -0.10318314
0003d0 00 84 90 3d ff 00 70 3b 96 d8 bb 3d 51 dd b1 3c
       0.07056427 0.0036621687 0.0917217 0.021711977
0003e0 fc 54 0a bb 17 33 f4 3d 9f e7 82 3d 37 a8 2e be
       -0.0021107784 0.11923807 0.063918345 -0.17056356
0003f0 30 16 9c bb 7b 2b a8 3d 1d fb b3 bb 3e aa 50 bd
       -0.004763387 0.08211418 -0.0054925815 -0.050943606

bias f4 [256]
000000 6c e5 95 bd 6c f6 6e 3d 01 41 54 bc 6a 82 dc 3c
       -0.073191494 0.058340475 -0.012954951 0.026917655
000010 61 c0 bb bd 2f 40 b4 bd dd ff 28 bd 4f 43 38 ba
       -0.09167553 -0.088013045 -0.041259635 -0.0007029073
000020 e0 45 05 3d 97 d1 59 bd 84 a3 41 3d bd bb ea 3c
       0.03253734 -0.053178396 0.04727508 0.028653974
000030 fa de f5 bd 60 8a 46 bc fd a5 b9 3d 1e ad a7 bd
       -0.1200542 -0.012117952 0.09064863 -0.08187316
000040 44 4d 43 bd 42 a2 b3 bd 97 4e ec bd 80 22 9c 3d
       -0.047681108 -0.087711826 -0.11538427 0.07623768
000050 ba fd a0 3d 7f 48 fa 3d b3 bf 9c 3c 10 cd 2c bd
       0.078608945 0.12220859 0.019134378 -0.04218775
000060 6c c7 22 bd 0f 16 87 bd 69 a4 e8 3b 1a ec 19 3e
       -0.039740965 -0.06596004 0.0070996773 0.15031472
000070 17 70 6a bc 98 c5 4f 3d 1e ff fc 3d 1f b4 1c 3d
       -0.014308951 0.05072555 0.12353347 0.038257714
000080 cd 24 82 bd 56 c8 be bd fb 1d ba bd cc e8 b7 3d
       -0.063546754 -0.09315555 -0.090877496 0.08979949
000090 b9 f6 21 3d 38 ee ae bd d0 23 17 3e 56 b6 84 3d
       0.039541934 -0.0854153 0.14759755 0.0648009
0000a0 ec b3 8d 3d 46 4d 95 bd ef 9d 00 bd 57 a7 a2 bd
       0.06919083 -0.07290129 -0.031400617 -0.07942074
0000b0 2a 8e 22 3d 7c 7d e3 3d 07 16 89 bc 77 6d ad 3d
       0.03968636 0.111079186 -0.016734136 0.084681444
0000c0 e1 aa 08 3e 97 cb 64 bc 24 24 a9 bd ad 93 5f 3c
       0.13346435 -0.013964555 -0.082588464 0.0136460485
0000d0 21 6d 88 bd 83 c3 20 3c d8 83 07 bd a8 9a 76 3c
       -0.0666144 0.009812239 -0.03308472 0.015051521
0000e0 c2 99 27 bd dc 95 27 3c d8 87 9e bd 44 2a 95 bd
       -0.04091812 0.0102286 -0.07740754 -0.07283452
0000f0 95 90 d2 3d 29 0f 46 bd 64 dc c2 3d 22 9b bf 3b
       0.10281483 -0.0483543 0.095146924 0.0058473507
000100 16 20 8d bc 96 44 25 bd 11 9f ee bd dc e4 8a bd
       -0.017227214 -0.04034861 -0.11651433 -0.06781933
000110 92 10 3d 3b 43 fd be b9 2f 18 b0 3d 15 1f 77 3d
       0.0028848988 -0.0003642832 0.08598363 0.060332377
000120 40 42 06 bd cc ad 89 bd fb 73 ae bd 33 f7 86 3d
       -0.032778025 -0.06722602 -0.08518215 0.06590118
000130 6c d2 cf 3d 1a 67 5a 3b 33 b2 11 bd 56 0e 26 3c
       0.10147557 0.0033325613 -0.035570335 0.010135254
000140 b2 09 ae 3d a7 3d 74 3d 27 ee b2 3c 7c 91 69 bd
       0.08497943 0.05962911 0.021842076 -0.05702351
000150 20 9d 1e 3d 81 0e 57 bd 20 64 87 bd 23 3e 01 3e
       0.038724065 -0.052504066 -0.06610894 0.1262136
000160 95 6f 99 3d d9 bd b5 39 bf 50 c8 bb a8 1e a8 bd
       0.07491986 0.00034664458 -0.0061131413 -0.08208972
000170 1f b4 e4 bd 81 39 b2 3c a7 0d 9d bb c9 9f 3d 3d
       -0.11167168 0.021755936 -0.0047928873 0.04629496
000180 ab 18 03 3e e3 25 22 bc 6b 74 c9 3d c7 c6 b0 3d
       0.12802379 -0.009896728 0.09836658 0.08631664
000190 36 a1 ae 3d 45 8d 70 3d 4b 57 fe bd 04 9d 73 bd
       0.08526842 0.058728475 -0.124189936 -0.059475914
0001a0 15 3e 94 3d 01 e3 50 bd 87 49 e1 3c 80 55 d9 3c
       0.07238404 -0.050997738 0.02750088 0.026530027
0001b0 99 72 94 3d 50 d2 81 bd d5 06 0b 3e c9 24 30 bb
       0.0724842 -0.06338942 0.13576825 -0.0026877394
0001c0 71 ed c1 bd 2b 5a 04 be 8d 04 df bd 48 78 2f 3c
       -0.094691165 -0.12925021 -0.1088954 0.01070983
0001d0 8d 5e 99 3c 33 6c 90 3d b7 c7 ed bd 03 8a 2c 3b
       0.018721843 0.07051887 -0.11610358 0.0026327379
0001e0 a4 5e fd 3d 2b c0 af bd 56 a6 a7 bc 9a 1d 78 3d
       0.12371567 -0.08581575 -0.020465057 0.060575105
0001f0 48 81 a2 bc ae fd 1f ba 99 1b bb bc 8d bf 06 bd
       -0.019837037 -0.000610317 -0.022840308 -0.03289752
000200 2c 1d 8f bd 6e 61 b0 3d da e9 bd bd 2b ae cf bd
       -0.06987986 0.08612333 -0.09273119 -0.10140642
000210 75 46 00 3e 3d 4f 5d 3c f5 d7 c6 3d 16 f6 89 3c
       0.12526877 0.013507661 0.09709159 0.016840976
000220 00 8a 19 bd 22 8c 4b bd 5e fc 15 3e f6 df 02 be
       -0.037485123 -0.049694188 0.14647052 -0.12780747
000230 e5 71 de 3c cc 45 19 3d f0 30 0a 3d 36 77 2f 3d
       0.027153919 0.03742008 0.033738077 0.042838298
000240 4c c6 03 3d b4 8c d7 bd 31 30 06 be d0 2a e0 bc
       0.032171533 -0.10524884 -0.13104321 -0.027364165
000250 00 a8 08 3d ab 05 d7 bd bb 3b b6 bd af 2e 6c bd
       0.033363342 -0.10499128 -0.088981114 -0.05766171
000260 66 34 6d bd d0 c9 09 bd 9a 61 84 3d 71 aa 78 bd
       -0.0579113 -0.03363973 0.064639285 -0.06070942
000270 a6 ca 54 38 5b 5a ce bd 51 b0 93 3d 1b 14 e7 3d
       5.073347e-05 -0.10075828 0.07211364 0.11283132
000280 c9 31 45 bb 9c ac 59 3d 4c 73 a6 bd 2e 3a e7 3d
       -0.0030089489 0.05314313 -0.0812746 0.11290394
000290 e4 b8 d4 3d 7b 25 53 3d 91 43 b8 3d 4a 79 af bc
       0.103868276 0.051549416 0.08997262 -0.02142014
0002a0 17 86 f5 3c 1b cd cc 3d 57 2e e2 bd ff 15 18 3d
       0.029971166 0.10000058 -0.11043995 0.037130352
0002b0 66 4f bc bd 18 b0 5b 3d b4 5d 5b 3d 0b 00 08 3d
       -0.091948316 0.053634733 0.05355616 0.033203166
0002c0 bb 7d b2 3b e6 b7 b8 3d 09 7c b9 3c 4f 7d 1a 3e
       0.005447117 0.09019451 0.022642152 0.15086864
0002d0 9b 74 fa bd 44 93 eb 3d 50 94 68 bd 21 b7 5b 3d
       -0.12229272 0.11502698 -0.056782067 0.053641442
0002e0 8b be f7 3c 2f e9 78 3d 51 a7 89 3b db 5a ed bc
       0.030242225 0.060769256 0.004200854 -0.028973987
0002f0 aa 36 f2 3d 56 2a f7 bc 32 4e 4f bd 2f 6d 7e bd
       0.118268326 -0.030171555 -0.050611682 -0.062115844
000300 37 69 f2 bd 3f 02 fc 3d 2e 51 8a 3d 29 7d c4 3b
       -0.118364744 0.12305116 0.06753765 0.0059963656
000310 d1 5b c1 bc d8 60 2a 3d fd 45 f7 bd c1 c0 ea bc
       -0.023603352 0.041596264 -0.12073896 -0.028656365
000320 64 93 0b 3e c7 9f 14 bd 85 1e d6 3d 8a 4d 01 be
       0.13630444 -0.036285188 0.1045504 -0.12627235
000330 19 94 7e bd b0 84 fe bd 88 f0 32 bd e5 f3 6a bd
       -0.062152956 -0.12427652 -0.04368642 -0.057361502
000340 1c 02 85 3d 0f 29 fe 3d 42 90 0a 3c ff 0b 27 bc
       0.06494543 0.12410175 0.008457245 -0.010195731
000350 4d e8 8e 3d 3e 3b 70 3d b2 ac 01 3d 91 31 95 bd
       0.069779016 0.058650248 0.031658836 -0.07284845
000360 3e 1b c4 bd cc 66 65 bb a7 48 f9 3b c1 37 75 bd
       -0.095755085 -0.0035003899 0.007607538 -0.059867624
000370 e0 26 88 bd 62 7f 70 bd 65 ed b4 3d 0d 62 89 bd
       -0.0664804 -0.05871523 0.08834342 -0.06708155
000380 51 f1 78 bd 40 48 a0 bd 5d e2 a2 3d 04 a6 32 bd
       -0.060777012 -0.078262806 0.079533316 -0.043615356
000390 49 78 32 3d d9 ff 81 bd 3e 09 92 3d 19 3f a3 bc
       0.043571744 -0.06347627 0.07130669 -0.019927548
0003a0 a0 9e 1e bc d2 e2 85 3c c4 20 b6 bd 2e 98 9e bc
       -0.009681374 0.016343508 -0.08892968 -0.019359674
0003b0 5b b3 99 bd 74 54 be bd 42 a2 43 bd 1c 96 6d bd
       -0.075049125 -0.09293452 -0.047762163 -0.058004484
0003c0 4e 91 b8 3d e8 bd 8c 3d 1f d0 40 3d 9f d7 a0 3d
       0.0901209 0.06872159 0.04707348 0.078536265
0003d0 de d7 3f bd 87 fc 58 3c af a6 66 bc 56 f3 44 bd
       -0.046836726 0.013243801 -0.014077826 -0.048083626
0003e0 63 98 8c bd 3e 1e c1 bd 2b fd 48 3d 19 41 40 3d
       -0.06865003 -0.09429596 0.049069565 0.046937082
0003f0 e7 28 c5 3d 92 92 c2 3d 5d c8 a7 3d 07 eb 8e 3d
       0.09626942 0.09500612 0.08192513 0.06978422

weight f4 [32, 256]
000000 09 5a 20 3d 1b 5a 7b bb 24 e6 12 be 74 a2 26 bd
       0.039148364 -0.0038353268 -0.14345604 -0.04068227
000010 69 a9 21 be f0 aa e3 bc ce 56 ab 3c 8b e7 b0 bc
       -0.15787281 -0.02779147 0.020915415 -0.021594783
000020 26 62 53 bd fc 32 83 bd b8 94 4d 3d 60 df 64 3d
       -0.051607274 -0.06406209 0.050190657 0.05587709
000030 2c 94 91 3d 5e 38 24 bd 34 df b6 bc da fa 62 be
       0.0710834 -0.04009282 -0.022323228 -0.22166005
000040 b4 b4 00 3e 41 2e c9 bd 3a be a3 3c 8d 40 a2 3d
       0.12568933 -0.09823275 0.019988168 0.07922468
000050 28 b8 ea 3c f5 70 82 3c 65 da d5 bd 9a ad 9e bb
       0.028652266 0.015923003 -0.10442046 -0.0048424723
000060 44 32 72 b9 96 68 d9 3c ae 36 48 3d 5c df 63 bd
       -0.00023097644 0.026539128 0.04888027 -0.055632934
000070 22 e9 52 3d 7c 3c a7 3c 2f 0e 3a bd ef 85 a3 bd
       0.051491864 0.020414583 -0.045423683 -0.0798453
000080 2f 65 ad bd 60 3c bf 3d 06 97 5f 3e 5c 76 02 bd
       -0.08466565 0.093376875 0.21834955 -0.031851158
000090 2a 8a c1 3d f5 ba 99 3c ab ce db bd 33 70 86 3c
       0.09450181 0.018765906 -0.10732778 0.016410923
0000a0 d5 3a b7 bd 08 88 07 bd 8a a4 8a be 75 a7 b1 3b
       -0.08946768 -0.033088714 -0.27078658 0.0054215738
0000b0 a8 e2 b7 bc 8a 67 90 3d 87 9a 7c bd 83 f2 8a bd
       -0.022446945 0.070509985 -0.061670806 -0.06784537
0000c0 f4 b7 8f bd 1c 3b 8b 3d 0a 03 5c be 5d b1 67 3d
       -0.07017508 0.067983836 -0.21485534 0.05656563
0000d0 98 ec 3d 3d 63 b7 c8 bb 9a 34 5e 3d c0 09 99 bd
       0.04636821 -0.006125377 0.054249384 -0.07472563
0000e0 84 ba 3d bc 1d 1d 92 3d 31 72 82 bd 20 3f de 3d
       -0.011580113 0.07134459 -0.063694365 0.10851884
0000f0 cc f4 5d 3d 81 da 0f be fe 30 10 3d df a5 f2 3c
       0.054188535 -0.14048196 0.035202973 0.02962011
000100 d8 db 3a bc 7a bf b2 bd 0d 7e 1f bd 65 88 70 3d
       -0.011404954 -0.087279275 -0.03893857 0.058723826
000110 2a 08 4c bd 98 b8 49 3c 81 a9 37 3d a1 7b 8d bd
       -0.049812473 0.012312077 0.044839386 -0.06908346
000120 98 c9 8f 3d 80 c1 05 be bc 13 7f bd 52 00 45 bc
       0.07020873 -0.13062096 -0.06227468 -0.012024002
000130 67 b9 88 3d 9f 86 73 bd e1 6f c3 bc 7a 3e fd 3d
       0.06675988 -0.059454557 -0.023857059 0.12365432
000140 37 74 20 bd 8b 69 8a bd 85 28 28 bc 4a 55 bc bb
       -0.03917333 -0.06758412 -0.010263567 -0.005747472
000150 03 a8 43 3e 84 67 de 3c df 31 30 bd ce 62 9d bd
       0.1910706 0.02714897 -0.04301631 -0.07684861
000160 b4 25 20 bc b6 b5 09 bc 6c 27 47 bd 80 d7 80 bb
       -0.009774614 -0.00840514 -0.04862158 -0.0039319396
000170 17 8a 0a 3d 1d 43 77 bd 27 67 ea 3d 3f 2d 8e bd
       0.0338231 -0.06036674 0.11445456 -0.06942224
000180 62 42 e9 bd a2 63 6b 3d 8f 39 8a bc df 8c 2e 3d
       -0.11389615 0.057468064 -0.01687315 0.042614814
000190 ce e8 f1 bd d4 fe c5 bd 89 c0 55 3c 6c 45 77 be
       -0.11811982 -0.09667745 0.013046392 -0.24147576
0001a0 5e d6 2f bd 20 ff 3d 3c b2 89 8f 3d 3e c8 cb bd
       -0.042929046 0.011596471 0.07008685 -0.099503025
0001b0 c0 e1 5b 3d f9 34 cd bc 37 89 59 bd 6f 85 28 3d
       0.05368209 -0.025049673 -0.053109374 0.041142877
0001c0 fe f6 dd bd 60 dc d0 3c 92 e8 85 3d fc 57 6a bb
       -0.10838126 0.025495708 0.065385 -0.003575801
0001d0 cb ca 53 3d 25 ab ed bd 2b 42 4e 3c 09 f3 4c 3d
       0.05170707 -0.11604909 0.012589018 0.050036464
0001e0 34 07 2b be 8a 0a d1 3d 17 4c 82 bd 7e f2 0e bd
       -0.16701967 0.10207088 -0.06362169 -0.034899227
0001f0 d9 e7 57 bd 2f 39 0a be 27 45 8b 3d 4e 84 90 bd
       -0.05271134 -0.13498376 0.06800299 -0.07056485
000200 2c 8a 45 bd c7 0e 27 be 76 9b e1 bd 5a 84 7e bd
       -0.048227474 -0.16314231 -0.1101598 -0.06213794
000210 58 74 50 3c c6 42 14 bd 25 22 d4 bd 91 98 61 3c
       0.012723051 -0.036196493 -0.10358075 0.013769285
000220 39 95 59 3d 20 54 ab 3c 0a 2b 05 be e4 d8 bd 3c
       0.053120825 0.020914137 -0.130047 0.02317471
000230 37 c6 20 bd 1b c6 1c bd 15 5c de bc c9 2e 7b 3d
       -0.039251532 -0.038274866 -0.027143518 0.061323915
000240 fe 92 ab bd 00 6e 17 3d e2 19 28 bd d5 48 1c bd
       -0.08377646 0.03697014 -0.04104031 -0.038155396
000250 29 59 b3 3b 58 7e 30 3c 1f bb 68 bd 47 22 14 3c
       0.005473275 0.01077231 -0.056819078 0.0090413755
000260 a8 b7 46 bd bb c2 76 3d 51 79 8a bd ee 07 a8 3c
       -0.048514992 0.060244303 -0.067614205 0.020511594
000270 f6 78 a5 3d 46 36 ac bd da 81 03 be 8e 04 8b bd
       0.08079712 -0.08408789 -0.12842503 -0.06787978
000280 69 33 01 3d a7 2a f6 bd 6a 6a a3 bd 13 0c a8 3c
       0.03154317 -0.12019854 -0.07979281 0.02051357
000290 8e 10 5d bd 81 a8 67 bd 82 1d 63 bc 07 ab 69 3d
       -0.053970866 -0.056557182 -0.013862016 0.05704787
0002a0 f0 c8 96 bd 25 ca b5 3d 2c 84 14 bc b7 e3 03 be
       -0.073625445 0.08876447 -0.009064715 -0.12879835
0002b0 3b 33 d4 3c 41 fc c9 bb ca c1 f7 3c b9 c7 bd 3c
       0.025903335 -0.006164104 0.030243773 0.023166524
0002c0 43 f3 92 3d a7 7e d0 bc b0 51 8a bd dd cc 5a bc
       0.07175305 -0.025451018 -0.06753862 -0.013354507
0002d0 03 37 62 3d 42 7a 6e bd 3a e9 54 3d 08 31 50 ba
       0.055228245 -0.058222063 0.051980235 -0.00079418765
0002e0 34 c8 53 3c 8d a1 80 3d 4e ef 12 3c 0d a8 03 3d
       0.01292615 0.06280813 0.0089681875 0.032142688
0002f0 7c 59 10 bd d6 bd c7 bd 18 be 61 bd 7e 82 ab bc
       -0.03524159 -0.09753005 -0.05511293 -0.020936247
000300 ff e2 4f be b4 5c 16 be dd b7 18 bc 8e b9 cd bd
       -0.20301436 -0.14683801 -0.00932118 -0.100451574
000310 69 3c 6d 3b 90 15 8e 3b 80 6f e6 3d 83 47 04 be
       0.0036199337 0.0043360665 0.11251736 -0.12917905
000320 17 e9 61 bd ce e4 91 bd b3 7c 38 3d 26 3d 78 3d
       -0.055153932 -0.07123719 0.045040797 0.06060519
000330 29 7c 16 3d e4 b0 27 be 11 c8 0a be 1e 39 8a 3e
       0.036739502 -0.16376072 -0.13552882 0.26996702
000340 58 40 da bd 6f 13 87 ba 57 14 20 be 54 ad 06 be
       -0.10656804 -0.0010305474 -0.15632759 -0.13152057
000350 a9 97 a5 bc f2 42 d2 3c 02 11 23 bd a6 ee 05 bd
       -0.020213919 0.025666688 -0.03981114 -0.032698296
000360 5a 26 0c 3e 22 a2 65 3c 02 50 a7 bd 28 67 8f 3d
       0.13686505 0.014015706 -0.08169557 0.07002097
000370 32 a7 f0 3c 07 9a 9b bc 9c 1d 2f bd 58 f1 f6 bd
       0.0293766 -0.018994344 -0.042752847 -0.120577514
000380 3c b3 42 bd a8 03 85 3b 53 4a 05 3e a8 ea 4b 3d
       -0.047534212 0.0040592737 0.13016634 0.049784333
000390 9f 1e cd bc a7 75 c8 bd 5e 69 10 3d b4 2d c9 bd
       -0.025039015 -0.097880654 0.035256736 -0.0982317
0003a0 83 5f da bc d7 87 a9 bc d6 88 3c bc b2 d9 c7 bd
       -0.026656872 -0.020694656 -0.011507234 -0.09758319
0003b0 58 df 8e 3d c6 86 73 be 14 08 90 3c 3d e6 90 3c
       0.06976193 -0.2378188 0.017581977 0.017687911
0003c0 22 e3 30 3d 86 4b ee bd db 66 99 bd 5a db cc 3c
       0.04318536 -0.11635499 -0.07490321 0.025006939
0003d0 8d 4a 46 be ec fa 51 3d a4 d5 13 be 04 ba 86 3d
       -0.19364376 0.05126469 -0.14436966 0.065784484
0003e0 6c 7a e9 3d 20 fc ae bb 77 b7 d4 bd 26 bf 0a be
       0.11400303 -0.0053401142 -0.10386556 -0.1354948
0003f0 5a 17 6f bd ee 3c f1 bd 51 b6 f0 3c 33 ff d0 bd
       -0.05837188 -0.117791995 0.02938381 -0.102049254

bias f4 [32]
000000 fb f9 ce 3c 14 c2 41 bb f1 15 3d 3d 29 3d 57 3d
       0.025265684 -0.0029565142 0.046163503 0.05254856
000010 f1 48 79 3d 3e 62 3b 3c 48 6d 63 3d 97 4c 02 bd
       0.060860578 0.011436997 0.05552414 -0.031811323
000020 b1 d6 63 bc c0 30 08 3d de 37 37 bd a9 ee f8 3c
       -0.013906167 0.033249617 -0.044731013 0.03038724
000030 c3 dc e7 bc 53 d2 02 bd 81 a1 cb bb 1f 94 3d 3d
       -0.02830351 -0.031938862 -0.006214321 0.046283837
000040 47 6b 3f 3d 90 4a ac bc 66 18 4c bc 16 48 75 bd
       0.046733167 -0.021031648 -0.012456989 -0.0598832
000050 f1 e8 1a 3d 7a c9 40 3b bb 42 0d bd 09 d9 fb bc
       0.037819806 0.0029416964 -0.034487467 -0.030743139
000060 4b 85 b7 3c 9c c3 2e 3c 04 f6 9c bc c8 e5 95 3c
       0.022402426 0.010666754 -0.019160278 0.018298045
000070 e1 7b 24 3d 84 e3 49 3c 7c e7 68 3d c6 e0 7c bd
       0.040157203 0.01232231 0.056861386 -0.0617378

weight f4 [1, 32]
000000 12 ba 77 3e 62 86 d5 3d ff f2 4c be ff 49 18 be
       0.24192074 0.10426022 -0.2001457 -0.14871977
000010 5f 81 14 be d8 7e da 3c 97 af e0 bd 89 2d ee bd
       -0.14502476 0.026671812 -0.10970991 -0.11629779
000020 d7 cf 58 be 9b 5b 82 3e 5a 8a 12 3e 45 7f 49 be
       -0.21173035 0.25460514 0.1431059 -0.19677456
000030 5e 3e 2a 3e ed 96 c8 3e 37 f4 57 3e fe a9 b0 bd
       0.16625354 0.39177647 0.21089254 -0.086261734
000040 f0 70 02 3e d7 f3 8a 3e ac 41 23 3d f4 ab 60 3e
       0.12738395 0.2713916 0.03985755 0.21940595
000050 43 7e ac bd d7 43 6c 3e 37 1c 90 bd 2f 46 6c 3e
       -0.0842252 0.23072754 -0.070366316 0.23073648
000060 5e 0e 7f 3e 36 8d 90 3e 84 8e 18 be 97 5b 01 3e
       0.24907824 0.28232735 -0.14898115 0.12632595
000070 ca 48 4b 3e 6e 60 3d be ba 1e 35 be f4 6d ab 3d
       0.19851986 -0.18493816 -0.17687503 0.08370581

exp_avg f4 [64, 20]
000000 89 c2 ef 38 0a 6f 89 38 97 d5 ae b8 fc 39 89 36
       0.00011432643 6.553352e-05 -8.336751e-05 4.0896684e-06
000010 23 85 a3 38 f7 33 bd 38 1a fc 52 b8 6c f8 8c 38
       7.797244e-05 9.0219015e-05 -5.030269e-05 6.7219924e-05
000020 de dd 4d b7 7f 33 ee b8 74 05 18 b8 b1 9f 57 37
       -1.227061e-05 -0.00011358316 -3.6244703e-05 1.285218e-05
000030 b5 cc e6 b7 79 e0 f9 38 b4 03 7a 38 75 6f 96 37
       -2.751346e-05 0.000119150565 5.9608094e-05 1.7933295e-05
000040 de 64 82 36 3c 28 f2 b7 65 07 32 b8 8b c6 00 38
       3.8860444e-06 -2.8867384e-05 -4.2445394e-05 3.0702486e-05
000050 37 6b 63 b9 bc e5 b6 b9 00 0a 12 b8 fc 94 a9 b9
       -0.00021688348 -0.0003488491 -3.4818426e-05 -0.00032345194
000060 37 7c df b8 54 a8 dd 38 24 2b 38 b9 cd 54 90 b9
       -0.000106566054 0.00010569455 -0.00017563679 -0.00027529002
000070 e0 b0 13 b9 93 9f e7 b8 b1 02 b8 b9 fb 92 1f b9
       -0.00014084904 -0.000110446614 -0.0003509722 -0.00015218176
000080 ea ee 83 b8 7b 0c e5 b8 c9 7b 41 b9 65 c3 0a 37
       -6.291068e-05 -0.000109218956 -0.00018452028 8.270935e-06
000090 a6 c1 00 b9 4d a1 c9 39 83 23 58 b9 cd 03 38 ba
       -0.00012279171 0.00038457886 -0.00020612594 -0.00070196093
0000a0 62 a6 fc b8 dc 0f ea b8 bf ae b6 b9 f0 bb b1 b9
       -0.000120472876 -0.000111609435 -0.0003484394 -0.00033900095
0000b0 b6 80 0b b9 13 9b da b8 36 e6 e6 b9 e4 b4 20 b9
       -0.00013304022 -0.00010423935 -0.0004404054 -0.00015326176
0000c0 55 53 23 b9 df c6 b4 b9 f4 dc c5 b9 a9 1e 4b b9
       -0.00015575935 -0.00034480446 -0.0003773939 -0.0001937101
0000d0 84 22 a3 b9 39 3e 6c b9 d4 84 1d b9 81 6d 49 b9
       -0.000311155 -0.00022529894 -0.00015022169 -0.00019209647
0000e0 e4 53 88 b9 36 fd 8d b9 fe e7 75 b9 c7 1b f7 b9
       -0.00026002445 -0.00027082273 -0.00023451445 -0.00047132207
0000f0 7b 53 36 3a d6 17 4b 3a 7a 1d 0b 3a e6 36 4d 3a
       0.00069551886 0.0007747387 0.00053068215 0.000782831
000100 13 cd 41 3a 94 93 e8 39 81 b2 7f 3a f2 a9 6d 3a
       0.0007392924 0.00044360443 0.0009754077 0.00090661563
000110 e4 bc 3f 3a 3e a9 f1 39 88 1d 64 3a 66 39 d4 39
       0.00073142187 0.00046093197 0.000870191 0.00040478556
000120 c9 f3 8e 3a ed 75 1d 3a 5c b5 3e 3a ef dd cb 39
       0.0010906394 0.0006006647 0.00072749495 0.0003888453
000130 2b 2b 3d 3a e3 57 ba 39 d6 a8 29 3a e3 10 71 3a
       0.00072162104 0.00035542165 0.0006471997 0.0009195937
000140 fd 27 68 b8 57 59 04 b9 4a ed 27 b9 b0 e4 a6 b9
       -5.5350352e-05 -0.00012621783 -0.00016014758 -0.00031832373
000150 0a 24 58 b9 01 64 07 b9 a3 ba d9 b8 b5 a9 8a b9
       -0.00020612791 -0.00012911858 -0.0001038213 -0.00026447853
000160 2c 70 4e b9 50 dc 01 b9 d1 95 83 b9 73 36 70 38
       -0.00019687478 -0.00012384471 -0.0002509789 5.727117e-05
000170 9a 2b 5f b9 49 9f b6 b8 f2 c3 ee 37 2f b3 22 b9
       -0.0002128318 -8.7081055e-05 2.8463055e-05 -0.00015516275
000180 45 de 32 b9 9e 09 bd b9 4c c5 82 b9 db aa 3d b9
       -0.00017058205 -0.00036056055 -0.0002494253 -0.00018088093
000190 4a 69 31 b9 40 85 32 38 88 b6 1e b9 09 35 2b b8
       -0.00016919259 4.2562606e-05 -0.00015136052 -4.081897e-05
0001a0 9a 93 e2 b8 c7 88 cf b8 fa 43 f8 b7 07 a7 59 b9
       -0.00010804013 -9.896006e-05 -2.9595558e-05 -0.00020756955
0001b0 23 a6 71 b9 9a a7 93 37 52 87 38 36 7f c4 94 b8
       -0.00023045442 1.7601811e-05 2.7496903e-06 -7.09379e-05
0001c0 7b 48 96 b7 d2 9a a7 b7 cf 73 84 b8 6f e0 c8 b8
       -1.7915145e-05 -1.9980045e-05 -6.3158215e-05 -9.578547e-05
0001d0 23 94 fe b8 a3 86 ca b7 0a b8 05 b8 11 82 f3 38
       -0.000121392564 -2.4142972e-05 -3.188107e-05 0.0001161137
0001e0 85 4f a4 39 e0 5f c1 39 aa 5f 98 39 65 f3 14 3a
       0.00031339764 0.0003688326 0.00029062974 0.00056820206
0001f0 f3 2b dc 38 6c 3b 82 39 8f ed ae 39 ac d8 b2 38
       0.00010498604 0.00024839805 0.0003336486 8.52806e-05
000200 12 fd 9a 38 4a ba cc 39 91 4c db 39 8c f6 7f 38
       7.39043e-05 0.00039048708 0.00041827981 6.1026352e-05
000210 f5 ea af 39 2f 8f 64 39 16 54 d9 38 6e f4 bd 39
       0.00033553658 0.00021797114 0.000103630286 0.00036231003
000220 cf cb a5 39 63 66 91 b8 fc a2 4d 38 92 ed 10 3a
       0.00031623102 -6.93321e-05 4.90276e-05 0.0005528565
000230 78 20 50 37 1b 59 6b b8 3a e7 9e 37 d8 3e 0c 39
       1.2405326e-05 -5.6111352e-05 1.8942741e-05 0.00013374852
000240 3f c6 7f 39 11 97 53 38 2b 8d 9b 38 32 9b c1 37
       0.00024392547 5.044701e-05 7.4172705e-05 2.3079661e-05
000250 d1 4c 1f 38 8d ac 85 37 73 70 66 b6 fc ac dc 38
       3.7980095e-05 1.5935186e-05 -3.4338125e-06 0.00010522638
000260 39 60 92 38 ee ad 25 38 cd f7 ba 36 de 9d 30 39
       6.9797454e-05 3.950105e-05 5.5720798e-06 0.00016843478
000270 e7 bb 02 39 95 c6 3d 37 11 8c 3a 39 e1 8b f2 38
       0.00012467765 1.1311514e-05 0.00017790521 0.00011565514
000280 c6 f1 35 b7 80 8d 31 38 17 88 31 38 c9 e9 f0 b8
       -1.0844733e-05 4.233187e-05 4.2326832e-05 -0.00011487638
000290 e5 2b 96 38 fb 4f 9b 38 ea ae a3 38 e0 d2 a8 b7
       7.1607334e-05 7.4058735e-05 7.805026e-05 -2.0125357e-05
0002a0 a7 d3 ae b7 8e 2e 2d 37 8d dc e5 38 3f f2 a7 b6
       -2.0840975e-05 1.0322443e-05 0.00010960652 -5.005189e-06
0002b0 86 2f e0 b6 ae b6 07 38 86 11 12 38 5b 36 fc b7
       -6.6812527e-06 3.2356642e-05 3.4825433e-05 -3.0066052e-05
0002c0 d4 55 b9 b8 06 1d 4a b8 ea cb 14 b8 ec 68 21 39
       -8.837474e-05 -4.8187583e-05 -3.547586e-05 0.00015393243
0002d0 5b e9 52 39 c0 2e b1 39 10 3d 93 39 fc de ae 38
       0.00020114092 0.00033794902 0.0002808352 8.3385006e-05
0002e0 dc de d0 39 f6 dd 92 39 46 1a d9 39 97 17 12 3a
       0.00039838895 0.00028012664 0.0004140904 0.0005572973
0002f0 96 68 7a 39 10 06 2c 39 0e 27 aa 39 e4 c7 c4 38
       0.00023880819 0.00016405457 0.00032454025 9.383241e-05
000300 b5 a9 08 39 63 1d f7 38 c3 1c 37 39 f3 36 69 38
       0.00013033191 0.000117833515 0.00017462955 5.5602704e-05
000310 73 27 84 39 4d 0f d1 38 5a a8 4c 39 15 5a 71 39
       0.00025206394 9.9687466e-05 0.00019517672 0.00023017109
000320 13 d1 b5 b8 cf 23 f2 b8 46 f6 bf b7 24 3d 5d 39
       -8.669696e-05 -0.00011546129 -2.2883654e-05 0.00021098979
000330 87 34 43 b8 98 78 3a b9 4c a7 2e b7 50 64 36 b9
       -4.6540543e-05 -0.00017783267 -1.041016e-05 -0.00017394242
000340 0b 93 b4 b7 1a 69 84 39 da dd 52 38 48 ab f5 38
       -2.1526144e-05 0.0002525531 5.0274517e-05 0.00011714414
000350 9a e6 0a 38 5b 4f 97 b8 2a cc a6 37 32 e0 85 b7
       3.311653e-05 -7.215022e-05 1.9883813e-05 -1.5959235e-05
000360 20 c4 4b b8 38 1a 56 39 33 bc d4 38 f1 eb 14 38
       -4.8581627e-05 0.00020418398 0.000101440026 3.5505687e-05
000370 1f 35 34 3a 13 76 3a 3a 1d b4 0e 3a 08 37 49 3a
       0.0006874371 0.00071129313 0.0005443709 0.0007675742
000380 37 52 b0 39 78 42 4e 39 d8 aa 3a 3a cc 29 0f 3a
       0.0003363059 0.00019670452 0.00071207946 0.00054612453
000390 e1 9e 03 3a bb bb 0a 3a 00 04 fe 39 2f dc ee 39
       0.0005020928 0.0005292256 0.00048449636 0.00045558947
0003a0 60 9d 3e 3a 99 b0 04 3a 75 7d f0 39 b7 f2 f2 39
       0.00072713755 0.00050617155 0.0004586984 0.00046338674
0003b0 98 b6 1c 3a 0f 84 a6 39 b9 09 e8 39 93 2c 46 3a
       0.00059781363 0.0003176038 0.00044257732 0.00075597427
0003c0 86 29 f9 b8 16 93 db b8 d8 ba e3 b8 d6 ec 31 b9
       -0.000118809796 -0.00010470131 -0.00010859006 -0.00016968264
0003d0 1a a6 0a b9 57 6a 15 b8 48 01 3e b9 15 db 14 b9
       -0.00013222583 -3.5623405e-05 -0.0001812029 -0.00014195994
0003e0 6d ea a8 b8 b1 85 b0 b8 86 0b 06 b9 78 0c 00 b9
       -8.0545295e-05 -8.417236e-05 -0.00012783529 -0.00012211676
0003f0 85 ad 36 b9 24 af 31 b8 61 c3 a3 b8 c1 c1 e5 b8
       -0.00017421514 -4.23632e-05 -7.808838e-05 -0.000109556604

exp_avg_sq f4 [64, 20]
000000 27 be 96 34 ca 54 8b 34 bd 42 d2 34 56 d2 88 34
       2.807803e-07 2.595246e-07 3.9164107e-07 2.5485014e-07
000010 bc 46 00 35 f6 58 f6 34 a5 9f a4 34 2c 04 2d 35
       4.778665e-07 4.5885798e-07 3.0663537e-07 6.4453593e-07
000020 ad 73 7d 34 15 08 df 34 57 bc d1 34 e6 07 3a 34
       2.3604544e-07 4.1542867e-07 3.906632e-07 1.7325473e-07
000030 a8 f9 33 34 f1 81 41 34 60 b1 28 34 1b 78 48 34
       1.6761499e-07 1.8021798e-07 1.5710748e-07 1.8670146e-07
000040 5d 19 4b 34 ef 2a d0 34 1d a6 dc 34 46 96 0a 35
       1.8915075e-07 3.8774257e-07 4.1099057e-07 5.162768e-07
000050 88 33 b4 36 9c ba bd 37 62 63 64 37 15 9b 5a 36
       5.370417e-06 2.2617452e-05 1.3612998e-05 3.25748e-06
000060 73 17 51 37 df a9 20 37 97 1c 60 37 0d 6a 01 38
       1.24628305e-05 9.576294e-06 1.3358097e-05 3.0854764e-05
000070 bb 6b 5a 36 c2 a7 54 37 68 bd e5 37 b2 1f 9e 36
       3.2547239e-06 1.2675244e-05 2.7387126e-05 4.7124568e-06
000080 43 af 1a 37 dd 29 f3 36 9a 4c c0 36 38 14 0d 37
       9.219922e-06 7.246838e-06 5.7309635e-06 8.4089625e-06
000090 a3 5f fb 36 38 aa 15 37 8b e6 b3 36 72 60 7a 37
       7.4915165e-06 8.920724e-06 5.3614544e-06 1.4923617e-05
0000a0 aa a3 20 35 39 c9 68 35 09 5c 8a 35 28 e3 2f 35
       5.984281e-07 8.671955e-07 1.0308587e-06 6.5523136e-07
0000b0 de 95 4e 35 a9 42 70 35 23 9e ee 35 ce 0a 0e 36
       7.6959066e-07 8.950397e-07 1.7778406e-06 2.1165938e-06
0000c0 20 98 44 35 2e 62 a1 35 88 d6 1c 36 e5 2e 3f 35
       7.323706e-07 1.2024009e-06 2.3370685e-06 7.1221285e-07
0000d0 45 ca 3a 35 3a a7 4f 35 6d f6 32 35 d1 2c 3a 35
       6.958474e-07 7.7356856e-07 6.6668764e-07 6.9355616e-07
0000e0 9f c7 4d 35 a2 c2 6b 35 70 74 74 35 45 3b 0e 36
       7.665894e-07 8.782755e-07 9.106652e-07 2.1194148e-06
0000f0 60 0a 56 37 70 f0 86 37 d5 3d 48 37 5a 82 44 37
       1.275781e-05 1.6086007e-05 1.1935325e-05 1.171286e-05
000100 ef ef de 37 e1 14 83 37 a7 cf a7 37 05 d2 1c 38
       2.657619e-05 1.562614e-05 2.0004647e-05 3.7388894e-05
000110 e0 44 23 37 f3 58 6a 37 b5 52 c0 37 c0 98 3a 37
       9.731593e-06 1.3968197e-05 2.2926697e-05 1.1122029e-05
000120 b0 fd 50 37 8c 30 51 37 52 2c 4d 37 92 0f 56 37
       1.2456832e-05 1.2468674e-05 1.2229271e-05 1.2759019e-05
000130 6e 31 58 37 5b 76 5b 37 18 ea 5f 37 63 de 9d 37
       1.2886112e-05 1.3080974e-05 1.334634e-05 1.8819415e-05
000140 45 61 b3 34 d7 60 71 34 e0 80 63 34 2b e5 9b 34
       3.341212e-07 2.2480104e-07 2.1187907e-07 2.9037741e-07
000150 f0 80 df 34 04 08 ff 34 9f cf f2 34 71 59 15 35
       4.16308e-07 4.7503283e-07 4.5227077e-07 5.563698e-07
000160 04 78 a7 34 e3 a4 1c 34 5c 42 61 34 93 6f b0 33
       3.1193497e-07 1.4588618e-07 2.09789e-07 8.215934e-08
000170 55 ec c5 34 62 d4 95 34 61 92 0c 34 aa 27 79 34
       3.6866064e-07 2.7907942e-07 1.3091768e-07 2.3204362e-07
000180 b1 e2 c0 33 b1 bd 8d 34 ec c8 ad 34 d9 09 ff 34
       8.9819316e-08 2.6401315e-07 3.236995e-07 4.7504616e-07
000190 be b4 26 36 01 d8 fb 35 d7 db e2 35 2a 00 e0 35
       2.4841133e-06 1.8763823e-06 1.6902294e-06 1.6689348e-06
0001a0 b0 3a 0a 36 19 bc dc 35 ca 28 0c 36 ff fb 38 36
       2.0597763e-06 1.6446021e-06 2.0885368e-06 2.7564818e-06
0001b0 65 ff c7 35 5d 2a f8 35 e9 2a 94 35 ac 45 d7 35
       1.4900985e-06 1.8489769e-06 1.1039348e-06 1.6039025e-06
0001c0 47 bd 0b 36 e8 c4 c6 35 fb 0b 03 36 bb f8 00 36
       2.0822788e-06 1.4809457e-06 1.9527495e-06 1.9218267e-06
0001d0 71 73 08 36 2c 56 d0 35 dc 46 df 35 86 9b b6 35
       2.0332775e-06 1.5522287e-06 1.6635418e-06 1.360532e-06
0001e0 bf 17 70 36 76 8f 39 37 b0 d8 7f 36 21 78 4c 36
       3.577661e-06 1.1060261e-05 3.812409e-06 3.0468293e-06
0001f0 6e bb 9f 35 c5 41 bc 36 b0 15 03 37 64 0b de 36
       1.1900972e-06 5.610493e-06 7.813258e-06 6.6174416e-06
000200 60 a9 20 36 76 10 f3 36 16 d6 44 37 a7 49 55 36
       2.3940447e-06 7.2438806e-06 1.1732356e-05 3.1782345e-06
000210 1b 07 3a 36 f5 9a 3f 36 5c c1 6b 36 22 58 7b 36
       2.7720296e-06 2.8551415e-06 3.5130279e-06 3.7453215e-06
000220 84 6a 68 36 38 12 70 36 d3 28 53 36 b2 1a e3 36
       3.4632694e-06 3.5773392e-06 3.1465213e-06 6.768235e-06
000230 22 41 8f 33 7f d9 b8 34 2b e6 d4 31 f4 aa 97 34
       6.670804e-08 3.443092e-07 6.196179e-09 2.8250327e-07
000240 82 eb 56 34 04 30 9c 34 18 38 a4 34 e7 43 cc 34
       2.001598e-07 2.90922e-07 3.0588194e-07 3.8047367e-07
000250 b6 2a 9e 33 1d f8 b9 34 b9 43 07 35 1c cf 0b 34
       7.3652174e-08 3.4639461e-07 5.038997e-07 1.302073e-07
000260 90 5f 65 33 16 8a 26 33 a1 d3 2d 33 c2 ca ba 33
       5.340513e-08 3.8775475e-08 4.0472177e-08 8.6981814e-08
000270 4b 0f 05 34 f6 3a 76 33 5a a8 87 34 5d 52 d2 33
       1.2392154e-07 5.7329963e-08 2.52682e-07 9.793869e-08
000280 9c 57 56 35 b4 34 cd 35 5a 03 4f 35 58 9a 16 35
       7.98487e-07 1.5289029e-06 7.7118386e-07 5.6103954e-07
000290 29 93 8f 35 09 1f 9f 35 0a 56 aa 35 2f eb 90 35
       1.069716e-06 1.1855456e-06 1.2691028e-06 1.0797283e-06
0002a0 e7 d0 32 35 ff 33 80 35 94 dc 97 35 24 5e 42 35
       6.661416e-07 9.551876e-07 1.1314573e-06 7.2407624e-07
0002b0 b6 2a 53 35 f3 12 41 35 92 05 4b 35 5e 44 41 35
       7.866578e-07 7.192568e-07 7.56315e-07 7.199759e-07
0002c0 36 60 2c 35 55 b4 35 35 ce f6 47 35 a3 6f 93 35
       6.4215e-07 6.769017e-07 7.4492425e-07 1.0984844e-06
0002d0 09 07 83 35 61 4e 84 35 29 98 89 35 38 54 5e 35
       9.762308e-07 9.857578e-07 1.025158e-06 8.2824e-07
0002e0 db 49 3e 36 fb 86 d3 35 88 1f 0b 36 32 db 24 36
       2.8355196e-06 1.576001e-06 2.0730968e-06 2.4565493e-06
0002f0 a6 ad 80 35 10 48 51 35 92 28 88 35 e7 5a 71 35
       9.587282e-07 7.796343e-07 1.0144597e-06 8.9911777e-07
000300 fc b4 68 35 84 91 a9 35 a1 b2 7a 35 97 4d 87 35
       8.66901e-07 1.2633832e-06 9.3392197e-07 1.0080865e-06
000310 e3 ad 45 35 ed 35 48 35 02 ec 8c 35 5d 94 c6 35
       7.364126e-07 7.458428e-07 1.04995e-06 1.4795329e-06
000320 0b e4 96 35 3e e1 a9 35 6c 5e 8d 35 03 73 5a 35
       1.124224e-06 1.2657035e-06 1.0532799e-06 8.137869e-07
000330 81 40 e2 35 8e 8c a3 35 cd 50 8c 35 e2 24 ee 35
       1.6857085e-06 1.2185353e-06 1.0454329e-06 1.7743116e-06
000340 e5 6b 49 35 cc 43 95 35 85 9a b7 34 33 29 c5 35
       7.503534e-07 1.1121097e-06 3.4198834e-07 1.4689634e-06
000350 0e 76 7c 35 4a 5f a6 35 d3 9e a9 35 05 c0 92 35
       9.404911e-07 1.2395697e-06 1.2637705e-06 1.0933733e-06
000360 75 77 81 35 ff 32 95 35 bb a1 81 35 1d 63 b6 35
       9.646016e-07 1.1116207e-06 9.658319e-07 1.3588902e-06
000370 93 88 35 37 52 21 b4 37 4f 79 26 37 51 4b 26 37
       1.0820239e-05 2.1473188e-05 9.922615e-06 9.911907e-06
000380 5b 94 a5 37 b7 72 94 37 30 02 a0 37 8b 0d 25 38
       1.9738616e-05 1.7696393e-05 1.9074505e-05 3.935168e-05
000390 88 0a 09 37 c9 39 61 37 00 df ff 37 a6 65 00 37
       8.168288e-06 1.3424499e-05 3.0502211e-05 7.653061e-06
0003a0 fb 54 24 37 f6 4a 1c 37 4b 2a 1e 37 58 ed 53 37
       9.794948e-06 9.315778e-06 9.427381e-06 1.2631841e-05
0003b0 69 f4 31 37 a1 4c 55 37 62 bf 79 37 3d f8 87 37
       1.0606928e-05 1.2713631e-05 1.4886116e-05 1.6208849e-05
0003c0 a0 03 96 34 fa d6 03 35 ea a4 e8 34 57 fc 17 34
       2.7942315e-07 4.9114135e-07 4.3333358e-07 1.4154772e-07
0003d0 49 4b 64 34 05 a8 df 33 89 a6 4b 35 1d 05 51 35
       2.1261543e-07 1.0414809e-07 7.5865734e-07 7.786601e-07
0003e0 6c 7c 61 34 4d 07 56 34 49 09 40 35 a4 6e 8b 34
       2.1000022e-07 1.9932959e-07 7.1539085e-07 2.597127e-07
0003f0 32 65 53 34 23 5d e1 33 84 fa 26 34 0a 98 17 34
       1.9687721e-07 1.04943204e-07 1.5551092e-07 1.4118282e-07

exp_avg f4 [64]
000000 5b 59 f8 b7 32 69 c6 b9 82 ae de b9 4e 7f 88 3a
       -2.9605513e-05 -0.0003784388 -0.00042473158 0.0010413916
000010 70 81 85 b9 22 9b 9c b8 65 c7 fd 39 53 e6 75 36
       -0.00025464175 -7.4675554e-05 0.0004840448 3.6641911e-06
000020 0d b7 d2 37 b5 f4 ef 39 76 e1 9b b7 a3 3e 42 3a
       2.511919e-05 0.00045767953 -1.8582428e-05 0.00074098463
000030 88 ad 28 b9 90 5f da b9 9d 34 9d 38 c0 e2 8c 3a
       -0.00016086374 -0.000416514 7.4961434e-05 0.0010748729
000040 a0 62 52 ba 9b bd 45 3a d8 13 97 3a 0f ab 27 ba
       -0.00080255605 0.0007543207 0.00115263 -0.0006396034
000050 af c7 e0 b9 03 5c 1e 3a 28 6c dc b9 5a 58 02 b9
       -0.00042873385 0.00060409325 -0.00042042253 -0.0001243068
000060 84 50 86 b9 a6 a4 f1 b9 4c 51 7a b9 c4 31 1c b8
       -0.0002561846 -0.00046089775 -0.00023872143 -3.7239646e-05
000070 c2 cc 88 39 49 7e 36 3a 77 2b e5 b9 96 73 fe b8
       0.00026092498 0.0006961567 -0.00043710668 -0.000121331934
000080 4c 38 26 38 67 a3 d2 b9 75 36 91 b9 0c 5a 39 ba
       3.9629915e-05 -0.00040176066 -0.0002769713 -0.0007070608
000090 b2 75 09 3a 86 01 f9 36 23 a3 90 ba 8c 46 17 3a
       0.0005243673 7.4209556e-06 -0.0011034947 0.0005770705
0000a0 70 6b 2b ba cd be 79 38 bd 95 6e b9 08 dd c6 b9
       -0.0006539142 5.9543923e-05 -0.0002275323 -0.00037930184
0000b0 63 24 45 3a 3b 31 85 39 28 5f 62 ba 74 2d 64 b9
       0.00075203757 0.00025404416 -0.0008635395 -0.00021760707
0000c0 da bc 8d 37 37 8f 1b b9 2d 07 1f 3a 85 d1 3c 39
       1.689645e-05 -0.00014835304 0.0006066438 0.00018007129
0000d0 ad f1 0c 38 58 e1 e3 39 f8 73 18 b9 46 e6 45 ba
       3.360368e-05 0.00043464708 -0.00014539051 -0.0007549267
0000e0 80 83 d3 b9 fa c0 ba 38 86 f2 6c 3a 82 69 db 38
       -0.0004034303 8.905116e-05 0.00090388244 0.00010462386
0000f0 bb d9 2e 3a a1 0d 42 b9 f4 97 83 b9 32 9a 5d 36
       0.00066700176 -0.00018506359 -0.0002509948 3.302132e-06
