published_data/SSA aerobic/final_models/bag_model_8.pkl (torch, 324837 bytes, 21 tensors)

weight f4 [64, 20]
00000000: 3ebe 0d3e ca85 05bd b483 83bd cb0e 3b3d
00000010: d145 f23d 5c52 1cbe 9679 833e fe7b 2d3e
00000020: 7964 9c3d 74a8 c2bd 2bb3 0ebe 3550 79bd
00000030: 1531 d23d 3733 20be c02d 1c3e 4ad3 c03d
00000040: e3fb 2b3e af1b e53c 187e f0bd f632 223b
00000050: ee6a abbd c42f a93d d197 f83d b51a 993c
00000060: 01fb bc3d bd9e e9bd f04e 063e 3f1b 0e3e
00000070: 7a09 89be 6b2a 313d 096b 22be 9a01 b8bd
00000080: 8840 18be 442f 153e b6c0 1a3c 25eb 96bb
00000090: 3e3e 41be 6143 dcbd 2e10 20be 6b41 3abe
000000a0: 4ae2 e33c e6e2 313e dbcd d23d 0ecd 163e
000000b0: 736b 25be 0b40 2abe 2ae0 5cbe 894e 10be
000000c0: b758 87bd 9acd 663e 7dce 2e3d f364 a43d
000000d0: 8499 f53d 51c7 8e3b 528b 15be af98 c1bd
000000e0: 5486 21be 22f1 463d 13f1 163e 40ea 543e
000000f0: 5e95 733e 8fff 5dbd 0480 e7bd 688c 293e
00000100: 311b fe3d c4df 4bbd 6abc 963d 6386 cb3d
00000110: 56e0 35be 7293 e23c 1f3e 573d 2187 07be
00000120: fdc3 553e 03da 563d 5aa5 0e3d 572a 0bbd
00000130: ebc6 febb ff1d 1b3d e4da ba3d e948 1abc
00000140: d0fc 043d d449 833e aa42 bcbd c8df e13c
00000150: 4e71 c33c cc18 34be 95ba d9bd 8a82 c8bd
00000160: ea52 883d 0b85 d93c b1ee 12be 8520 03be
00000170: 62ec 583e 6932 593e a4c0 93bd c22a b33c
00000180: 2b0a 6bbd f8ee 163e 462d 0bbe e32b 8a3d
00000190: 9bc8 493d 31c7 64bd 8b3b 1b3e ea53 163e
000001a0: 818d 643e 1bf6 603e 9a78 07be 5aa2 933d
000001b0: 883f fabc d90f 2dbe e401 9dbd efbe f83d
000001c0: 0ccf c83c 51d9 f4bd 9d93 88bd efeb e8bc
000001d0: 4fa9 88bb 7552 e8bd 3271 ee3d 4d6c d73c
000001e0: b6f2 e1bd a097 7b3e fabd 0d3e 064f 443d
000001f0: 9f6c 07bb bf42 9f3d 50c2 563e 9ad4 413e
00000200: adc2 0d3e 50d9 573e a7db 483d 5795 29be
00000210: a9f3 d2bc 6c65 c0bc 11ca dbbd e273 6d3d
00000220: 4896 28bd cec4 5a3e 6214 d1bd c4f2 673e
00000230: 9d0d 593e e630 673e 147e ed3d fb17 0b3e
00000240: d117 7fbb e3c1 623c 65dd 46be 4fc7 7abe
00000250: c6ba cbbd 5e04 d7bd 3769 fd3d e059 473e
00000260: c3f2 33be e38b ad3c fefb e43d 0a2e 42bd
00000270: fe8a 3f3e 625c a33d 73b5 b1bd 7013 053e
00000280: 9aaf 2f3e 7962 2ebe 571e 33be 521b 7d3c
00000290: eb88 f0bd 5ab6 02be a35b 883d 1d52 ad3d
000002a0: ac3b b43c 2726 603d 1bee e4bd 52c5 ef3c
000002b0: ebf1 10be b7be 9c3d 73ed 3a3e 328b 3c3d
000002c0: e4a5 16be 1d8b 5bbe 5fbe 46be 960e dd3d
000002d0: aa5f 3e3c d79c b13d 8f69 623d ad91 a23d
000002e0: 4a69 97bd 8123 af3d 39c2 9c3c aaa5 333e
000002f0: 0c9e e63d 2713 b83d d3e8 7a3e 7233 f0bd
00000300: 1ecd e7bb 7128 c63d e642 75bd 4845 493e
00000310: 174c 163e 45e7 a5bd 8e18 40be b7c3 2c3e
00000320: ec65 88bc 7a80 7cbe c76a 973d 721d 15be
00000330: 58a0 993c e5b5 e7bd 30db 2ebe b874 4dbe
00000340: afb3 e6bd cc84 163e f07d 453e e55e b63d
00000350: 9f53 18bd c093 473e 80eb 9cbc 6170 243d
00000360: 6130 b13d e2c4 70bd 37e1 e13d c05f c13d
00000370: f612 ee3d a8aa 723e 33ab 12bd a791 32bc
00000380: 47d8 bbbe 599f d63d 28a8 ce3d 25ff 25be
00000390: 29e9 aabd 934a 203e 91a9 403e b87d 26be
000003a0: 5dee 1d3e efe4 033d 1f0a e5bd c1ba bd3c
000003b0: ae41 3ebb 912a 9e3d 0f37 93ba 779e 26be
000003c0: d21b 673e 5dbc 95bd 90cc 573d ad9d 2dbd
000003d0: fcee 2b3e 5463 3abe 3345 543e 662a 8d3e
000003e0: c280 14bd 80fd 763e 325a 4ab9 99f4 e6bd
000003f0: f641 fcbd f2b9 bfbc 2742 d53d b119 2abe
0.13842103 -0.032598294 -0.06421605 0.045668405 0.11829723 -0.15265793 0.256787 0.1694183
0.07636351 -0.09504786 -0.13935535 -0.060867507 0.10263268 -0.15644537 0.15251827 0.094153
0.16795306 0.027967302 -0.117428005 0.0024749613 -0.083700046 0.08261064 0.12138332 0.018689493
0.09227563 -0.1140723 0.1311605 0.13877581 -0.26765043 0.043253344 -0.15861143 -0.089846805
-0.14868367 0.14568812 0.00944536 -0.004605668 -0.188714 -0.10755039 -0.15631172 -0.18189017
0.027817864 0.17371711 0.1029317 0.1472666 -0.1615427 -0.16625993 -0.21569887 -0.14092459
-0.06608718 0.22539368 0.04267739 0.08027067 0.119921714 0.0043572565 -0.14603928 -0.0945295
-0.15773898 0.048569806 0.147404 0.20792484 0.23787448 -0.054198798 -0.11303714 0.16557467
0.1240753 -0.049773946 0.07360156 0.099377416 -0.17761359 0.027658198 0.052549478 -0.13235141
0.20875545 0.052454006 0.03482566 -0.033975925 -0.0077751777 0.037870403 0.09123781 -0.009416797
0.032467663 0.25642264 -0.09192403 0.027572528 0.023857739 -0.17587584 -0.10631291 -0.09790523
0.066564396 0.026552698 -0.14348866 -0.12805374 0.21183923 0.21210636 -0.07214478 0.021870974
-0.057382744 0.14739597 -0.13591489 0.06746652 0.049263578 -0.055854026 0.15159433 0.14680448
0.22319604 0.21968882 -0.132296 0.072087005 -0.030547872 -0.16900577 -0.07666376 0.12145793
0.02451279 -0.11955512 -0.0666878 -0.028432814 -0.004170574 -0.113438524 0.11642684 0.026296759
-0.110326216 0.24569559 0.13842002 0.047926925 -0.0020664108 0.07776403 0.20972562 0.18928757
0.13843794 0.21078992 0.0490376 -0.16560875 -0.025750952 -0.023485862 -0.107319005 0.057971843
-0.041158944 0.21364138 -0.10208966 0.22651201 0.211966 0.22577247 0.11596313 0.13583367
-0.0038924108 0.0138401715 -0.19420393 -0.24490093 -0.099477336 -0.1049888 0.12373584 0.19467878
-0.17573075 0.021184867 0.11180876 -0.047407188 0.18705365 0.07976605 -0.08677187 0.12995696
0.1715683 -0.17029752 -0.17492042 0.015448408 -0.11744865 -0.12764874 0.06658103 0.084629275
0.02200111 0.054723885 -0.111782275 0.029268894 -0.14154784 0.076535635 0.18254642 0.046031184
-0.1471172 -0.21439786 -0.19408558 0.10793798 0.011619488 0.08672493 0.05527645 0.07937942
-0.07393129 0.08551694 0.019135581 0.17543665 0.11260614 0.08988028 0.24502878 -0.117285624
-0.0070740124 0.09675682 -0.059878252 0.19655335 0.14677463 -0.08100752 -0.18759367 0.16871534
-0.016650163 -0.24658385 0.07393413 -0.14562014 0.018753216 -0.113139905 -0.17075801 -0.20064056
-0.11264741 0.14699095 0.19286323 0.089048184 -0.037189122 0.19489956 -0.019155264 0.040146235
0.08651806 -0.058781512 0.110292844 0.09442091 0.1162471 0.23697913 -0.0358078 -0.010898984
-0.36688444 0.10479612 0.10090667 -0.16210611 -0.08345253 0.15653448 0.18814684 -0.16258895
0.1542296 0.03220075 -0.11183571 0.02316034 -0.0029030847 0.07722963 -0.0011231619 -0.16271387
0.22569206 -0.07311318 0.05268532 -0.0423867 0.16790384 -0.18201953 0.20729522 0.2757141
-0.036255606 0.2412014 -0.00019297822 -0.11277122 -0.123172686 -0.023404095 0.10413008 -0.16611363

bias f4 [64]
00000000: 6f3c a33d 44cc c5bd d721 ca3d cdd1 c5bd
00000010: 1b4f 293e 56b2 173d 0182 a6bc 2231 443e
00000020: fa52 e0bc 9541 dc3c cc3c 9d3d 46e3 44be
00000030: e044 53bd 4c3d d5bd de4b 39bd 032e e23b
00000040: 314b 84bd 6aa5 613d 78d1 27bd 91e9 1bbe
00000050: 08a3 503d f774 843e ecf4 91bd a6ed 713d
00000060: 0f92 5e3e c4e1 9a3d 7d99 023e ccf8 1e3d
00000070: 0b84 983d 3a82 dabd a5ef 0abe 4264 4f3e
00000080: ea14 ccbd f5a3 08bb 3606 8dbd 2bc9 b5bd
00000090: bf4d fa3c 29d7 4d3d d49d 37bd 619f 703e
000000a0: 7200 31be 932b 00be 5c31 2e3e 5ca8 723e
000000b0: 1f43 323d 8894 1d3e 2655 0a3e bb4a 8a3b
000000c0: dd4d 133e d4c7 14be b4d3 e93d 61ab 37be
000000d0: d4b2 0ebe c384 adbc a422 1c3c 5efd 763d
000000e0: 5cd3 0f3d a278 833c 9074 483e feec 3c3c
000000f0: d11e 47be 5426 a2bd 6c8e 4bbe f156 9a3b
0.07970511 -0.09658101 0.09869736 -0.09659157 0.16534083 0.03703531 -0.020325663 0.19159368
-0.027383316 0.02688674 0.07677612 -0.19227323 -0.051579356 -0.10412082 -0.04523837 0.0069024577
-0.06459654 0.05508939 -0.04097125 -0.15225817 0.05093673 0.25870487 -0.07126793 0.05906453
0.21735404 0.075625926 0.12753864 0.03881149 0.0744706 -0.1066937 -0.1356798 0.20253089
-0.099649265 -0.002084968 -0.0688595 -0.0887626 0.03055465 0.05025402 -0.04482825 0.23498298
-0.17285326 -0.12516622 0.17011017 0.23697037 0.043521043 0.15388691 0.13509044 0.0042203343
0.14385171 -0.14529353 0.11417332 -0.1793647 -0.13935405 -0.02118147 0.009529743 0.060300224
0.035113677 0.016048733 0.19575715 0.011531113 -0.1944535 -0.07917467 -0.19878548 0.0047100713

weight f4 [256, 64]
00000000: 47ca 843d 471d 44bd c83c d83c 1dce 84bd
00000010: f199 c0bd b018 a5bd 9e2d 72bd 6aad 073c
00000020: 5e43 993c fd83 b23d 196f 82bc 67f4 273e
00000030: 1305 1f3e 6020 05be 7bf0 0b3d a83f 2c3d
00000040: 1c36 38be ca9c 813d 24ed b33d 82bb babd
00000050: c418 8c3d d5ee 513b b362 603e 1bc7 c73d
00000060: 73fd c8bd e825 353d cff5 86bd 2b6f c43d
00000070: b926 fc3d b28d 0ebe aa5c cabd bdcf b1bd
00000080: 1a69 473d 435b 863d 0567 5cbd 55f2 2b3c
00000090: add1 1fbe e2d4 9ebd 3f80 0a3e 4861 26bd
000000a0: 2adc 2cbc 3259 81bd 2fe9 733c f068 753d
000000b0: 4ccb f13d 13e7 b5bd 75c0 933d da67 01bd
000000c0: 8fd5 f2bc 2026 0cbe e09b 27bb de99 a83d
000000d0: 7c4f cebc e665 99bd f768 013e 5a81 9e3b
000000e0: f2a1 41bd ee67 15bc 5731 be3d b4e9 fbbd
000000f0: 1a35 093e 6e48 a63d a718 7d3c 1c82 f5bc
00000100: 28c9 cbbc eeab eb3d ec56 58bc 824f efbb
00000110: 7f16 91bd e4bb 97bd abff 873d 5b0b bb3d
00000120: 7ccd db3d 8e06 c5bd 7a79 b83c 5925 56be
00000130: 8972 aabb 487a 243e 3155 33be e0c3 18bd
00000140: cb97 60be 2228 bf3c ccfa e73d 23d4 cfbd
00000150: 7d5b 443c eee7 c3bd 3bbb 58bc 06d3 7b3d
00000160: 2a96 a33d 663f 043e 3fbb 9abb 0621 97bd
00000170: 0479 993d 037c 3cbe 5dc3 05be 001a 443d
00000180: e72a 82bd 0ab5 663e 279c 4a3c 440c 80bd
00000190: 5524 c73d 507f 9fbd 8cd5 b1bd 7f07 2fbd
000001a0: 10bb 2bbd 284d 28bc 521c 6cbc 5e82 05be
000001b0: c493 973d 939a d9bd 5ff8 443e 6726 edbd
000001c0: eccd 33bc b326 1d3e 8c11 9fbd ad08 c3bd
000001d0: 34ee 853c f915 e43d 7084 17be 6b13 c5bd
000001e0: 83e8 0b3e 274d b5bc ed84 9f3c 52e3 15be
000001f0: b0db 7dbd 41f6 6cbd c2bf 8c3d 6f93 3dbd
00000200: ed66 4e3d 8beb 78bd 2e5e 473d 6ab4 9cbd
00000210: ae3c 69bc 7e9e f33d 0997 6cbd b83f cc3d
00000220: b109 973d 9037 82bd 9b8d 02be 96c4 883d
00000230: 01ff eabd 9aa8 17be 85e7 ebba ac8c 1a3c
00000240: 1bd6 58bd 1538 643d 5ec6 d1bd a13c c03c
00000250: d82e 913d 97b4 07be afb9 97bd 542e bdbd
00000260: 1795 603d f801 febc 725f 2c3b f5fb fcbd
00000270: ff29 cdbd 8cdf 94bd 8594 c7bc 2e67 503b
00000280: be41 c0bc 79ab 1a3d 909e ed3d 82f6 ad3c
00000290: 7ee3 abbd 4b14 84bd c47a 1dbe 213b 3d3d
000002a0: 8b97 dc3c 4db0 f13c dd63 123d 7016 b93d
000002b0: 600a d53d 99d1 b9bd 2b13 e3bb f093 1ebe
000002c0: 7985 6a3d 5b73 21be d5c2 eabd 394b b5bd
000002d0: a292 1abc 913f 503d cd82 f4bd 3fb6 76bd
000002e0: 7b3e 1abe e912 1b3d b6d7 983d 7cbe 3dbd
000002f0: 282d 93b9 575f 183e 0073 23bd 69d5 053d
00000300: 5321 193d b631 72bc e316 bc3c 00f0 873d
00000310: 6b2c 6fbd 6d9f 23bb fcbd 97bd 0126 863c
00000320: 1dfe edbd ca18 043d b287 41bd e178 8bbc
00000330: 1ce3 853d b3d9 3b3d b9f5 d5bb 5ba3 10bd
00000340: 066e 5abd 3667 25bd 2527 52bc dd63 b8bd
00000350: 505e 80bc 15a1 53bd 6c97 ef3d dfd1 15be
00000360: d101 8a3d 4879 b73d 469d babd df70 ec3c
00000370: 40b8 a33d 8e79 363d 121a 80be 4e2c ccbd
00000380: c328 45bd cf2f 51be 8700 063e 7a8e 333d
00000390: 6132 f7bd c00c b6bd c225 aa3d d844 803d
000003a0: 5495 8f3d 2360 c63d ea76 403d f9aa 483c
000003b0: 42ce 85bd fe9d dabc 1d08 8fbc 76d0 5fbd
000003c0: bce9 603d 92cc fbbd 0ffc e1bc 5a3e 03be
000003d0: 7dc0 b53a 1307 0f3e 55d9 06be 5042 3bbe
000003e0: 4ba6 b5bd 3ec2 e2bc 1202 903d 516e 8dbb
000003f0: c5c0 0b3e 5c70 e03d 3ac4 1e3e 71c8 db3d
0.06483894 -0.047879484 0.02639617 -0.064846255 -0.09404362 -0.080613494 -0.059125535 0.008281091
0.018708881 0.08716581 -0.015922116 0.16401826 0.1552928 -0.13000631 0.034164887 0.042052895
-0.17989391 0.06328733 0.08785465 -0.091177955 0.06840661 0.0032033224 0.21912651 0.09754773
-0.098139666 0.044225603 -0.06589853 0.09591516 0.12312073 -0.1392124 -0.098809555 -0.08682201
0.048684217 0.065603755 -0.053809185 0.010494788 -0.15607329 -0.07755448 0.13525485 -0.04062012
-0.010550538 -0.06315841 0.014887138 0.05991453 0.11806354 -0.088819645 0.07214443 -0.03159318
-0.029642848 -0.13686419 -0.0025575086 0.08232473 -0.025184385 -0.07490139 0.12637697 0.0048371973
-0.047273584 -0.009119017 0.092867546 -0.12300435 0.13399163 0.081192836 0.015447772 -0.029969268
-0.024876192 0.11507402 -0.013204318 -0.0073031792 -0.07084369 -0.07408884 0.06640562 0.09133025
0.107325524 -0.09620391 0.022518862 -0.20912685 -0.005201642 0.16062272 -0.17512967 -0.037296176
-0.21932904 0.023334567 0.113271326 -0.10147884 0.011984703 -0.095657215 -0.013228233 0.061480545
0.07987626 0.1291481 -0.0047220285 -0.073793456 0.07493785 -0.18406682 -0.13062806 0.047876358
-0.06355839 0.22529998 0.012366331 -0.062523395 0.09723727 -0.07787955 -0.08683309 -0.04273176
-0.041926444 -0.010272302 -0.014411049 -0.13038012 0.07401231 -0.10625186 0.19235371 -0.1157959
-0.010974389 0.15346794 -0.07767019 -0.09523139 0.016348936 0.111370035 -0.14796615 -0.09622844
0.13662915 -0.022131516 0.019472564 -0.14637497 -0.06197709 -0.057852034 0.068725124 -0.04628318
0.050391126 -0.060771506 0.0486738 -0.07651599 -0.014235659 0.11895464 -0.057761226 0.09973091
0.07374895 -0.06358254 -0.1274933 0.06678121 -0.114744194 -0.1481041 -0.0017998075 0.009432953
-0.052938562 0.055717546 -0.10242914 0.02346641 0.07089013 -0.13252483 -0.07408463 -0.09237352
0.054829683 -0.031006798 0.0026302007 -0.123527445 -0.10017776 -0.07269201 -0.024362812 0.003179978
-0.023468848 0.037761185 0.11602509 0.021235708 -0.08393 -0.06449183 -0.15378863 0.046198968
0.02692773 0.029503012 0.03573977 0.09037483 0.104023695 -0.09073181 -0.0069297752 -0.15486121
0.057256196 -0.15766661 -0.114629425 -0.08852238 -0.009434374 0.05084187 -0.11939011 -0.060232397
-0.15062897 0.03785983 0.074630186 -0.04632424 -0.0002807167 0.1488012 -0.039904594 0.032674227
0.037385296 -0.01478236 0.022960132 0.06637573 -0.05839197 -0.0024966851 -0.074092835 0.016375544
-0.11620734 0.032250203 -0.04724855 -0.017025413 0.06537458 0.04586191 -0.0065295366 -0.035312038
-0.053327583 -0.040381633 -0.012826716 -0.090034224 -0.015669972 -0.05166729 0.11698803 -0.1463084
0.06738628 0.089586794 -0.09112029 0.028862415 0.07994127 0.044549517 -0.2501989 -0.09969388
-0.048134577 -0.20428394 0.13086139 0.043837048 -0.12070156 -0.088891506 0.08307983 0.06263131
0.07010904 0.096863054 0.046988405 0.012247794 -0.06533481 -0.026686665 -0.017459923 -0.054642163
0.054910406 -0.12294878 -0.027586011 -0.12816754 0.001386657 0.13967542 -0.13168843 -0.18287015
-0.088696085 -0.027680513 0.07031645 -0.0043161293 0.13647754 0.10958931 0.15504542 0.107315905

bias f4 [256]
00000000: ec48 e2bc 17a1 cfbd a7cf ba3d 1e22 d03c
00000010: 915e f939 82e3 ecbc 5a1f 1d3d 64cd e23a
00000020: 3ba3 a6bd 905d 833d 7694 d1bd bf37 b8bd
00000030: 5866 5c3c cc0f 993c c3b0 d0bd c495 2b3e
00000040: 7e3d d03d eda7 cd3d 2383 28bc 550f adbd
00000050: 7331 d43c 7207 00bd adf0 063d 7277 ac3c
00000060: fb62 0d3d fd84 41bd 92d0 95bd 1aae c6bd
00000070: 70bb 193c 4922 fcbb 9cf2 b03d b58b 8a3d
00000080: a289 4bbd eb93 8bbc 0290 953b 4cfa 343d
00000090: 8c36 b6bd a049 b73d 6fd1 b8bd 41ed 9539
000000a0: c4b6 21bd 267d 5fbd 06bc 423b 3ca0 6a3d
000000b0: f62a 22bd 2ac3 b73d d260 e43d 646e cfbd
000000c0: 9d76 a5bd 6dcc 84bb ef6c a5bd eec8 d5bc
000000d0: 4871 58bd 8a8d 183d 13ed 05be e73b e13d
000000e0: 39a5 dbbd e6fd a5bc a798 a0bd c36f cdbd
000000f0: d235 dabd cbe9 bbbd 3ba0 e6bd 442b d3bd
00000100: 0e62 b83d 0b99 d2bd af88 b5bd 06ba f23d
00000110: 5de6 debc 640c 3fbb 1f8c 993b b2f0 f53d
00000120: 0bae 4bbd e388 b83d 10ce 05be 106a cb3d
00000130: 216a 393d 081a 87b9 0ae7 b03d 8e3c cfbd
00000140: b508 51bd 5dbb 52bd 4f15 3c3d 624a 7db9
00000150: c7a1 0b3e d63b e73c 8199 8a3d 6a5f 6d3b
00000160: 2c9c a8bd 8fc9 c0bd b752 c03d d609 07be
00000170: 5ca5 29bd a0ba 593d ac6d 413d 491e 8dbc
00000180: a789 cd3c 94b7 c33d 87f4 08bc 015b 1a3e
00000190: ed1d 673d 1240 7d3d f53c 8dbd eba1 08bd
000001a0: 9281 dd3d 06a0 c23a 4779 96bd 9be5 07be
000001b0: c138 eebd 498d 553c 59f4 503d d630 febc
000001c0: 797c de3c 252b 6c3a b949 b8bd 36e8 bbbd
000001d0: deb2 4f3c 6afc 0abd 7340 d33a ac64 df3c
000001e0: 0f34 d23b 9570 97bd bd9b 7dbd f29d 02be
000001f0: ca1c 81bc 0258 cdbc 97d0 36bd c4f0 16bd
00000200: dddf 10be a2dd 553c 8695 aa3d 7faa bebd
00000210: 345d 9f3d 13e8 f33d 8d45 7c3d d0ba 80bd
00000220: 4ae6 013e 41dc 9b3d a45b d23d abd7 943d
00000230: 2c36 f23c d772 d13d c472 a4bc 9548 873d
00000240: 78e4 fe3b 7260 d1bd 7d17 193d 862d cdbd
00000250: 560f 763b 6d85 89bc 11be bdbb c657 97bd
00000260: 51e3 ca3b 72e9 30bd ee80 0e3c b131 96bd
00000270: 0d4f 99bc 8fbe 41bd fbb7 adbd 86e5 3cbc
00000280: 1efb 0cbc a62f 3b3d e337 d1bd 33f7 d4bd
00000290: 75f2 88bd bb1b 2fbd e592 f8bd ba32 02be
000002a0: 7804 353d b297 fb3d 5b5b 85bc 9f7e 143d
000002b0: 5ee4 ba3d b6d0 a53d 75fa e73d 2874 2d3d
000002c0: 6a92 89bd 492f afbd a593 ae3d 64ca dfbd
000002d0: 6fe2 473d 436a ca3d f3d4 923d a7e8 a3bd
000002e0: ac3a 9abd f4f1 c13d e3fc e63c a63e 553d
000002f0: a7b7 9e3d e8e5 02be 2e31 183e dc9b 0e3d
00000300: c6b3 8dbd 5007 103d b29b de3d a372 7dbc
00000310: 7f32 57bd 472e 843d 1c0e 84bd 9d42 03be
00000320: 289b 4abd fec6 213d b5e2 063d 3791 4c3d
00000330: 2d63 9f3d 3b4a 00be 3e5f 743c 2bde a33c
00000340: e8e5 b03d 8513 0dbd 474d 5b3d bc87 3a3d
00000350: e62a 043e cbfa 27bb d0ae 7dbd 2564 ca3c
00000360: e45d 9a3d db6e 573d b7a8 05bc c2dc b7bd
00000370: 7489 cebd ab67 253d 7d1b 973d 6c04 c93d
00000380: 99a4 463d a6df 2fbd 7696 d43d 182c ccbd
00000390: 4b4e 4f3d a80c e2bd c9b6 3fbc 1619 e0bd
000003a0: 8152 8ebd 4bb3 443d 8b10 1c3c e6dc 86bc
000003b0: d217 e8bd 367d 25bd 0b17 b43c dcd2 a2bc
000003c0: b333 1cbe 6a88 943d e456 a13d 0948 1c3d
000003d0: 6bf9 83bd 5f4f c3bd 91e9 a6bd 4b85 36bd
000003e0: 6cb6 66bd 2bb0 e8bd a407 febd 8e3e d7bd
000003f0: 5e12 d6bd 1e9a 993c 700f 01be 4613 56bc
-0.027622662 -0.10138147 0.09121638 0.025406893 0.00047563438 -0.028917078 0.038359977 0.0017303643
-0.081366025 0.0641433 -0.10233395 -0.08995008 0.013452135 0.01868429 -0.101899646 0.1675635
0.10167979 0.10041795 -0.010285172 -0.0845019 0.025902485 -0.0312571 0.03294437 0.02105305
0.034518223 -0.047245968 -0.07315172 -0.09701176 0.0093830675 -0.007694517 0.08640024 0.06764928
-0.049691804 -0.017038306 0.004564286 0.044184014 -0.08897123 0.0894959 -0.09024321 0.00028596263
-0.03948094 -0.05456271 0.0029714121 0.057281718 -0.039591752 0.089727715 0.111512795 -0.10128477
-0.08079264 -0.0040526898 -0.08077418 -0.026096787 -0.05284241 0.037244357 -0.13078718 0.109977536
-0.10724873 -0.02026267 -0.07841616 -0.100310825 -0.10654797 -0.09175452 -0.1126103 -0.10310987
0.090030774 -0.10283097 -0.08863961 0.118518874 -0.027209455 -0.0029151672 0.004685893 0.120087996
-0.049726527 0.09010484 -0.13066888 0.09932339 0.045267228 -0.000257686 0.08637817 -0.10118972
-0.051033694 -0.051448215 0.04591876 -0.0002415567 0.13635932 0.028226774 0.0676756 0.0036220201
-0.082329124 -0.09413444 0.093907766 -0.13187346 -0.041417465 0.053156495 0.047223732 -0.017226355
0.025090052 0.09556499 -0.008359081 0.15073778 0.056425024 0.06182868 -0.06896392 -0.033357542
0.10815729 0.0014848716 -0.073473506 -0.13271181 -0.11631919 0.013034173 0.051014278 -0.031029146
0.027158963 0.00090091146 -0.089984365 -0.0917515 0.012676923 -0.033932127 0.001611723 0.027269684
0.0064148973 -0.0739452 -0.0619161 -0.12755564 -0.015760798 -0.02506638 -0.04463252 -0.036850706
-0.14147897 0.01305333 0.083293006 -0.09309863 0.07781449 0.11909499 0.061589766 -0.06285632
0.12685505 0.076103695 0.10271385 0.07267698 0.029566847 0.10226982 -0.020074256 0.06605641
0.0077787004 -0.102234736 0.037375916 -0.100184485 0.0037545762 -0.016787255 -0.00579048 -0.07389788
0.006191649 -0.04319138 0.008697731 -0.07333697 -0.018714452 -0.04730087 -0.08482357 -0.011529332
-0.008604793 0.045699738 -0.10215738 -0.10398712 -0.0668687 -0.042751055 -0.12137393 -0.12714663
0.044193715 0.12284793 -0.016278913 0.036253568 0.09125589 0.08096449 0.11327068 0.042347103
-0.067173794 -0.08553941 0.08524255 -0.10927275 0.04879993 0.09883549 0.07169523 -0.08003359
-0.07530722 0.09469977 0.028196758 0.0520617 0.07749873 -0.12783015 0.1486251 0.034816608
-0.06919055 0.035163224 0.1086954 -0.015469226 -0.05253839 0.06454139 -0.06448004 -0.1281838
-0.049464375 0.039496414 0.03293105 0.049943175 0.07782588 -0.12528317 0.014915286 0.020003399
0.08637601 -0.034442443 0.053540494 0.045539603 0.1290699 -0.0025631662 -0.061934292 0.024705956
0.075374395 0.052595954 -0.008157901 -0.08977653 -0.10084811 0.04038207 0.0737829 0.098152965
0.048496816 -0.042937897 0.10380261 -0.09969348 0.050611775 -0.1103757 -0.011701294 -0.10942285
-0.0694933 0.04802255 0.0095254285 -0.016462754 -0.11332668 -0.040402614 0.021983644 -0.019875936
-0.15254097 0.072525814 0.07877901 0.038154636 -0.06444057 -0.09536623 -0.08150018 -0.04456071
-0.056326315 -0.113617264 -0.12403801 -0.10509978 -0.10452722 0.018750247 -0.12603545 -0.013066119

weight f4 [32, 256]
00000000: f55b fcbc c0f1 933b f3be cf3a 8a60 bbbc
00000010: 327f 0b3d bd7e 93bd c1f1 15bd 2eb2 cfbc
00000020: 3014 cabc 95d3 29bd a8e6 7ebc af41 913c
00000030: 6272 97bb 3d0d 6abd b8f8 493d 7aef 80bc
00000040: 3107 60bd 8ea5 20bd d8c9 53bc 7651 07bc
00000050: 006c 0539 2fb2 3cbd 3df9 c43c fc37 363c
00000060: 0fec 58bd 9af7 08bc 5056 323d dd04 ec3c
00000070: 8881 123d 2655 73bd a308 36bd 12d9 78bd
00000080: dd1d dd3c 5259 01bd a1d7 463c b9c6 80bd
00000090: 1d23 87bd 6c93 0c3d 3826 4d3d c891 8ebc
000000a0: 3fc2 d9bc 8217 5abc 8fd2 1c3d e691 2a3d
000000b0: ccf4 e63c 9a05 88bc eafb a63b 4da3 32bd
000000c0: aaad cdbc 4e11 9abc a0c3 523d 4832 4dbd
000000d0: 02df 403d f76b 2ebd 0234 05bd 7a15 923c
000000e0: a0af 413c b5ef 30bd 2e12 23bd 54fd b43c
000000f0: d716 873c f813 83bd d3ff 38bd 3691 cbbb
00000100: fe4a c33c 3d15 41bd d84a 67bd 92ff 46bd
00000110: 5271 893c c0af fc3c 9d31 5dbd aff9 7dbd
00000120: 59bf 6dbd 0383 11bd 96e3 f438 04f7 323d
00000130: e426 95bd 916b 1cbd dda2 97bd 948e 123b
00000140: 30d8 aebc 00b1 21bd 4749 793c 1f6d 163d
00000150: e6ea 99bc 0afb d8bc 7267 633c 2438 8c3c
00000160: de3b 96bd 3883 2abd c4a3 063d d179 62bd
00000170: 3f3a a13c 00ba 1dbd 6989 8abc 93b0 35bd
00000180: 16d6 1abd cd97 43bb bc91 93bc f7c9 363c
00000190: a065 bf3c e83f 0b3c 74a7 f0bb faea 3f3b
000001a0: 51c4 c93c fabd 0cbd d1a1 9b3b 541b 833c
000001b0: c890 a43c 84c5 8f3c e90a 9e3c 0a61 b3bc
000001c0: 1cbc 47bb d46d 303d 8010 84bd 74c5 51bc
000001d0: b3da 83bd ca22 2fbc 47ef 12bd 5180 4dbd
000001e0: 66ae 73bd b7f6 1b3d e5d5 56bd de23 163d
000001f0: cb33 123d 5e1c 213d 6225 9e3c 843e e7bc
00000200: 8d59 593c 3858 f7bc a94e 023d 7ebe a5bc
00000210: f955 0c3d ea1f 73bd 64e8 043d ac78 f53c
00000220: 4be7 42bd edc9 86bd 0844 8ebd e98c 473d
00000230: c8e5 a03c c2aa 08bd 12b2 6cbc cd11 293d
00000240: e95e 25bd 982b 093d 2891 7fbc 49f3 b03c
00000250: 1de4 1c3d 4d1b 19bb dec2 9ebb 9622 373d
00000260: 7e2d 4e3d 6828 97bd 3208 01bd c32d 66bd
00000270: b378 e63c 56cd 463d cd14 32bb e072 13bd
00000280: 26e3 13bd 8228 4cbc 784b 4c3d 1697 213b
00000290: deaf 82bd 217c 4dbc 640c 163d 448f 45bd
000002a0: 588d a0bb 3724 45bd 3bbb 9dbc 638a f83c
000002b0: f876 513c 8a06 79bd 8b24 353d f604 83bd
000002c0: 5c19 993b a1a3 62bc 0ccb 8cbd fa57 26bd
000002d0: e2d3 45bd da4a 8ebd a671 2dbc 2268 3d3d
000002e0: 24ab 8a3c 9f88 0b3d fa0f a6bc f946 b1bc
000002f0: dbf6 0bbd bde7 43bd 204c 24bd 30f9 a03c
00000300: 4b54 da3b 3cdd 4bbd de68 92bd 7d87 bc3c
00000310: 7a08 8bbd b768 2a3d 1da8 e13c 3523 78bb
00000320: 3c46 55bd 6b20 6fbd f602 89bd 3695 01bc
00000330: c8c9 66bd 83ec c33c 3974 223d 4d38 b2bc
00000340: 79fa 81bd 9c0a 2d3d 08a3 fe3c 0e78 77bd
00000350: fdf2 27bd 4ffe febc 1807 333d 135a c33b
00000360: 6aa8 2f3d 68c4 5ebd 372a 153d f3ec 8c3a
00000370: a04e bf3c 79eb b23c 6401 5bbd d6e1 ddbc
00000380: 1d8a 453d 9885 87bd e72f aa3c 6071 4a3d
00000390: 273b 863d 0455 273d 1eed b63c 8278 3d3d
000003a0: 0feb 5cbd 1be1 fc3b 1d11 8a3b ffa0 5cbd
000003b0: e626 87bd a7c8 cc3c 5262 75bc 2090 3d3d
000003c0: aca1 ffbc 12b1 943b 6c8b 39bd b767 d53c
000003d0: 2693 cf3c 4a8c 133c c7a1 7cbd d471 913c
000003e0: 6005 7d3b 029d 1d3d 9c4d 463d 26b7 923c
000003f0: 7702 473d 413e d1bb b756 9e3b 15a3 c43c
-0.030805567 0.004514903 0.0015849754 -0.022873182 0.03405685 -0.07201908 -0.036607508 -0.025353517
-0.02466783 -0.041461546 -0.015557922 0.017731516 -0.00462179 -0.05714153 0.049309462 -0.015739191
-0.05469436 -0.039220385 -0.012926541 -0.008259168 0.00012724102 -0.046068367 0.024044627 0.011121746
-0.052959498 -0.008359814 0.043539345 0.028810913 0.035768062 -0.059407376 -0.04444183 -0.06075389
0.026991779 -0.031579323 0.012136371 -0.06287903 -0.06598494 0.03432028 0.050085276 -0.017403498
-0.026581882 -0.013311269 0.03828674 0.041643046 0.0281929 -0.016604234 0.0050959485 -0.043612767
-0.025107224 -0.01880708 0.051456094 -0.05009678 0.047087677 -0.042583432 -0.0325203 0.017832506
0.011821657 -0.043197352 -0.03981226 0.022093453 0.016490383 -0.06400293 -0.045165848 -0.006212379
0.02383947 -0.047139395 -0.05646786 -0.048583575 0.016777668 0.030845523 -0.054002393 -0.062005695
-0.05804381 -0.035525333 0.00011677218 0.043692604 -0.072828084 -0.03818852 -0.074041106 0.0022362815
-0.02134332 -0.03947544 0.015215225 0.03672516 -0.018788766 -0.026486892 0.013879644 0.017116614
-0.073356375 -0.041629046 0.032871023 -0.055291954 0.019681094 -0.03850746 -0.016911225 -0.044357847
-0.037801825 -0.002984512 -0.018013828 0.011156551 0.023363888 0.008499123 -0.0073441807 0.0029284344
0.024629744 -0.034360863 0.0047495146 0.016004242 0.020088568 0.017550237 0.019292312 -0.021896858
-0.0030477112 0.04307349 -0.064484596 -0.012803424 -0.06438198 -0.010689447 -0.035872724 -0.0501712
-0.05949249 0.038077082 -0.05245008 0.0366553 0.035693925 0.039333694 0.019304935 -0.028228052
0.0132659795 -0.030193433 0.031813297 -0.020232435 0.034261677 -0.059356607 0.032448187 0.029964767
-0.04758386 -0.06581483 -0.0694657 0.048718367 0.019640818 -0.033365972 -0.014446752 0.04127674
-0.040373717 0.03348884 -0.015598573 0.021600382 0.038303483 -0.002336222 -0.0048450073 0.044710718
0.050336353 -0.07380754 -0.031501956 -0.056195986 0.028133726 0.048535667 -0.0027173043 -0.035998225
-0.036105298 -0.01246083 0.04987666 0.0024656705 -0.063812 -0.012541802 0.03663291 -0.048232332
-0.004899662 -0.04813024 -0.019254318 0.030339425 0.012784712 -0.06079725 0.044224303 -0.063974306
0.0046722125 -0.0138329575 -0.068746656 -0.040611245 -0.04829777 -0.069478706 -0.010586178 0.046241887
0.01692731 0.03406584 -0.02027129 -0.021640288 -0.034170967 -0.047828425 -0.04011166 0.019650072
0.0066628805 -0.049771532 -0.07148908 0.023013825 -0.06788726 0.04160377 0.027545983 -0.0037862782
-0.052068934 -0.058380526 -0.06690018 -0.00790911 -0.056344777 0.023916489 0.03966162 -0.021755362
-0.06346602 0.042246446 0.031083599 -0.060417227 -0.041003216 -0.031127123 0.043707937 0.0059616654
0.04288522 -0.054386526 0.036417212 0.0010751769 0.023352921 0.021840798 -0.053468123 -0.027085226
0.04822742 -0.06617278 0.020774795 0.04942453 0.06554251 0.04085256 0.022329863 0.046257503
-0.053935107 0.0077172644 0.004213466 -0.053864475 -0.06599216 0.024998022 -0.014977055 0.046280026
-0.03120502 0.00453771 -0.04529898 0.026050432 0.02533872 0.0090056155 -0.06167772 0.017754473
0.003860794 0.038479812 0.048413858 0.017909598 0.048586335 -0.006385595 0.0048321146 0.024003545

bias f4 [32]
00000000: ae9c b3bb 0216 68bd 4dfc 82bc 116b 573b
00000010: dea0 c63c f331 3bbd 36c3 343c 2612 823c
00000020: 5d7d 66bc c73b 5d3d 9354 78bd d48c 33bd
00000030: b9af 443d 29bc a23c e4de 56bd 7bb4 923c
00000040: b04b 09bd da8d 94ba bf5f 1fbc f4c9 49bd
00000050: 7465 4d3d f425 5d3d 2d5f 9f3d 90d3 5ebd
00000060: cb4f dd3c 6b23 83bd cb16 513c 0a10 4c3d
00000070: 0c7b 8abd cb1d 1c3d 0948 7abd 7b5f c73b
-0.005481324 -0.056661613 -0.015989447 0.0032870213 0.02424663 -0.045701932 0.01103287 0.015877794
-0.014067975 0.054012086 -0.06062753 -0.043835476 0.048019145 0.019865112 -0.05245866 0.017908325
-0.033519447 -0.0011333779 -0.0097274175 -0.049264863 0.05014558 0.053991273 0.07781825 -0.05440098
0.027015587 -0.0640324 0.012761782 0.049819984 -0.067617506 0.03811435 -0.061103854 0.00608438

weight f4 [1, 32]
00000000: 5cc5 afbd 5f42 013e 046e 353e d31f bcbd
00000010: 59a2 7b3d afb0 3e3e d5de c43d 92a7 cebd
00000020: 1784 02be d5e5 253e ab03 0b3e 1874 fb3d
00000030: 4acc cb3d 5f5d 203e 2bca c73d 5038 d6bd
00000040: 873c 9b3e 2818 cc3d eb03 05bd 5a23 bdbb
00000050: 2b3b c43d d590 f93d 0fb9 5dbe 8491 dcbd
00000060: 5891 02be f97b 853e 1452 4f3e 1496 12be
00000070: f030 9cbd 473b 013e f9ed c6bc c2a9 17bd
-0.08582565 0.12622975 0.17717749 -0.091857575 0.061434124 0.18622087 0.09612814 -0.10090555
-0.12745701 0.16200955 0.13575618 0.122780025 0.099510744 0.15660618 0.09755357 -0.104599595
0.30319616 0.09965545 -0.03247444 -0.0057720365 0.09581598 0.12185828 -0.21652626 -0.107699424
-0.12750757 0.26071146 0.20246154 -0.14315063 -0.076265216 0.12620269 -0.024283396 -0.037027128

exp_avg f4 [64, 20]
00000000: 4ff7 0339 5dce ac38 e07d 4d39 0cc0 6d39
00000010: 8778 2b38 6132 e038 ab68 1a38 9e35 2b39
00000020: 1975 9cb6 c4e0 73b8 dac3 4f39 a830 9db8
00000030: 7793 8fb8 1115 6238 f2e1 efb8 d9c6 0139
00000040: 8ab1 5439 d9aa efb8 e801 e437 8a22 0639
00000050: 4f73 9f39 e187 113a 08d0 be38 09ac 2a39
00000060: c2d8 8538 c904 4738 91a0 af39 facb bb39
00000070: db6c 6337 d523 9d39 5028 d539 93ce d938
00000080: 740a 4bb7 f136 fd38 3980 1039 b3c0 9738
00000090: 9ea4 a638 ddc9 6c36 0653 dc38 8849 6e39
000000a0: 6406 28b9 7b70 6936 49fa 68b9 ceb8 9438
000000b0: f1f9 17b8 6ead 01b9 8936 c038 2b08 4038
000000c0: 2506 a737 2f55 7f38 4b30 e237 4fab e937
000000d0: b7d1 a538 82a2 ffb8 bbfc 3c39 194a 1b38
000000e0: caca 9839 66f3 b436 9f11 efb8 4f10 8939
000000f0: b2e7 26b9 f637 a138 cb9e 15b9 be53 32b8
00000100: 5470 5c39 1aac 9cb9 8767 8839 348b 0339
00000110: ba70 6739 aef9 d838 7d24 2a38 520c 4739
00000120: cd9f f038 ad5d ab36 f4eb 94b9 7a9f 7cb8
00000130: c5cc 2339 c00b f738 5bfe 9639 555c b339
00000140: 898d 8d39 24af 1c39 2b97 5f37 1bc5 a3b9
00000150: daae 7a39 2c58 40b8 3f89 2138 20fa 17b7
00000160: 55fc 0737 76cd 9537 184d 3838 0510 68b8
00000170: 4f2a b5b7 d395 ccb6 93a4 4039 8cf2 7db8
00000180: e86f acb9 e797 72b8 6d0c f3b6 68ad f1b9
00000190: bc21 98b9 cd56 24b8 7184 95b9 6ac5 8eb9
000001a0: 806b 0d38 96bf b7b9 cdba 1d38 288d 81b8
000001b0: 9e8a 9e38 8795 30b8 710a 1cb9 2a3d 4d39
000001c0: 7935 d8b8 0522 14b9 50c6 c8b9 ab83 7cb9
000001d0: 14c3 8e38 6d50 5ab7 a75e 4c39 2c4e 4e39
000001e0: fc8b c0b9 97cd 1438 7b54 29ba 25f7 4339
000001f0: 68c5 ba39 9457 f2b9 77c9 7d39 5192 a737
00000200: e49c da39 1fcc 89b9 e392 75b9 2db1 c939
00000210: 1912 f236 1f5d dd38 606d b1b9 3793 ccb8
00000220: ff16 113a eb0d 2238 feb3 c939 3007 4a3a
00000230: 460b 9a38 ae5a 2c39 0f83 6f38 97c7 7039
00000240: 43ef e838 8fbb 41b8 b797 9939 98fe 6fb7
00000250: 7bdd 28b8 726a dfb7 b1e1 3738 d3c1 14b9
00000260: 0f22 a0b8 330b ebb7 bd74 89b7 c7aa 0cb8
00000270: f324 68b8 14cd b737 f2d2 0eb9 47b3 aab8
00000280: 9893 af38 a47c 9b38 8fa9 6439 6b0f 0239
00000290: f372 c9b7 bf22 3fb9 17b1 1537 4a42 a536
000002a0: c4fb 1eb9 0158 a6b8 9709 2b39 c4b7 25b9
000002b0: cec1 8db9 f84c 05b9 4984 88b8 c5e2 dcb8
000002c0: 4899 9d35 2127 eab7 db5c 26b8 6456 94b9
000002d0: 55d3 7bb9 8819 a037 129c 2ab9 7d0e 0c39
000002e0: cec3 9539 e91e 31b9 5a9c 7a39 4088 5739
000002f0: 0669 db39 1aa8 0b39 708b 8ab8 aef4 d139
00000300: bd51 3939 1f26 ae38 b85c 3839 81a2 c238
00000310: 7238 eb39 a928 4039 dc2c a439 7127 303a
00000320: 5431 1e39 6bfb 3039 a711 033a e1a5 af39
00000330: 3148 b3b8 2dd7 8939 e973 ba39 b00a e439
00000340: 3f2d 0539 138e 113a fa9b 1a3a 3240 62b7
00000350: 097a de39 2e66 8db8 f05a c339 578d df39
00000360: 75bc b939 d2fd 53b8 621c 08b9 995b d339
00000370: fe63 14ba 9297 62ba c5fa 33ba 1c53 89b8
00000380: 3937 97b8 9761 3fba 0cbb edb9 4bf5 08ba
00000390: 4b3d a338 8add 3eb8 78c9 5dba b48f 7339
000003a0: e878 b638 d408 fbb8 3356 93b8 30cb 4739
000003b0: ea49 88b7 4140 de38 1c80 66b8 0b3f b439
000003c0: a1f6 98b8 52fc 0239 2a89 30b8 4cdb dc38
000003d0: 8f06 8739 7a95 b4b8 684a d639 1587 3a39
000003e0: 06db 5539 8e8b 5939 5b4b 3a39 333e 0539
000003f0: bc60 b038 a0d5 94b7 4da4 3737 51ac 46b8
0.00012585263 8.240037e-05 0.00019597216 0.00022673624 4.0881827e-05 0.00010690536 3.681394e-05 0.00016327805
-4.6627943e-06 -5.8145044e-05 0.00019814019 -7.495406e-05 -6.846239e-05 5.390222e-05 -0.00011438494 0.00012376475
0.00020284034 -0.00011428231 2.7180606e-05 0.00012792103 0.00030412755 0.00055515586 9.098655e-05 0.00016276551
6.3823085e-05 4.7449754e-05 0.00033498232 0.00035819394 1.3555599e-05 0.0002997207 0.0004065656 0.00010385844
-1.2102177e-05 0.00012074214 0.00013780677 7.236134e-05 7.946159e-05 3.528424e-06 0.00010505882 0.00022724841
-0.00016024109 3.4785178e-06 -0.00022218483 7.0916125e-05 -3.623398e-05 -0.00012367006 9.1654314e-05 4.5783974e-05
1.9910813e-05 6.087607e-05 2.6963788e-05 2.7855536e-05 7.9068755e-05 -0.00012189617 0.00018023227 3.702389e-05
0.0002914279 5.3927533e-06 -0.0001139969 0.00026142827 -0.00015917307 7.687502e-05 -0.00014268902 -4.2516498e-05
0.0002102268 -0.00029882864 0.00026017075 0.00012544991 0.0002207187 0.00010346189 4.056514e-05 0.00018982709
0.00011473857 5.1071024e-06 -0.00028404559 -6.0230006e-05 0.00015621174 0.000117800664 0.0002879974 0.00034210333
0.00026999068 0.00014942564 1.3327032e-05 -0.00031236638 0.00023906995 -4.5858484e-05 3.851321e-05 -9.058538e-06
8.105378e-06 1.785786e-05 4.3940818e-05 -5.532803e-05 -2.1596583e-05 -6.0971156e-06 0.00018371856 -6.054579e-05
-0.00032889773 -5.7838766e-05 -7.243411e-06 -0.000460963 -0.00029016833 -3.9181486e-05 -0.0002851817 -0.00027231436
3.3717137e-05 -0.00035047223 3.760569e-05 -6.177492e-05 7.5598466e-05 -4.2100928e-05 -0.00014881209 0.00019573109
-0.00010309643 -0.00014127053 -0.00038294727 -0.00024081643 6.807424e-05 -1.3012538e-05 0.00019490217 0.00019674812
-0.0003672539 3.547742e-05 -0.0006459427 0.00018688718 0.00035623764 -0.00046223088 0.00024203012 1.9976085e-05
0.00041697093 -0.00026282758 -0.0002341974 0.00038469714 7.214269e-06 0.00010555446 -0.00033841562 -9.754899e-05
0.0005534738 3.8636772e-05 0.00038471812 0.00077067595 7.345392e-05 0.00016436979 5.71041e-05 0.00022962537
0.00011107188 -4.6189463e-05 0.0002929547 -1.4304787e-05 -4.026059e-05 -2.6633239e-05 4.384079e-05 -0.00014186585
-7.6357384e-05 -2.8019398e-05 -1.6386033e-05 -3.353765e-05 -5.5347522e-05 2.1910797e-05 -0.00013620759 -8.139625e-05
8.372142e-05 7.414192e-05 0.0002180694 0.0001240351 -2.4014595e-05 -0.00018228123 8.922324e-06 4.9251003e-06
-0.00015161844 -7.931889e-05 0.00016311403 -0.00015804084 -0.00027038011 -0.00012712542 -6.5096254e-05 -0.000105326566
1.1742022e-06 -2.7913195e-05 -3.9663963e-05 -0.00028293126 -0.00024015953 1.9085375e-05 -0.00016270604 0.00013356838
0.0002856538 -0.0001689155 0.00023900103 0.00020554755 0.00041849184 0.00013318696 -6.606325e-05 0.00040045887
0.00017673425 8.304067e-05 0.00017582148 9.2809096e-05 0.00044864748 0.00018325694 0.0003131394 0.00067197444
0.0001508643 0.00016878328 0.0004999884 0.0003350219 -8.548832e-05 0.00026290995 0.00035563044 0.00043495512
0.00012700724 0.0005552482 0.0005897876 -1.3485596e-05 0.00042434063 -6.7424364e-05 0.00037261052 0.0004263918
0.0003542636 -5.054271e-05 -0.00012980544 0.00040313302 -0.0005660652 -0.00086438016 -0.00068656757 -6.5481494e-05
-7.210527e-05 -0.0007300614 -0.00045343523 -0.000522454 7.7838624e-05 -4.5505854e-05 -0.0008460502 0.0002322782
8.700957e-05 -0.00011970257 -7.025562e-05 0.00019053812 -1.6246882e-05 0.00010597753 -5.4955584e-05 0.00034379246
-7.293863e-05 0.00012491763 -4.2089414e-05 0.00010531265 0.00025754093 -8.610911e-05 0.00040872698 0.00017788664
0.00020394856 0.00020746721 0.00017766414 0.0001270704 8.410352e-05 -1.7742452e-05 1.0945904e-05 -4.736736e-05

exp_avg_sq f4 [64, 20]
00000000: 7446 9834 be6c bd34 d90e 8f34 cf8e 7034
00000010: 0a8c 1735 76d8 9b34 6bfb 1335 7648 4635
00000020: 44c1 6b34 cf8f b334 8079 2135 59fc 7934
00000030: d738 7d34 d73e 7734 7a69 6d34 d3cd 8334
00000040: 33b9 9634 efad 9234 c470 9e34 d774 f534
00000050: fcb3 1b35 0df8 e535 98a7 b435 9ee9 0c35
00000060: f996 1736 9a2d 8f34 30e6 5736 47cd 6036
00000070: 646c 6232 0acb 8735 4b9e 0136 b3cd 7934
00000080: d518 ae34 61e7 1335 b18b 1535 ed5e 0735
00000090: 3cfd 0c34 043c a234 c2b0 fc34 6ea4 5e35
000000a0: e291 d134 ac31 9435 97ba 0935 bb30 0035
000000b0: abf3 e234 8eb5 6f35 7483 6135 ab65 5235
000000c0: 1203 c634 5ec5 5a35 c873 8d35 54de c534
000000d0: a9f4 e234 1093 d434 dc67 9e34 c2d9 ca34
000000e0: 6dca e534 1ca2 e234 30eb ee34 3bd1 3935
000000f0: cb2d fd36 bcce 0a37 2ba7 dc36 e510 e636
00000100: d53d 8a37 5a74 2237 ef3a 6337 8729 b637
00000110: 3f6a ae36 025e 1837 9088 5c37 156e cc36
00000120: 52a5 e336 1e37 d436 5fcb dd36 1f0d d736
00000130: f200 ef36 7eed 0337 e4f7 1137 9bc9 3d37
00000140: a380 a036 acef 3b37 2ffd 6136 c9dd 9336
00000150: 63e9 eb36 03ce b436 857e f236 77f7 3c37
00000160: 3ce2 6c36 1981 e136 844d 1237 b4dc 5a36
00000170: c56b cc36 b5fe b136 fbb8 7636 880b 8636
00000180: dd46 6236 96f7 b936 69d5 9c36 2a66 0737
00000190: 1e5b 8c36 8d53 a836 c65e 8e36 e223 9836
000001a0: 45a5 2737 6fda c536 3bcc c036 8df2 4137
000001b0: 4674 3436 5a35 9136 6d2a c936 c2a0 6f36
000001c0: d518 9336 4ded 5536 e20a 7336 c16f 7e36
000001d0: 5b1a 7e36 32fb 6e36 08f2 a036 a0b9 c136
000001e0: 31d5 9837 9b69 f437 d0bc 8937 c3b5 8737
000001f0: 31eb d537 9da2 c837 c58a f937 8505 4b38
00000200: b81e 5437 f364 cf37 2e90 2638 7222 6937
00000210: 100d 8d37 f05e 7237 0937 7737 20aa 8237
00000220: c837 8737 b51c 8b37 eab6 a237 ca6f df37
00000230: 0182 b835 345b e935 c7ac bb35 e231 8a35
00000240: 406d 4c36 69bc cc35 49e0 0e36 ae28 2d36
00000250: 760e 8435 dcaa a535 d940 0836 941d 8e35
00000260: f570 9535 9ef4 a535 c0e4 9635 3123 9b35
00000270: d799 8235 1d22 bb35 ee07 a535 2651 f235
00000280: 2c4d a535 40fe 0d35 aeb7 6334 41e3 4035
00000290: 59ee aa35 3004 e934 dc56 1a36 6ddc 2536
000002a0: 3bea 1335 1283 f535 dfc7 bc35 5716 6935
000002b0: 3102 1135 7fba 4035 65ef 9635 1b3a 2a35
000002c0: 61af e934 fe6d c834 743b fb34 4861 f935
000002d0: 5c15 f836 f568 5237 0507 0237 bc7e dd36
000002e0: c12b 3f37 a465 2237 8fa2 5337 9f3d 8f37
000002f0: 3831 ad36 7bc3 1837 8b36 6237 8566 d436
00000300: 4e83 dd36 869a c536 5012 da36 4556 d136
00000310: c3c8 f036 2d60 f336 86eb 0837 dd13 2d37
00000320: c3f0 ab36 e1b9 8136 601c b136 5583 6236
00000330: 6680 d636 9506 b936 0d07 c136 9fe4 1a37
00000340: af61 5e36 37b6 0737 2000 3f37 06cc a536
00000350: a69d 9336 a912 bf36 a9d6 9436 4310 9d36
00000360: 81e8 ad36 2d59 8a36 ce9f d836 825e 0037
00000370: 86f7 9736 5264 4b37 a035 a436 239b 8136
00000380: 3649 ac35 0e97 f036 3204 0937 456f f036
00000390: 0cbe 5c36 7d89 1a37 0104 6a37 5c0b 3e36
000003a0: 96f6 8c36 638f 7036 3168 2f36 8962 9d36
000003b0: 34df 7436 a373 7936 1a8f 8a36 7884 ad36
000003c0: cc2a 2e37 2fda 2d37 3c78 1537 35a7 0437
000003d0: bd96 a837 5d1e 3537 9f15 9a37 e000 cb37
000003e0: 116d d536 6c4b 4437 01c7 8337 4be0 0737
000003f0: 54dd 0d37 1e76 0637 99a7 1037 d2fa f436
2.8363468e-07 3.5283114e-07 2.664663e-07 2.2403695e-07 5.645567e-07 2.9028496e-07 5.512763e-07 7.386619e-07
2.195639e-07 3.3445983e-07 6.015398e-07 2.3281736e-07 2.358314e-07 2.3026529e-07 2.2110717e-07 2.4550408e-07
2.8074427e-07 2.7321173e-07 2.951184e-07 4.5719818e-07 5.800391e-07 1.7134022e-06 1.3459821e-06 5.249402e-07
2.258863e-06 2.6669005e-07 3.2171483e-06 3.3498088e-06 1.31795765e-08 1.0117376e-06 1.9314637e-06 2.3264765e-07
3.2428093e-07 5.509847e-07 5.5710103e-07 5.0429554e-07 1.3130642e-07 3.0218519e-07 4.7067266e-07 8.294072e-07
3.9035427e-07 1.1041316e-06 5.1308e-07 4.775463e-07 4.2273072e-07 8.9298635e-07 8.401032e-07 7.837904e-07
3.6882608e-07 8.1498536e-07 1.0539015e-06 3.6855874e-07 4.2273794e-07 3.959508e-07 2.950536e-07 3.7783872e-07
4.2801858e-07 4.221373e-07 4.4502076e-07 6.922234e-07 7.5453186e-06 8.273575e-06 6.575972e-06 6.856501e-06
1.6479675e-05 9.683043e-06 1.3543976e-05 2.1715428e-05 5.1979728e-06 9.081794e-06 1.3144818e-05 6.092489e-06
6.784373e-06 6.324509e-06 6.6099888e-06 6.409027e-06 7.122865e-06 7.863504e-06 8.70039e-06 1.1312218e-05
4.783347e-06 1.12018715e-05 3.3674985e-06 4.4067606e-06 7.0307156e-06 5.388401e-06 7.226891e-06 1.1263291e-05
3.5298426e-06 6.7205515e-06 8.720326e-06 3.2612998e-06 6.09222e-06 5.304663e-06 3.676453e-06 3.9948536e-06
3.3717872e-06 5.5422524e-06 4.6740065e-06 8.070414e-06 4.1829326e-06 5.0165168e-06 4.242963e-06 4.5341303e-06
9.9924555e-06 5.8964865e-06 5.7458215e-06 1.156017e-05 2.688977e-06 4.3275477e-06 5.995206e-06 3.5707349e-06
4.383832e-06 3.18776e-06 3.6216156e-06 3.7913999e-06 3.786429e-06 3.5610979e-06 4.7965477e-06 5.773458e-06
1.8219087e-05 2.9136243e-05 1.6419595e-05 1.6177893e-05 2.5501098e-05 2.391758e-05 2.9747733e-05 4.8404112e-05
1.2643337e-05 2.4723331e-05 3.9711762e-05 1.3895902e-05 1.6814593e-05 1.4446428e-05 1.4735161e-05 1.5576428e-05
1.611923e-05 1.6583459e-05 1.939708e-05 2.6635727e-05 1.3746904e-06 1.7386396e-06 1.398287e-06 1.0296319e-06
3.046196e-06 1.5254019e-06 2.12902e-06 2.5802688e-06 9.838975e-07 1.2343185e-06 2.0303326e-06 1.0588433e-06
1.113424e-06 1.2364651e-06 1.1242446e-06 1.1558642e-06 9.730528e-07 1.3942514e-06 1.2295766e-06 1.8054022e-06
1.2315918e-06 5.2896576e-07 2.1207845e-07 7.185627e-07 1.2735355e-06 4.340268e-07 2.2998347e-06 2.471522e-06
5.510262e-07 1.8292069e-06 1.4065262e-06 8.683177e-07 5.40199e-07 7.179696e-07 1.1245544e-06 6.341449e-07
4.3527237e-07 3.7332933e-07 4.679565e-07 1.8580258e-06 7.3934625e-06 1.2541413e-05 7.750238e-06 6.601067e-06
1.1394674e-05 9.6796175e-06 1.2614429e-05 1.7075623e-05 5.1615316e-06 9.10542e-06 1.3483349e-05 6.330027e-06
6.601599e-06 5.8890464e-06 6.499038e-06 6.2387285e-06 7.175929e-06 7.2531607e-06 8.161069e-06 1.0316228e-05
5.1242255e-06 3.8661387e-06 5.2783143e-06 3.375307e-06 6.3926445e-06 5.514196e-06 5.752669e-06 9.232345e-06
3.3137437e-06 8.089052e-06 1.1384516e-05 4.9411346e-06 4.399294e-06 5.694416e-06 4.4357334e-06 4.6808577e-06
5.182869e-06 4.123102e-06 6.4559053e-06 7.651399e-06 4.528966e-06 1.21231005e-05 4.8938236e-06 3.86256e-06
1.2836306e-06 7.1701425e-06 8.166813e-06 7.165511e-06 3.2893176e-06 9.211127e-06 1.3948419e-05 2.8318818e-06
4.2010315e-06 3.584625e-06 2.613768e-06 4.6904356e-06 3.6488755e-06 3.71712e-06 4.1293797e-06 5.171223e-06
1.0381173e-05 1.0362403e-05 8.909086e-06 7.906744e-06 2.0097354e-05 1.079551e-05 1.8368299e-05 2.4199893e-05
6.3605917e-06 1.1700071e-05 1.5709085e-05 8.098849e-06 8.455787e-06 8.014524e-06 8.622091e-06 7.300966e-06

exp_avg f4 [64]
00000000: f70d 1339 6b0d bb39 e2f7 2438 5923 ee38
00000010: 80b1 68b8 a9bb 2db9 0438 6fb7 1b22 2939
00000020: 1429 58b7 05a5 d938 eb0c 1b3a 1493 34ba
00000030: 885d e438 6659 45b8 4fbf 13b9 e0f3 95ba
00000040: 91cd d13a fbeb 5bb9 9d75 4bb8 ead1 fcb9
00000050: 3311 80b8 7aa2 103a 471e 283a f899 6b37
00000060: ab37 ef38 1b50 2738 68b0 adb7 a2fe 9db9
00000070: 7cbb 1e39 13fa 0139 eae5 a339 7454 c139
00000080: c3e3 fcb8 56e0 a138 4aa7 66b8 f418 b9b9
00000090: dc5e 04b8 7dbd 3a37 96e9 0639 838f b3b8
000000a0: 835b 04ba e747 d538 49f5 6239 4785 2f3a
000000b0: a019 df36 0715 76ba ee72 03ba 2ec4 1f3a
000000c0: c4fc 96b8 a561 48b9 3258 8038 b869 fe38
000000d0: 40e8 10b9 fb23 4739 f5bd ec39 2878 0c3a
000000e0: 5996 37b9 38da 3339 e53e 89b9 288e 0b3b
000000f0: 5c27 93b7 0335 3f3a 213e 1d38 98b8 deb8
0.00014024215 0.00035677417 3.9331506e-05 0.000113553084 -5.547842e-05 -0.00016568475 -1.4258552e-05 0.00016129801
-1.28841675e-05 0.000103781036 0.00059147057 -0.00068883714 0.00010889309 -4.705172e-05 -0.0001409028 -0.0011440478
0.0016006698 -0.00020973377 -4.8508507e-05 -0.00048221584 -6.106719e-05 0.0005517375 0.0006413203 1.404294e-05
0.00011406777 3.9890507e-05 -2.0705353e-05 -0.0003013509 0.00015137898 0.00012395559 0.00031261082 0.0003687475
-0.0001205872 7.718864e-05 -5.4992073e-05 -0.0003530454 -3.1559597e-05 1.1130583e-05 0.00012866253 -8.562116e-05
-0.00050490367 0.00010170024 0.00021644415 0.000669558 6.648901e-06 -0.00093872886 -0.0005014379 0.00060946017
-7.199639e-05 -0.00019109862 6.119943e-05 0.000121313555 -0.0001381943 0.00018991523 0.00045154957 0.0005358481
-0.00017508249 0.00017152063 -0.00026177536 0.0021294449 -1.7542094e-05 0.0007293971 3.748958e-05 -0.00010620168

exp_avg_sq f4 [64]
00000000: aeb8 8435 f731 6636 c190 b835 e668 cb37
00000010: 80aa 7f37 90f3 4a37 bea4 8238 9a75 6936
00000020: fc02 2b36 c43b c637 c417 5f37 a733 7937
00000030: 5ffc eb37 7723 1338 9331 aa35 d199 a836
00000040: 0b93 9738 ec97 3037 cd0f 4d38 c373 8f35
00000050: 6b58 8a37 f1ed 6d37 b45d ad36 bc28 aa36
00000060: 3aea 1138 9d14 8537 e10e 8d36 9380 a936
00000070: 88e0 1336 3926 4d37 f1eb aa35 b044 2e37
00000080: 4842 1e37 c11a 2537 9615 6e36 8de5 9736
00000090: d4ef 3637 897e de36 c8fd 5435 22f0 2d36
000000a0: a2b6 2036 be3d 5237 3afb 5837 109a dc36
000000b0: 9f60 8d36 657e 0f38 65a3 9737 1e7a c336
000000c0: 8ac9 7035 0454 8e37 9404 1e36 10a6 9c35
000000d0: a3a3 ac37 0263 0138 bd46 b435 066a 8436
000000e0: 67de ad37 8783 2938 f41f 0a36 8f78 6e38
000000f0: ca6d ad38 0ad2 3337 df4b a034 0a79 6737
9.888515e-07 3.4301754e-06 1.3751197e-06 2.4248333e-05 1.5238882e-05 1.2096847e-05 6.229569e-05 3.4788159e-06
2.5482723e-06 2.363127e-05 1.3297369e-05 1.4853583e-05 2.8131702e-05 3.508056e-05 1.2680415e-06 5.0246967e-06
7.22763e-05 1.052579e-05 4.8890524e-05 1.0688021e-06 1.6492055e-05 1.4181701e-05 5.1667103e-06 5.071137e-06
3.4788834e-05 1.5864434e-05 4.2038596e-06 5.0515605e-06 2.2035401e-06 1.2227852e-05 1.2734655e-06 1.0387201e-05
9.432966e-06 9.8409955e-06 3.5477328e-06 4.526874e-06 1.0903885e-05 6.630846e-06 7.9345455e-07 2.5918785e-06
2.3948164e-06 1.2531351e-05 1.29330965e-05 6.574446e-06 4.2133756e-06 3.421157e-05 1.807669e-05 5.825669e-06
8.9700245e-07 1.6966842e-05 2.35465e-06 1.1671236e-06 2.0580197e-05 3.0848205e-05 1.3431633e-06 3.9462493e-06
2.0726771e-05 4.0415234e-05 2.0582202e-06 5.68559e-05 8.269733e-05 1.0718135e-05 2.9857526e-07 1.3796855e-05
